pretrain/2016/net0-1000-dice.pkl (torch, 17459 bytes, 13 tensors)

cnn1.0.weight f4 [16, 3, 3, 3]
000000 e3 89 16 be 14 7d 83 bd b0 05 b0 bc 84 0e 4a 3d
       -0.14701037 -0.06420341 -0.021487087 0.04933025
000010 bd aa d5 3d db 3a 04 3d ce 90 a2 3e 76 e4 9d 3e
       0.10432956 0.03228269 0.31751102 0.30838364
000020 5d 76 8e bd 9d 81 00 3d fd 9e 2d 3d c6 3e 2d bc
       -0.0695617 0.03137361 0.04238795 -0.010574048
000030 d7 b3 7c 3d a7 7f d5 3d 76 a4 d8 bd 74 0a 16 3e
       0.061694946 0.104247384 -0.105782434 0.14652425
000040 da 43 18 3e 13 91 1e be af df a3 be 30 b4 3a be
       0.14869633 -0.15485029 -0.32006595 -0.18232799
000050 17 7d aa 3b de 79 95 bd 49 ae ef 3d b0 99 a3 ba
       0.0052029 -0.07298635 0.11703164 -0.0012481716
000060 a0 22 d9 bc 9c 9c 93 3c 34 ed 65 3c 68 a3 77 3d
       -0.026505768 0.018019013 0.014033604 0.06045857
000070 23 b1 3f be 4b d3 17 be 8c 89 0b be 13 de 07 3e
       -0.18719916 -0.14826696 -0.13626689 0.13268308
000080 45 87 b2 bd 1b 86 46 be f7 80 23 be 85 d3 d9 3d
       -0.08717207 -0.19387095 -0.15967165 0.10636047
000090 b8 7e 9c 3d 97 2b c3 3d 95 c4 18 3e f3 a7 f8 3d
       0.07641357 0.095297985 0.1491874 0.12141409
0000a0 c3 c7 e5 bc da 30 4e 3e 10 7a 73 bd be 27 98 bd
       -0.028049355 0.20135823 -0.05944258 -0.07429455
0000b0 ce aa 82 3d cb 52 3d bb 23 0e e2 bc cc 29 a8 3d
       0.06380235 -0.002888846 -0.027594632 0.08211097
0000c0 1d 40 fa bc 91 f8 16 be 1f 5c 6f 3e 36 ca cb bd
       -0.03054815 -0.14743258 0.23374985 -0.09950678
0000d0 a9 cf 41 be 67 c5 9e 3e e2 ae 5c 3e 71 0c 06 3e
       -0.18926872 0.3100998 0.21551087 0.13090684
0000e0 0f aa 06 3e c1 d9 0a 3e b9 9d 0a be 33 fb ae 3c
       0.1315081 0.13559629 -0.13536729 0.021360015
0000f0 00 f9 1e be 26 aa f9 3c 71 17 f3 bc 78 d8 95 3e
       -0.15524673 0.03047664 -0.029674264 0.29266715
000100 f9 0b f2 3d 23 91 c9 3d 92 26 04 3e eb ff 3e 3d
       0.1181869 0.09842136 0.12905338 0.04663078
000110 cb cb ae 3d 88 eb dc 3b 82 cb 38 be 3e fa 25 be
       0.08534964 0.0067419447 -0.18046382 -0.16208741
000120 d6 0f d6 3c ec 4b 3e 3c 1a b7 b4 3d b8 0a 17 be
       0.026130598 0.011614781 0.08823986 -0.14750183
000130 7e df 36 bd 89 33 60 be 09 84 49 be 48 6c 68 bd
       -0.044646733 -0.21894659 -0.19679274 -0.05674389
000140 21 6e 44 3d f8 a6 de 3d c6 87 21 3d ec 41 f5 3b
       0.04795659 0.108716905 0.039436124 0.007484665
000150 46 44 32 3e 81 ac 78 3e 61 ce 67 3e ba 35 5a 3d
       0.17408857 0.24284555 0.22637321 0.053273894
000160 2e 61 c6 bd c1 2a 8e bd 91 57 51 be 2e 8e 05 be
       -0.09686504 -0.069417484 -0.2044356 -0.13042518
000170 2d ee af bd 09 ca a0 3d c1 ee a3 bd c8 52 4a be
       -0.0859035 0.07851035 -0.08004523 -0.19758141
000180 87 d5 37 be 02 d7 0f bd 78 d5 41 be 64 20 49 bd
       -0.17952548 -0.035117157 -0.18929088 -0.049103156
000190 68 7d d2 3d 49 bc 10 bc ad 3c fe 3d ac df df bd
       0.102778256 -0.008833953 0.12413917 -0.10931334
0001a0 e3 15 ac 3d 63 9c 1c 3e 72 f8 d4 bc cf fe 2e 3b
       0.08402612 0.15294032 -0.025997374 0.002670217
0001b0 8b 44 67 bd 94 76 be 3d f5 6c 60 3d 0f 69 c3 3d
       -0.056461852 0.09299961 0.05479141 0.09541523
0001c0 9b 6d 4e 3e e8 1e 20 3e 24 7e 51 3e 9e 99 bc 3b
       0.20158999 0.1563679 0.20458275 0.0057556173
0001d0 44 5a c4 bd 6a 74 3f be 2a 09 b4 bd fc a8 b1 bd
       -0.09587529 -0.18696752 -0.087908104 -0.08674809
0001e0 79 3d 25 be 8c 6e 4f 3d 5f a2 43 3e 49 b9 de ba
       -0.16136731 0.050642535 0.19104908 -0.0016992475
0001f0 d5 d2 dc 3d 31 60 83 be 59 96 a8 bc 86 02 87 3d
       0.107824005 -0.25659326 -0.020579504 0.06592278
000200 61 ca 47 3e 57 0a 2b be 4f 5a af 3d 70 94 4b bb
       0.19510795 -0.16703163 0.08562147 -0.0031063817
000210 f3 8f 5a 3e 5c 35 48 3e e0 3e da 3c 4f da 7a 3e
       0.21343975 0.19551605 0.02664131 0.2449734
000220 ee de 12 be 1f e9 19 bd 2b c9 20 3e 8a 22 93 bd
       -0.14342853 -0.037575837 0.1570174 -0.07184322
000230 eb 2e 7e 3d 1b 82 5f bb e1 e6 96 bc 3a 80 c9 3d
       0.062056463 -0.0034104649 -0.018420639 0.098389104
000240 a6 98 85 3e 4b f1 8c bd 5d 26 38 be 61 f1 7f bd
       0.26093024 -0.068819605 -0.17983384 -0.062486056
000250 02 c6 5c be 36 8c bd bd 5a c1 9e 3b 79 e6 3e be
       -0.21559909 -0.09255259 0.0048448266 -0.18642606
000260 a7 04 18 3d 1b 37 9a 3e 3a fe ab 3b 95 11 d2 bc
       0.03711381 0.30120167 0.005248812 -0.02564315
000270 f8 d5 0f 3e 58 2c 82 3d ca 1d 6e 3c 30 18 c5 bd
       0.14046466 0.06356114 0.014533469 -0.09623754
000280 0a ed d7 3d a1 4d 7b 3d 26 a4 5f 3e 35 6e 1b bd
       0.105432585 0.06135333 0.21839961 -0.0379469
000290 cc 01 62 3e 35 0b db 3c 68 26 04 3e 23 d1 74 3d
       0.22070998 0.026738742 0.12905276 0.05976976
0002a0 8d b2 bd 3d 2a 2d c5 3d 6a db 9f 3e b0 78 d8 bd
       0.092625715 0.09627755 0.31222087 -0.10569894
0002b0 69 c6 be bd 10 20 ee 3d 88 fc 63 be e9 f3 b3 3b
       -0.093151875 0.11627209 -0.22264302 0.005491723
0002c0 94 6e ff 3d f4 71 f4 3d 93 09 30 be 92 f8 37 3e
       0.12472263 0.11935797 -0.17191152 0.17965916
0002d0 8e c7 53 be 49 ee e2 bc 3d e1 6b be 22 30 c8 3c
       -0.20681593 -0.027701514 -0.2303514 0.024437014
0002e0 fc 33 05 be 84 d3 20 3e ec 05 2a bb a7 de 71 3d
       -0.13008112 0.15705687 -0.002594347 0.05905023
0002f0 c1 58 20 be 12 2b 64 be 52 b2 c8 3d b7 bf dd 3c
       -0.15658857 -0.22282055 0.09799637 0.027068956
000300 e0 65 ad 3d 98 05 15 bc 42 a3 fe bc 01 f3 bb 3c
       0.08466697 -0.009095572 -0.031083707 0.022943022
000310 7f 0d 91 3d 8c 2c 36 3e 2b 8b 43 be f2 13 0f bd
       0.07082652 0.17790431 -0.19096057 -0.03493113
000320 91 0b 71 3d 11 84 64 bd 74 70 78 3e 21 65 a2 3e
       0.05884892 -0.05579001 0.24261647 0.3171778
000330 68 2f 00 be 9b 31 1b be f5 b5 ba 3c 04 02 55 be
       -0.12518084 -0.15155642 0.022791842 -0.2080155
000340 c0 23 b5 3d b7 da 83 bc fb cf 06 be fc bb 5c 3c
       0.088447094 -0.016095502 -0.13165276 0.013472553
000350 fd 3f 5a 3e 98 fe aa bc a3 a0 4a 3e d1 33 01 3e
       0.21313472 -0.020873353 0.1978784 0.12617423
000360 73 f4 7c 3e 57 ac f5 3d 03 66 31 3e 03 7a 7a bc
       0.24702625 0.11995762 0.1732407 -0.015287879
000370 1c 57 e9 3d 3c 24 1e be c9 f5 76 be 93 3e 72 bd
       0.11393568 -0.1544351 -0.24117197 -0.059141707
000380 71 30 ce 3c cc 0c 8d 3d 73 a8 9c bd 4c b7 23 be
       0.025169583 0.068872064 -0.07649317 -0.15987891
000390 61 1b 9f bd dd 23 1a bd 9a a3 99 3d ef 32 5e be
       -0.07768894 -0.03763186 0.07501908 -0.21699117
0003a0 9f 29 86 3d b4 61 1b 3d 19 11 ba 3d 20 e9 20 3e
       0.06550907 0.037934974 0.09085292 0.1571393
0003b0 7f 00 10 3e 2e 7e 95 bd a8 f2 e0 bd e8 3c e4 3c
       0.14062689 -0.072994575 -0.10983783 0.027861074
0003c0 95 b6 c8 bc bc 56 3d bd f9 c9 f1 bd 03 4d 6b 3e
       -0.024501124 -0.046225294 -0.11806101 0.22978596
0003d0 9f e6 ff bc 03 e0 12 be 1d 21 82 bd 19 ae 2e be
       -0.031237898 -0.14343266 -0.06353972 -0.170586
0003e0 b9 a2 05 3d 48 bd 10 bd 46 f7 c8 3d 2b c3 a6 3e
       0.032625888 -0.035336763 0.09812789 0.32570776
0003f0 d5 ca e3 bd 37 a2 c8 3d 49 e6 12 be db 1d 85 bd
       -0.111226715 0.09796565 -0.1434566 -0.06499835

cnn1.0.bias f4 [16]
000000 40 22 21 3e f8 bf 80 3d 7a e9 17 be 21 e7 1e 3d
       0.15735722 0.06286615 -0.14835158 0.03879464
000010 c8 97 25 bd 8f 91 da b9 60 88 f5 3c ad db 85 3d
       -0.040427953 -0.0004168865 0.029972255 0.065360405
000020 aa 0e b9 3d 9f 5e 9c bd 8d 50 c0 bd b1 5d 88 3d
       0.09036 -0.07635235 -0.09390364 0.06658495
000030 4c 19 18 3e a8 a3 b4 bc de db c0 3d f9 e5 2d 3e
       0.148534 -0.022050694 0.09416936 0.16982259

cnn1.1.weight f4 [16]
000000 87 48 8a 3f 0f 59 7b 3f fc 85 88 3f fc 15 6b 3f
       1.0803384 0.9818277 1.0665889 0.9183042
000010 71 f6 80 3f 4d 2d 79 3f 82 69 9f 3f bb 7a 98 3f
       1.0075208 0.9733475 1.2454073 1.1912454
000020 19 28 83 3f 52 e0 84 3f 14 de 82 3f b7 f4 65 3f
       1.0246612 1.0380957 1.0224023 0.8982653
000030 16 3c 7e 3f 55 39 47 3f 53 f9 88 3f 4b 97 82 3f
       0.99310434 0.77821857 1.0701088 1.0202421

cnn1.1.bias f4 [16]
000000 60 d8 c8 be c7 0f 08 3d 93 1f 4b be 9c fd c5 be
       -0.3922758 0.03321817 -0.19836263 -0.3867005
000010 00 9c c6 bd 83 0a c6 bd a6 b7 6e bd dc ef 46 be
       -0.096977234 -0.09669974 -0.05828061 -0.19427437
000020 5c 8d 5a bd f6 22 91 be e0 cc 24 3e dc ed ae be
       -0.053357467 -0.28346986 0.16093779 -0.34165847
000030 97 7c e8 3d 7c 77 a5 3e 92 bd 3d bf e8 fb bb 3d
       0.113518886 0.32317722 -0.74117386 0.09178907

cnn1.1.running_mean f4 [16]
000000 4c bd d7 3e a7 5c d8 3d 80 e6 a5 3d dc 44 f4 bb
       0.4213661 0.10564547 0.08100605 -0.0074544977
000010 69 94 1b 3f e9 5d 8b 3e 1d 50 f2 3e 97 6f 03 3f
       0.6077333 0.27220085 0.47326747 0.5134215
000020 a3 4d 1a 3d cc 3a b9 bc 89 9a 8e bd 0d bd bb bc
       0.037671696 -0.022611044 -0.06963069 -0.022917295
000030 64 1b 51 3f 70 8e 48 3d 03 1c 47 3e 5e a6 88 3f
       0.8168242 0.048963964 0.1944428 1.0675771

cnn1.1.running_var f4 [16]
000000 98 22 40 3c 29 4d c8 3b a7 49 8a 3c f8 2b 0d 3b
       0.011726998 0.006112714 0.016880823 0.00215411
000010 ac b5 ac 3c ba 5f 1b 3c af f3 6e 3c d9 07 b5 3c
       0.021082722 0.009483272 0.014584466 0.022098469
000020 44 c7 fd 3b 8e b3 ab 3b ae f0 14 3b 51 fb 81 3b
       0.0077447016 0.0052399104 0.0022726464 0.003966727
000030 7c 49 e1 3c f4 52 b2 3a 9e fa fa 3b c4 20 2f 3d
       0.02750086 0.0013605044 0.0076592704 0.042755857

cnn2.0.weight f4 [16, 16, 3, 3]
000000 ee 33 b4 3c 12 ed 68 3b 45 d0 38 be 85 42 e4 3d
       0.021997418 0.0035541696 -0.18048199 0.111455
000010 12 36 b4 3d b7 9b 9c bd 62 b1 19 3e 37 6d a5 bd
       0.087993756 -0.07646888 0.15009072 -0.08077472
000020 3e a7 0d bc f5 6d b5 bc ee 8c ed bd 15 65 09 be
       -0.008645831 -0.022147158 -0.11599146 -0.13417466
000030 b0 c6 22 3d c3 17 f0 3d 02 9d 07 3e 59 84 03 bd
       0.039740264 0.11723282 0.13243487 -0.03210864
000040 5a 55 92 3d 9e bc 98 3d 38 d3 54 3e a1 6b 93 bb
       0.07145186 0.07457851 0.20783699 -0.0044989143
000050 c6 0f aa 3c e5 ae f5 bb 6b dc 1b bd 4c 29 5e 3b
       0.020759474 -0.0074976557 -0.038052004 0.0033899127
000060 44 43 a0 3d 1c 34 d2 bc 9d 5a 66 3d bd 83 95 3d
       0.0782533 -0.025659613 0.05623876 0.07300518
000070 c6 df fa 3a fd 66 81 bd 9d 2b 24 3d cb 29 8a bd
       0.0019140176 -0.063184716 0.040080655 -0.067462526
000080 10 e8 b0 3c de 50 c8 3d e0 c9 4c bd 3a 61 19 bd
       0.021595031 0.09781049 -0.04999721 -0.037446238
000090 f8 ea db bd 18 25 9c bd 1f 71 16 be 7c fd e6 3c
       -0.10738176 -0.076242626 -0.1469159 0.028197043
0000a0 c9 62 e1 bd f5 87 a7 bd f7 42 91 3d 70 20 8d bd
       -0.1100517 -0.081802286 0.07092851 -0.068909526
0000b0 22 cf 4d bd 1e dd 00 be 90 59 02 bd c3 a1 22 bd
       -0.050246365 -0.1258435 -0.031823695 -0.03970505
0000c0 78 33 bf bd 88 d9 44 bc 94 f3 69 3c c4 ec 5d bc
       -0.09335989 -0.012014754 0.014279265 -0.013545219
0000d0 cb 24 3f bd 9c af d8 3c 38 2a 96 be f8 9a 59 bd
       -0.046665948 0.026450925 -0.29329085 -0.053126305
0000e0 52 48 a2 bc 10 b9 a4 3d 20 cf 05 3d e8 fa 4c 3d
       -0.019809876 0.0804311 0.032668233 0.05004397
0000f0 7e 39 f1 3c bf 6b a1 bd ea 88 77 3d 3d ff 08 be
       0.02944636 -0.07881879 0.060433306 -0.13378616
000100 0a 3a d1 3d 24 78 b7 bd 9d 02 16 bd 27 0a 38 be
       0.10216148 -0.08958462 -0.036623586 -0.17972623
000110 78 2c 16 be e9 ff 38 be a8 f8 27 be 2b ee 16 be
       -0.14665401 -0.18066372 -0.16403449 -0.14739291
000120 e4 22 51 bd 7b fc 95 bc d6 07 2d be 05 f0 3f 3d
       -0.051058665 -0.018308869 -0.1689752 0.04685976
000130 d7 6e 91 bd d7 36 7b bd 67 27 d4 ba b0 2a 93 bd
       -0.07101219 -0.061331596 -0.0016186059 -0.07185876
000140 d1 b4 0f bd c6 54 b1 3d fc 6f 95 bc c1 f2 32 be
       -0.03508455 0.086587474 -0.018241875 -0.17475416
000150 cf 61 78 3e 4c 73 8a 3d c9 a8 a5 bc 86 9d 7d 3d
       0.24256061 0.067602724 -0.020222085 0.061917804
000160 28 d9 75 bd 3f 21 48 bd 00 62 e3 bb dc 14 e5 bd
       -0.06002155 -0.04885983 -0.0069391727 -0.11185619
000170 cf 02 b0 bd 3c 78 b7 bd 26 c7 8b bd 28 76 31 3c
       -0.08594286 -0.0895848 -0.06825094 0.010831393
000180 44 4e b1 bd 5b b5 45 3d 2a 81 69 bd 90 78 26 3e
       -0.08657506 0.048268657 -0.057007946 0.16256928
000190 90 1d 26 3e 4c 24 1a 3e dd d3 25 3b 55 3d 2d bb
       0.16222215 0.15052909 0.0025303282 -0.0026434262
0001a0 2a 09 41 bd 38 34 6e bb 25 2d 5f bc 37 7a ac bd
       -0.04712788 -0.0036347043 -0.013621603 -0.08421748
0001b0 90 eb 52 bd f4 86 38 bd 05 fa b9 3b f2 96 91 bd
       -0.05149418 -0.045050576 0.0056755566 -0.07108869
0001c0 fb c5 31 bb de 15 19 3e d3 6b 26 bc d2 89 a5 3d
       -0.0027126062 0.14949748 -0.010157543 0.08082928
0001d0 31 dc 2b 3e 62 8c f2 3c fb fe 07 bd c7 77 8b bc
       0.16783215 0.029607955 -0.033202153 -0.017024888
0001e0 1c d0 3e bc cb 8f 11 3d 9d f9 8e 3d 82 83 b2 bb
       -0.011646297 0.035537522 0.06981204 -0.005447806
0001f0 28 bb ec 3c ae 71 01 3e 14 31 1e 3d 7d c6 44 3e
       0.028897837 0.12641022 0.038621023 0.19216342
000200 ed 2a 83 3c 11 18 0b 3e 96 1f 9f bc 6c eb 94 3d
       0.01601168 0.135834 -0.019424241 0.07271466
000210 55 79 21 be b4 71 8d bc d9 4d 5e 3e fc 47 2f bd
       -0.15768941 -0.017266132 0.21709384 -0.04279326
000220 09 94 e2 3d 0c 96 4e 3d 5a 7a 06 3d 0c 9e dc 3d
       0.11063392 0.050436065 0.032831527 0.107723325
000230 45 59 15 3e ec 4e a6 3d e1 74 8f 3d b9 90 28 3e
       0.14584835 0.08120522 0.07004715 0.16461457
000240 fa 41 d0 bd 0b 1d 28 bc 48 f8 a6 bb 75 00 60 3d
       -0.10168834 -0.010260831 -0.0050955154 0.054687936
000250 c8 a9 e8 bc 3d 1d 87 be 79 b0 99 3c 4e 57 1f bd
       -0.02840127 -0.26389495 0.018760907 -0.03890162
000260 dc 82 8a bd 6e e2 8f bd c3 0d 91 3c bf e8 24 3e
       -0.06763241 -0.0702561 0.017706757 0.1610441
000270 8f f1 2d 3d 31 a1 25 bc 84 dd 85 3d 44 a9 e0 3c
       0.042466696 -0.010109232 0.065363914 0.027424462
000280 42 12 d1 3d f8 15 a3 bd 2c d9 b1 bd eb 74 ee bd
       0.102085605 -0.079631746 -0.086840004 -0.11643394
000290 f8 3a 2b be 17 08 eb bd 95 e9 fe 3c 1b 82 61 bc
       -0.16721714 -0.114761524 0.03111724 -0.01376393
0002a0 af f6 9c 3b e2 7a be 3d 0f 06 30 3e d0 c8 a1 bd
       0.004790149 0.09300782 0.17189811 -0.0789963
0002b0 55 fe 5c bd 4f 15 f6 3c cb 8b 3a 3b 43 d0 21 3c
       -0.053953487 0.030039458 0.002846467 0.009876314
0002c0 68 14 bb 3d 92 35 00 be 35 c4 53 bd 20 7f 95 bc
       0.091347516 -0.12520435 -0.05170079 -0.018249094
0002d0 0a 4f 9f bd de 52 d8 bc 60 6f b7 bd 58 74 bf bd
       -0.077787474 -0.026406702 -0.0895679 -0.09348363
0002e0 5e f4 ed 3c 5a 8f 07 3c db 51 0f 3e d5 25 9e bc
       0.029047187 0.008273924 0.13996069 -0.01930515
0002f0 93 ab d1 bc 76 2f 2a 3d 7f d1 2d 3d 36 42 c9 3a
       -0.025594508 0.04154917 0.04243612 0.0015354815
000300 16 a9 36 bc b7 fb e8 bd 6a 23 1a bd 85 72 13 be
       -0.011148712 -0.11376136 -0.03763143 -0.14399154
000310 4e ac c2 3b a8 0e 06 3d 69 9a 58 3e d2 01 6b 3e
       0.0059409505 0.03272882 0.21152653 0.22949913
000320 d1 cd 0f 3d 81 f1 87 3d 60 4f 80 3c 4f 7c 9d bd
       0.03510839 0.0663786 0.015662849 -0.076897256
000330 d0 59 22 3d 67 c3 50 bd af 2e 01 be 99 c9 52 bd
       0.039636433 -0.0509676 -0.12615465 -0.05146179
000340 38 21 07 3d 23 6c 9e 3d 37 59 ff 3d 16 a3 dd 3d
       0.032990664 0.07735469 0.12468188 0.10822122
000350 0e 68 86 bc fe bf e5 3c 54 15 9a 3b f7 65 ee 3d
       -0.016407039 0.02804565 0.0047022495 0.11640542
000360 76 c1 11 bc c6 1d 8c bd b7 02 c4 3c 3d 32 46 bd
       -0.008896222 -0.06841616 0.023927076 -0.048387755
000370 ad ae 85 3c 98 84 50 bd 17 7e c0 bd 7c 87 05 bd
       0.016318643 -0.0509077 -0.0939905 -0.03259991
000380 45 94 c1 3d ac 4b 00 be 6e a6 76 be 8c d5 77 be
       0.09452108 -0.12528867 -0.24086925 -0.24202555
000390 c5 db 00 be 58 50 c6 3d bf d7 4b 3d 94 a1 01 be
       -0.12583835 0.09683293 0.0497663 -0.12659293
0003a0 09 20 ad bc d1 1e 29 be 40 a6 5c be 1d 25 20 3d
       -0.02113344 -0.16515662 -0.21547794 0.039097894
0003b0 a9 07 7c be d1 ce 5f bd 96 5a c4 3d 02 fc 7f bc
       -0.24612297 -0.054640595 0.095875904 -0.015624048
0003c0 4b cb c7 3b 78 6e c6 39 ee 90 e3 bc b8 cf 84 3d
       0.0060972325 0.0003784781 -0.027779069 0.06484932
0003d0 07 f9 d5 3b 91 f3 93 3d a6 ad dc 3d ed 7e 4c 3b
       0.0065299305 0.07224191 0.10775308 0.0031203583
0003e0 14 9f a1 3b 6d 32 27 3c 50 79 82 bd 8a fa 16 3c
       0.0049322937 0.010204894 -0.06370795 0.009215007
0003f0 b1 72 2c be bb 1b 2b be 8a 2b fd bd 25 43 c5 3b
       -0.16840626 -0.16709797 -0.1236182 0.006019967

cnn2.0.bias f4 [16]
000000 f7 58 83 bd 95 2b 06 3d 4c 83 62 bd 03 a9 e3 3b
       -0.06413453 0.032756407 -0.055300996 0.006947638
000010 23 a5 32 bd 1f ab 31 3d 61 e0 e2 bc 81 9d a7 3b
       -0.043614518 0.043376084 -0.027694883 0.0051152115
000020 b8 b9 a3 bc bb 17 ce 3d f4 c3 56 bd bd 01 89 3d
       -0.019986019 0.1006312 -0.05243297 0.06689785
000030 09 38 e5 3c 28 96 9b bb f6 cd fa bc 49 08 0d bd
       0.027980821 -0.0047481246 -0.030615788 -0.03443173

cnn2.1.weight f4 [16]
000000 55 8d f0 3f de ed be 3f c7 67 00 40 a2 ac c7 3f
       1.8793131 1.4916341 2.006334 1.5599558
000010 83 c3 f9 3f 52 8f df 3f df 1c ce 3f 6f a0 20 40
       1.951279 1.7465613 1.6102561 2.509792
000020 4c 95 02 40 9f 85 e7 3f a2 63 fd 3f 64 9a f5 3f
       2.0403624 1.8087653 1.979603 1.9187741
000030 ce 00 ce 3f c0 56 cd 3f 78 17 f6 3f 78 65 ba 3f
       1.6093996 1.6042099 1.9225912 1.4562216

cnn2.1.bias f4 [16]
000000 23 32 f9 3e e2 4a ae 3e d1 34 a7 3e dd 8c 09 3e
       0.48671064 0.34041506 0.32657483 0.13432641
000010 60 bc 38 3d 8b 32 9e 3c be 48 00 3f b2 e8 57 3e
       0.045101523 0.01931121 0.50110996 0.2108486
000020 3f e1 65 bd 59 dd 6c 3d 71 19 86 3e c2 83 77 3e
       -0.056123015 0.05782828 0.26191285 0.24171355
000030 d4 25 f9 3d 65 ba 7f 3e 81 af df 3e 48 1c 50 3e
       0.12165418 0.24973448 0.43688586 0.20323288

cnn2.1.running_mean f4 [16]
000000 06 e1 0f 3c 31 a1 43 bf b7 52 84 3e ab 1e f8 3d
       0.008781677 -0.76417834 0.25844356 0.121152245
000010 e2 9e 45 3e ec a3 57 3e c2 ab 31 bf b9 39 6d 3e
       0.1929889 0.21058625 -0.69402707 0.2316655
000020 61 89 12 be 8b 2d 6f 3d 0b 23 c7 3d 62 65 39 3f
       -0.14310218 0.058393043 0.09723481 0.7242032
000030 c7 31 df 3d a9 81 f9 bd ba b7 8c be 59 4c f0 be
       0.10898166 -0.12182934 -0.27483922 -0.4693325

cnn2.1.running_var f4 [16]
000000 a5 eb 64 3d f1 86 8d 3e c8 1e 89 3d b4 d5 ae 3d
       0.05588879 0.27642015 0.06695324 0.085368544
000010 6a 51 61 3d 76 95 1b 3e 81 dc 3b 3e 92 d7 5b 3d
       0.055009283 0.15193734 0.18345834 0.05367238
000020 66 42 05 3e 11 a4 a4 3d 77 93 56 3d a8 b8 21 3e
       0.1301361 0.08039106 0.052386727 0.15793097
000030 2e ed 51 3d 95 0f 2e 3e fe 50 e7 3d 8d a8 c3 3d
       0.051251583 0.16998132 0.11294745 0.09553633

output.0.weight f4 [1, 16, 3, 3]
000000 e2 c4 07 3e db e6 05 3f 1c b3 1a 3f 81 ad fc 3e
       0.13258699 0.5230538 0.6042955 0.49351123
000010 42 52 f5 3e 90 5c 04 3f 67 56 f9 3e b6 bc 08 3d
       0.4791432 0.5170374 0.48698732 0.033383094
000020 0b 46 fb 3e ef 98 66 bd 2c ba 28 3e 32 bd bd 3e
       0.49076876 -0.056298193 0.16477269 0.37058407
000030 48 26 59 3e a0 91 89 3e e9 b3 db 3e ee c8 9a 3e
       0.2120601 0.26868916 0.42910698 0.30231422
000040 f3 d0 99 3e bf 1b 82 3e 8b bf 15 bd 4a 7e 57 be
       0.30042228 0.25411794 -0.036559623 -0.21044269
000050 c0 1a 4b 3e 80 21 33 3e e6 c7 63 3e 44 28 fd 3e
       0.19834423 0.17493248 0.22244224 0.49444783
000060 93 4a 36 3f e6 2b 61 3f b5 b5 22 3f 93 fd c9 3e
       0.7120754 0.8795761 0.6355851 0.39451274
000070 6b 39 e2 3e dc 91 bb 3e b8 fb a4 3e 2b 0f 74 3e
       0.4418443 0.3663472 0.32223296 0.23833911
000080 de ed 08 3f 67 fa 8b 3e 97 99 b7 3e 9a 6e ae 3e
       0.53487957 0.2733948 0.35859367 0.34068757
000090 9f 9a 42 3f 7a 7e 76 3f cd da fa 3e df 34 1a 3e
       0.76017183 0.9628674 0.48995057 0.15059231
0000a0 44 1e 4a 3e 6e de a9 3e 33 7e f2 bd 3f 01 1c 3e
       0.19738108 0.33177513 -0.11840477 0.1523485
0000b0 f9 1e d7 3e f0 d8 bb be dc 8e ca be bd 23 17 bf
       0.42015818 -0.36688948 -0.39562118 -0.5903891
0000c0 1a 76 c0 be 40 09 01 bf 98 90 2e bf 33 10 0f bf
       -0.37590104 -0.5040474 -0.6818938 -0.55884093
0000d0 63 5c 1a bf 26 61 5c bf df bd 98 3e ff 89 d0 3e
       -0.6029722 -0.86085737 0.2983236 0.40730283
0000e0 33 fd d1 3e 07 74 be 3e 97 7f 81 3e 1e cf 83 3e
       0.41013488 0.37197897 0.25292656 0.25743955
0000f0 ac 94 bf 3e 8b 00 a5 3e 74 46 68 3e 88 56 dd 3e
       0.37418115 0.32226977 0.22683126 0.4323008
000100 bc cf b4 3e 9a 8a b6 be c8 ed b5 3d a0 f7 90 be
       0.3531474 -0.3565262 0.08883244 -0.28313923
000110 83 f8 2a bf 96 96 07 bf 95 72 38 bf 59 ed e5 be
       -0.6678545 -0.5296415 -0.7204984 -0.44907644
000120 e9 eb 7b bf 8b cc 49 bf c7 05 1d bf 96 68 4f bf
       -0.98406845 -0.7882773 -0.6133694 -0.8101896
000130 e3 19 49 bf de a7 63 bf f2 30 49 bf ad 61 1e bf
       -0.78555125 -0.8892802 -0.7859031 -0.6186779
000140 04 3b 21 bf 38 3c 9d be 18 12 08 bf 2b 51 33 bf
       -0.62980676 -0.30710006 -0.5315261 -0.7004573
000150 89 95 22 bf e3 9c 2f bf 90 c6 eb be 7b 47 bc be
       -0.6350942 -0.68598765 -0.4604993 -0.36773285
000160 a9 17 78 be 35 04 c3 3b 07 c6 4b 3f 1a 57 c6 3e
       -0.24227776 0.0059514293 0.7959904 0.38738328
000170 02 f7 b5 3e 9c 85 80 3f 79 4d ba 3e 13 e0 9e 3e
       0.35540015 1.0040774 0.36387232 0.3103033
000180 2a 4f d2 3e b6 76 db 3e 72 83 c5 3e a2 21 ec 3e
       0.41076022 0.42864007 0.38576847 0.4611941
000190 df b9 37 3f 8e b3 35 3f b2 02 46 3f ff f4 00 3f
       0.7176799 0.70977104 0.7734786 0.50373834
0001a0 de 1f 08 3f 20 96 0f 3f 1e d5 e2 3e 7c 02 a5 3e
       0.53173625 0.5608845 0.4430322 0.32228458
0001b0 2c 70 04 3f 0d 33 ca 3e 2f d5 e8 3e 90 68 01 3f
       0.5173366 0.39492074 0.45475146 0.50550175
0001c0 44 d1 b0 3e 99 0a 14 3f bd 58 9f 3e ac 88 05 3e
       0.34534657 0.5782867 0.3112239 0.13040417
0001d0 5f b5 f8 3e 15 bf af 3e b6 77 8c 3e db 3e 97 3e
       0.48575875 0.34325472 0.27435082 0.29540142
0001e0 88 fe d7 3e 43 18 83 3e 98 35 8f 3e da 75 ec 3e
       0.4218638 0.25604448 0.27970576 0.46183664
0001f0 3e 17 c0 3e b6 cf 01 3f 8b 2c 98 3e 1e 6b 00 3f
       0.37517732 0.50707567 0.29721484 0.5016345
000200 bc 01 1e 3f ce d2 a6 3e 0b c2 b9 3e 15 db 1d 3f
       0.61721396 0.32582706 0.36280856 0.6166242
000210 ec e4 ac 3e 22 0c 9b 3e 2e 1a fe 3e 4e 8b c7 3e
       0.33768404 0.30282694 0.4962935 0.3897347
000220 e9 95 82 3e 17 2c a0 3e 8a 7f 56 3e e7 0d 1a 3e
       0.25504997 0.31283638 0.2094709 0.15044366
000230 e4 41 63 3e 14 db 97 3e 09 fc 8a 3d c0 23 84 3e
       0.22193104 0.2965933 0.06786353 0.25808525
