pretrain/2016/net0-1000-mse.pkl (torch, 17441 bytes, 13 tensors)

cnn1.0.weight f4 [16, 3, 3, 3]
00000000: 055a 3f3e 1eb5 52be bab6 fa3d 749c 6abe
00000010: 814d 093c 252b 6cbc 739c 903d 825e 49bd
00000020: 2132 5d3e 8278 603e b6e7 1bbe fea6 76bd
00000030: d08b 2dbe 1626 84bd 950f c83d 842b c7bc
00000040: 560f b4bd 77fd 963d b5e3 a7bd 2ef3 8ebd
00000050: 0ceb 9e3d d532 713d ea6e 1cbe 6c50 103e
00000060: dfa7 49be d5e7 3f3e c807 343e 273c 663d
00000070: 4725 0e3d 8693 ebbd 9681 12be 5ebf e0bd
00000080: be5a b8bd 2e53 36be e741 af3d 652b ad3d
00000090: de8b bd3d e1c1 fabd ad96 d83d f845 3b3d
000000a0: f083 dbbd ac56 4ebc 5ea5 0d3d aee6 1fbc
000000b0: 0844 543d 2480 b1bd bed9 58ba 7f59 91bc
000000c0: c0ce e73d 10a3 f63d 5000 ad3e 1bda 563d
000000d0: 0089 683d e4e4 e73e 0fd8 88bd 7b8a 753d
000000e0: c39f 6e3e 51f9 58be d5fa 8c3d 1a11 ad3d
000000f0: a853 27be 0c1f 3c3d cdad cabd 904c 4ebe
00000100: 5648 cd3c aa91 983d eb92 11be 813b 44be
00000110: e79f 13be 4fed 58bd 11cd 923d 9fe2 143e
00000120: da11 e23d 9fd8 b6bd d2a3 803d 18cc 39bd
00000130: 4e28 2c3e 9580 e43a 4901 513d 26bb 903d
00000140: 6f4c 14bd 17ab 8abe e5cd 56bc 6c23 873e
00000150: a3c0 c83b 201b 973d 337c 18be 9320 d1bd
00000160: fac5 b53d 63a0 0e3e 7838 fbbc 9712 e63d
00000170: 1af6 273e 4c61 0c3e 320e ac3d 2dc8 01be
00000180: d870 e13d f56d ba3d 8fb9 51be 91e3 173c
00000190: 7086 523e 5a90 9b3d 7248 0fbe 2748 a2bd
000001a0: 3b6a cf3d 8d0d 95bd da33 b0bd 6dc4 8bbe
000001b0: cf11 a03e 51be 1abd 6110 17bd c1ec c1bd
000001c0: a14e 26be 356a 213d 35fb 24bd fb22 cfbd
000001d0: 2ff7 943d 3db2 283e 50fa 783d 0a2e 16be
000001e0: d7b4 e53b bdfe 713d 57aa e0bc 9b8a e13c
000001f0: 5db5 f9bd c524 e63d bc97 bf3d 6583 ab3c
00000200: b55d 9ebc a837 b13d adb1 24be 1cb3 23be
00000210: 963f 39bd 3c30 e7bb c447 283e 0de0 943d
00000220: 73e2 e7bd 88a8 373e 17e6 9ebd af0b b93b
00000230: 6fa3 09be aa2f 0ebe f17b 0d3e 64db 9abd
00000240: b1ae 3f3e bc70 c93d 5738 763e 8481 903d
00000250: e96f a3bd f1f4 753d e106 59be d368 6cbc
00000260: 3b59 ce3b f953 d73d 9d1a db3d c989 12be
00000270: a155 163e 8a3e 6cbd 7435 23be 00cb c4bd
00000280: e584 0dbe 1159 333d cf86 773d 7e00 3ebe
00000290: dfd5 ee3d b7c1 ef3d b79b 1a3e 9dce 11be
000002a0: c975 5e3e c56d 603c 8f50 07bd 840c 203d
000002b0: 8862 873d 9005 4dbe e24d 9c3d b9d3 c63d
000002c0: 8992 f6bd 9fdf 13be 2839 34be c943 37be
000002d0: 6c1b b13d b9ee 73bd 2645 c13d 6f0d 8bbd
000002e0: 06b7 dabd 8336 2f3d dd61 c63d 7f4d 1e3e
000002f0: e667 28be 99de 51be 9cd3 f73d 2050 cabd
00000300: 1f84 0abe e308 e13d 04f0 653e f979 b23c
00000310: dd10 95bc f195 193e ae29 ccbd 9452 2cbe
00000320: 8ba9 703d 5711 ebbd eb42 3d3e 7669 72bd
00000330: 5d92 063e 5eeb 98bd ba7a 69bd eb6c 4ebe
00000340: d496 f5bd 2123 c33d b87b 12be 82b5 073e
00000350: fb4c b2bd 1d8d 413e f09d ba3d 2ca3 d7bd
00000360: 089a 6bbd 31ab 77bc a0c4 a93d a56c 533d
00000370: cc62 ec3d 7ef0 f53d 91e8 c7bd 07b6 043e
00000380: 8600 bf3c 9d9d 31be 9973 473e 859d fbbd
00000390: 9c9e 57be a0a1 afbd a973 a53d 80a1 df3d
000003a0: bf7b 1bbe 2b87 2dbd 3fcc c1bb 2d6b 2c3e
000003b0: b817 13be e9ea 29bd caff 133e cc60 8abd
000003c0: 7609 80bd 46b7 a23d adb4 3abe 43df 383e
000003d0: 7545 8d3c 385f f3bd 35e9 1cbe 9024 e0bc
000003e0: 375c 00be 1f69 3a3e 0937 57be fcac bebd
000003f0: ea6a 41be 570a f43d 8138 cbbc afdc 40bd
0.18686683 -0.20576903 0.122418836 -0.22911245 0.008380295 -0.014414583 0.0706109 -0.049162395
0.21601154 0.2192097 -0.1522511 -0.06021785 -0.16947865 -0.06452577 0.09768597 -0.024312742
-0.087919876 0.07372563 -0.081977285 -0.069799766 0.077596754 0.058886368 -0.15276685 0.14093179
-0.19692944 0.1874078 0.17581093 0.05620971 0.03470352 -0.11502747 -0.14307246 -0.109740004
-0.09001683 -0.17805168 0.08557492 0.084555425 0.09255193 -0.12244011 0.10575614 0.045721024
-0.107185245 -0.012593906 0.034581535 -0.009759588 0.051822692 -0.08667019 -0.0008272192 -0.01774287
0.11318731 0.120428205 0.337893 0.052454095 0.05677128 0.45291817 -0.06681835 0.05994652
0.23303132 -0.21188857 0.0688378 0.084505275 -0.16340506 0.045928046 -0.09896431 -0.20146394
0.025058907 0.07449658 -0.14216201 -0.19163324 -0.14416467 -0.05296069 0.071680196 0.14539574
0.11038561 -0.08928036 0.06281246 -0.045360655 0.1681225 0.001743334 0.051026616 0.07066946
-0.036205705 -0.27083656 -0.0131106125 0.26394212 0.0061264797 0.073782206 -0.14891128 -0.10211291
0.08875652 0.1392837 -0.030666575 0.112340145 0.16402474 0.13708991 0.08401145 -0.12674017
0.11007851 0.09103004 -0.20480941 0.009270565 0.20559096 0.07595892 -0.1399248 -0.07923918
0.10127684 -0.07277975 -0.0860364 -0.27298298 0.31263587 -0.037779156 -0.036880855 -0.09468985
-0.16240932 0.039407928 -0.040278632 -0.10114094 0.07273709 0.16474243 0.06078559 -0.14666
0.007010083 0.059080828 -0.027424974 0.027531913 -0.121927954 0.11237482 0.09355113 0.020936677
-0.019331792 0.08653194 -0.16083403 -0.15986294 -0.045226656 -0.0070553105 0.16433626 0.07269297
-0.11322489 0.17935383 -0.0775873 0.0056471447 -0.13441251 -0.1388537 0.13816811 -0.07561377
0.18718983 0.098359555 0.2404493 0.07055953 -0.079803295 0.060048047 -0.2119403 -0.014429289
0.006297258 0.105140634 0.106984355 -0.14310373 0.14681102 -0.05767683 -0.1593836 -0.09609032
-0.13820226 0.043786112 0.060431298 -0.18554875 0.116618864 0.1170687 0.15098463 -0.14238973
0.21724619 0.013698046 -0.03303581 0.039074436 0.0661059 -0.20021653 0.076320425 0.09708352
-0.12039668 -0.14440773 -0.17599928 -0.17896952 0.086478084 -0.059553836 0.09437017 -0.06789672
-0.1067944 0.042776596 0.09686635 0.1545925 -0.16445884 -0.2049507 0.12100908 -0.09878564
-0.13526963 0.10988023 0.2245484 0.021786677 -0.018196518 0.14998604 -0.09968887 -0.16828376
0.05875544 -0.11477917 0.18482558 -0.059182607 0.1314177 -0.07466768 -0.057001807 -0.20158736
-0.11991659 0.09528185 -0.14305007 0.13252833 -0.08706089 0.18901487 0.091121554 -0.105291694
-0.057519943 -0.015116499 0.08289456 0.051617283 0.115422815 0.12008761 -0.097611554 0.12960063
0.02331568 -0.17345281 0.19477691 -0.12285904 -0.21056598 -0.085757494 0.08078701 0.109194756
-0.15183924 -0.042365234 -0.0059142406 0.1683776 -0.14364517 -0.041483793 0.14453045 -0.06756744
-0.062518045 0.07945113 -0.18232985 0.18053918 0.017245034 -0.11883396 -0.15323336 -0.027361184
-0.12535177 0.18204163 -0.21017088 -0.09310338 -0.1888844 0.11916035 -0.024807217 -0.04708546

cnn1.0.bias f4 [16]
00000000: fb6c 143e 9417 2ebe 3ad6 c73d 788d 0d3d
00000010: 9312 adbc e410 84bd 6306 203e 545f e43c
00000020: 67a2 fe3d 8396 de3d 2611 7539 13f8 963d
00000030: 1ea2 96bc ac64 5d3e 72e4 413e 3c33 bc3d
0.14494698 -0.17001182 0.09757657 0.034558743 -0.021127021 -0.06448534 0.15627436 0.027877487
0.124333195 0.108685516 0.00023371409 0.07371535 -0.01838785 0.21620435 0.18934801 0.0918946

cnn1.1.weight f4 [16]
00000000: eeed 953f 9ebf 8e3f dd9b 6c3f 69d6 9a3f
00000010: dfe1 8f3f 92cf 913f 309d 803f 410e 653f
00000020: 7b03 613f f46b 6a3f e5e8 7e3f dca1 813f
00000030: d65d 663f 97ca 823f 7b02 643f 961a 913f
1.1713235 1.1152227 0.9242533 1.2096683 1.1240805 1.139147 1.004797 0.89474875
0.87895936 0.91570973 0.9957412 1.012752 0.8998693 1.0218076 0.89066285 1.1336238

cnn1.1.bias f4 [16]
00000000: b426 823d 9a46 0a3d 6e81 ca3c 1da4 84be
00000010: 8e25 043e e2f7 493e f003 84be d43f 1fbd
00000020: f0ac afbe 9248 a53e 67ee 033e 04a5 9c3c
00000030: 074f 003e dc77 cdbd 18b3 1f3c d943 14be
0.06355038 0.033758737 0.02471992 -0.25906458 0.12904951 0.19723466 -0.25784254 -0.03887923
-0.34311628 0.3228193 0.12883912 0.019121654 0.12530147 -0.10032627 0.009747289 -0.14479007

cnn1.1.running_mean f4 [16]
00000000: 8994 4b3e f423 c93e 830b 1ebd a4e4 023e
00000010: 9046 a73c 855b 49bd 02b0 253d 391d dabd
00000020: 9591 ba3b 8c9d 0cbe 79ad f33e f95c 0a3e
00000030: d4db a6be 3ea5 793e dfb7 a23c e9b9 d13e
0.1988088 0.39285243 -0.038585197 0.12782532 0.020419389 -0.049159545 0.040451057 -0.10650105
0.0056936243 -0.13731974 0.47593287 0.13512029 -0.3258959 0.24379441 0.019863067 0.4096215

cnn1.1.running_var f4 [16]
00000000: a7dd be3b 1473 b83c 858c 9f3b d07b 873b
00000010: 8e7e 553b 5776 d33b 66ad 9c3b 9f43 f33b
00000020: e042 233b 9bb0 9e3b 4ecd 6b3c 8c4a 9f3a
00000030: 710a b73b 92a9 da3a 21b1 983b ff72 e33b
0.005824763 0.022515811 0.004869046 0.0041346326 0.0032576653 0.006453316 0.004781413 0.0074238325
0.0024911687 0.0048428304 0.01439221 0.0012152954 0.0055859615 0.0016682616 0.0046597873 0.006941199

cnn2.0.weight f4 [16, 16, 3, 3]
00000000: d7cb 01be 2c94 45be 538c 0cbe 7f2e 03be
00000010: 9763 02b9 8bbf 123d 1c13 6e3d d042 8e3c
00000020: 5c57 adbb 510e 19be b0a2 03bd 507b 00bd
00000030: 1b02 513d e586 d83d 6fe5 db3d c9be 0b3e
00000040: cb9a dd3d 6011 cb3d 7005 7e3d db30 9ebc
00000050: 1be8 603d aa9d 4b3d 64eb 2b3e 9d97 0d3e
00000060: ace4 8abb a9c9 c0bd 6d6b 24bd 498e a2bd
00000070: 3e9d 15be 31ac 873c e7bf 163d 902a 293c
00000080: e86c 713d 0212 78bd 02bd f63d 3992 ad3d
00000090: 1713 243e e822 2e3d 7d22 2e3c f758 68bd
000000a0: 0ccb fbbd 4e8e afbd ee80 ebbb 19a6 ff3d
000000b0: 9e16 1b3e 945b 1bbd c053 513d 45d9 e33c
000000c0: 0082 5c3d a58d a2bc b07c adbd 76a5 213b
000000d0: f486 c7bd 17fe 1f3d 9629 61bd 3865 5ebd
000000e0: 1f9a c2bc db4f 7eba 102f babc 93c7 cf3c
000000f0: 2994 b83d cc92 073e 0f09 3a3e f1e9 edbd
00000100: fe72 96bd c798 bcbd 5a68 d83d b718 8cbd
00000110: 1b12 33bd 077b e63d 22d0 31be 4ef1 31bd
00000120: a9d0 38bd faf0 e03b c00f d03d aa81 b0bc
00000130: 3ef4 3f3d bbff e63c 0085 ec3d b782 7e3d
00000140: dd23 9cbc 5704 033d 3d3e fc3d f4a5 63bd
00000150: 3588 21bd 08b5 3dbd db82 c93b c0f3 dcbd
00000160: 2a21 42bd 74d4 d53b 6ec6 eb3d 1227 d53c
00000170: 41f7 39bd 097c 49bd 4a6d 21bc 5101 16bd
00000180: 2b04 2f3d 5773 783d 02ff 32bd ad7b be3d
00000190: 9223 803c 344f 5f3d 7dae db3b b5a3 acbd
000001a0: 802a bfbd 51d1 18bd 3e57 cdbd 545c 92bd
000001b0: bd26 b93d 28cf a13c 5761 2cbd c775 c4bd
000001c0: 3f1f 0dbe 1e7b 8abd 5dc4 58bc f74e 683c
000001d0: d76b 80bb 13fd a1bc 0cbe 8dbe 8afc 64be
000001e0: 001e 52bd a314 c2bd 1ada c0bc fa60 803c
000001f0: d1aa 0bbe 1780 aebb 4ea0 b6bd 3b35 593d
00000200: c090 473d 48fd 923c 5e2e 7cbc 7198 913c
00000210: 292a e0bd 1f3d f9bd 61b4 773c 9cf6 b63c
00000220: cbf3 1cbd 20fa 7cbe 98cd 263d 588f 07bd
00000230: 6928 1abe 6f16 863c f7c3 b9bc 4e07 93bd
00000240: 1caf 08be 523d 62be c397 6dbd 5daa ef3c
00000250: 94bb 933c 8760 063d fb0a 1c3d e315 9bbd
00000260: c2e2 633d 6824 e33d 88fc e43d 5a81 873d
00000270: 9a9f be3d a108 363e 0ae4 973d 5243 8f3d
00000280: 7f56 113e cccf b33c 2378 613c 8ffa 843d
00000290: 966a 063e 816f d2bd e28d a5bd 2232 f73c
000002a0: 389e 00bd b660 233d ad87 173e 5539 c8bd
000002b0: 06aa f9bd c83f 113e 0cf5 693d df5d bd3c
000002c0: 71b7 923d 32a5 463d 0dff 143e 903c 39bd
000002d0: bb5a 5abd 2eb8 c73d 8141 b33d 2939 67bd
000002e0: 2b7f 743d 7b06 c03d e42d be3c 0b85 0a3e
000002f0: 5282 e63d adba 81bc 3492 1abe f0b5 31bd
00000300: 72c9 133d c60a 19bd d511 48bc 5a95 2a3d
00000310: 122f 06bd 81f9 0a3b c983 80bd 20d7 cabd
00000320: 4815 b83d d8e3 41bc 9824 4c3d 669e d43d
00000330: 3a15 983c d70e b33c 4de1 bb3d 03f5 e2bb
00000340: 547e d53b fed4 523d 0522 603b a1b7 253c
00000350: 46be 01be 38de 50bb 39ee c2bd b01a 45bb
00000360: 2a2c 0a3e e5e0 cd3a dc78 803d 793b a4ba
00000370: 118e 893d 9f3e f93d c1e0 1c3d 149b 8abb
00000380: 85a4 383e 7381 833c 9d80 a4bd 8cd3 abbc
00000390: a8e9 d4bd 6874 98bc b9fd 85bd 576e 4bbd
000003a0: 556c 61bd 80f0 19bc 38d6 86bb 76da 093e
000003b0: 8b56 823d 20d5 c83d b255 063e 213d 203e
000003c0: 473e a43d 0248 193e f8da e33d 4dc7 94bd
000003d0: 06fa 073d c37d fdbc 3eb5 1abd 3ddc 51bb
000003e0: 5416 933c 90bc 0d3e 24c6 df3d c439 c03d
000003f0: bf4c 2f3d 34ce 493b ea09 dbbc 3bab d7bc
-0.12675415 -0.19294804 -0.13725404 -0.12810706 -0.00012434866 0.0358272 0.058123693 0.017365843
-0.005289955 -0.14946868 -0.032137573 -0.0313676 0.0510274 0.10572604 0.1073712 0.13646998
0.1082054 0.099154234 0.062016904 -0.019310405 0.054908853 0.049710907 0.16789013 0.13827367
-0.0042386856 -0.094134636 -0.04014151 -0.07937295 -0.14610764 0.0165616 0.036804106 0.010325089
0.05894175 -0.06056405 0.12047769 0.084751554 0.16022907 0.042513758 0.01062834 -0.05672547
-0.122945875 -0.08572064 -0.0071870005 0.124828525 0.15145347 -0.037929133 0.05110526 0.027813563
0.053834915 -0.019842932 -0.08471048 0.0024665273 -0.09742537 0.03906068 -0.0549713 -0.05429575
-0.023755131 -0.00097012304 -0.02272752 0.02536372 0.09012634 0.13239592 0.18167518 -0.116168864
-0.07346152 -0.092088275 0.105667785 -0.068406515 -0.04371844 0.11253934 -0.17364553 -0.043443017
-0.04512087 0.006864664 0.10159254 -0.021546204 0.046863787 0.028198114 0.11548805 0.06213638
-0.01906007 0.03198656 0.123165585 -0.055578187 -0.039436538 -0.046315223 0.0061496324 -0.10788679
-0.04739491 0.0065255705 0.11512457 0.026019607 -0.045401815 -0.049190555 -0.009852717 -0.03662235
0.042728584 0.06065687 -0.043700226 0.09300933 0.015641961 0.054518893 0.0067041502 -0.08429662
-0.09334278 -0.037308995 -0.10026406 -0.071465164 0.09040592 0.0197521 -0.042085018 -0.09592777
-0.1378145 -0.06761764 -0.01323041 0.014178983 -0.0039191055 -0.019773996 -0.27684057 -0.22361961
-0.05129814 -0.094765924 -0.023541499 0.015671242 -0.1363938 -0.005325328 -0.089172944 0.05302928
0.04872203 0.01794304 -0.015391914 0.017772885 -0.109455414 -0.12169861 0.015118689 0.02233439
-0.038318437 -0.2470479 0.040723413 -0.033095688 -0.15054478 0.016368119 -0.022676451 -0.07179128
-0.13348049 -0.22093704 -0.05800606 0.02925604 0.01803378 0.0328069 0.03809641 -0.07572534
0.055636175 0.11090928 0.11180979 0.06616469 0.09307785 0.17776729 0.07416542 0.06995262
0.14193152 0.021949671 0.013761553 0.06493103 0.13126597 -0.10275174 -0.080837026 0.030175272
-0.03140089 0.039887153 0.1479785 -0.0977656 -0.121906325 0.14184487 0.05711846 0.02311605
0.07163895 0.048497386 0.14550419 -0.045223773 -0.053309184 0.09751926 0.08752728 -0.056450997
0.05969159 0.09376236 0.023215242 0.13527314 0.112553254 -0.015836084 -0.15094835 -0.0433864
0.036080785 -0.03736379 -0.012211283 0.04164634 -0.032759733 0.0021205845 -0.06275136 -0.09904313
0.08988434 -0.011834107 0.049839586 0.103817746 0.01856481 0.021857662 0.09173832 -0.0069261803
0.0065153036 0.051472656 0.0034199965 0.010114581 -0.1267024 -0.0031870734 -0.095180936 -0.0030075721
0.1349341 0.0015707283 0.06273052 -0.0012529931 0.0671655 0.12170147 0.03830028 -0.0042299125
0.18031509 0.016052937 -0.080323435 -0.020974897 -0.10396129 -0.018610194 -0.065425344 -0.049665775
-0.055034954 -0.009395719 -0.0041148923 0.13462242 0.06364163 0.09806275 0.13118628 0.15648319
0.08019691 0.14968875 0.11125749 -0.07264576 0.033197425 -0.030943757 -0.037770502 -0.0032022141
0.017954983 0.13841462 0.10926464 0.09386018 0.0427978 0.0030793073 -0.026738126 -0.026326766

cnn2.0.bias f4 [16]
00000000: 9486 783e 5281 1d3e be10 193e 2917 1b3e
00000010: 807e 083e af07 833e 2f9c 283e 1c0d e73d
00000020: 9741 76be 04c3 aabd 92ae 483e 40f2 663e
00000030: 237b e63e 02b2 88be 0302 04be 69ae d83d
0.24270087 0.15381363 0.14947793 0.15145554 0.13329506 0.255918 0.1646583 0.11281797
-0.24048458 -0.083379775 0.19597843 0.22553349 0.4501582 -0.2669831 -0.12891392 0.10580141

cnn2.1.weight f4 [16]
00000000: ce62 bf3f cc18 a03f 8fe1 b43f 8c7d 9c3f
00000010: 594a bc3f 24dd af3f 8828 aa3f 8b9f 953f
00000020: 4525 9f3f 0b97 993f efbb b53f e7c1 a53f
00000030: 3681 0840 71b3 d13f efe1 953f c0f4 b03f
1.4952028 1.2507567 1.4131335 1.2225814 1.4710189 1.3739362 1.3293619 1.1689314
1.2433249 1.199922 1.4197978 1.2949799 2.1328864 1.6382886 1.1709574 1.3824692

cnn2.1.bias f4 [16]
00000000: 4a78 0b3e ffc8 143d b301 043e 8551 d23d
00000010: 650f 313e 90bc 5e3e e1af 203d de82 bc3d
00000020: 0835 2ebd 17bb f03d 9bc8 c13d 3be5 263e
00000030: 7bc9 0b3f ebb9 a83d 3ec1 aa3d 66a2 c23d
0.13620105 0.036324497 0.12891273 0.10269455 0.17291029 0.21751618 0.03923023 0.092046484
-0.042531043 0.117544346 0.094620906 0.16298382 0.5460431 0.08238586 0.08337639 0.09503631

cnn2.1.running_mean f4 [16]
00000000: 0274 733c b387 523f f459 a0be 58b6 10be
00000010: 97b5 dbbe ab98 3cbe fd19 093f b423 83be
00000020: 97f5 eebe a4c7 d4bd 261d 973e aa3b 57bd
00000030: de3d 063f 5377 af3d 0d6d 08be 1f28 a9bd
0.014859201 0.8223831 -0.3131863 -0.14132059 -0.4291198 -0.18417613 0.5355528 -0.25613177
-0.46671745 -0.10389641 0.29514426 -0.052547134 0.5243815 0.08567681 -0.1332285 -0.082596056

cnn2.1.running_var f4 [16]
00000000: 59ed 843e 3a8c 863e aca4 cd3e 30b1 3e3e
00000010: abf4 593e d2b7 8c3e 216b e83e be6c 4d3e
00000020: ad7c a33d 740d 1f3f 6a11 2b3e 97ea 8d3e
00000030: 5902 463f 0ebb 3f3d 1530 3b3e cbf6 933d
0.25962332 0.2627886 0.40164697 0.18622279 0.2128474 0.27483994 0.45394233 0.20061013
0.079827644 0.621299 0.16705862 0.2771804 0.7734733 0.04680925 0.1828006 0.072248064

output.0.weight f4 [1, 16, 3, 3]
00000000: e405 b13e 55f9 b23e 22db 9d3e 6021 373e
00000010: b962 a53c af9c 5a3e fd2f f93d 5825 be3d
00000020: 8374 343e bb8d b7bd 9e7f 163d 8904 913d
00000030: aa64 e63d 394c 273e b1c9 8c3e 5f62 103e
00000040: a156 8d3e d6a8 e93d ec26 653e 28bd ae3e
00000050: c251 b83e ef5b 413e 8927 2d3e 726a 553e
00000060: 1120 3b3d ab89 d23d 09a2 df3d d3af c73d
00000070: f03f 893c d1f2 bcbd 3cf9 873d 15e7 f03c
00000080: 606d 953c 6e77 913e f22d 1f3e 332f 8b3e
00000090: f8b2 bf3e 65f7 583e 82a1 713e d6d5 8e3e
000000a0: 4fa1 903e 6e3f a23e ce18 a63d 621a fc3c
000000b0: 0a53 f93d eafd 373e 5816 883d 807b 6b3e
000000c0: d8b3 523e 43af 723e 700c 933e c3c0 283e
000000d0: fceb c33d e460 3b3e 15ee 5a3e 21af ab3e
000000e0: b42c fd3d a534 603e 248b 233e 5ed3 953c
000000f0: d57c e6bd 49b8 ce3c 17b6 eb3c e68d d03d
00000100: 9b08 e13d 8239 6b3e 743d 003d f020 343d
00000110: 6d24 183e 7a60 a63d a66b 87bd c0f9 5f3d
00000120: 3b9c 7ebe f8f8 e6bd 88da 88be 27ac 79be
00000130: f8c2 93be 55b2 64be 45b8 dfbd 1bba 53bd
00000140: 01a6 38be a864 17be 365d 55be 2f3f 73be
00000150: ec47 e7bd 7912 31be f1cb 6bbe fd66 53be
00000160: 82b7 82bd 60e9 0bbe 1eb6 583e 8ac3 c73d
00000170: 280e babd 46cc 203e 7ee0 d23d 2ca9 aa3d
00000180: feab 9b3e 907e 823e 1f1e 4e3e fb4d 3e3e
00000190: a47e 173e 82a4 be3e b7a0 993c 2e21 0a3e
000001a0: 468c a23e c53e 34bc 4353 1a3d 5495 6b3e
000001b0: 6e55 d63e 415b 6c3e 0dc7 193e e963 f73e
000001c0: e114 8b3e d87a 603e 16ff 1c3f e660 9f3e
000001d0: 13fb 1d3e 57c9 3c3e f5d4 5fbd 5314 77bd
000001e0: 9b7a 873e c991 acbd de64 96bd cdea 3cbe
000001f0: 8d44 76be 716b 5bbd f3fd 3bbe 6776 e2bd
00000200: d8ed 61be b79d 2abe 4958 47be 8d9c 01be
00000210: d3a0 3cbe 035d 4ebe 5f13 30be d34d 673e
00000220: a78b 523e 7d64 3d3e c376 3d3e 1885 783e
00000230: 148e 9b3e b6a3 b63d 3070 3a3e ff91 933e
0.34574807 0.3495585 0.30831248 0.17883825 0.020188676 0.21348833 0.12167356 0.092844665
0.1762257 -0.0896258 0.0367428 0.07080943 0.11249669 0.1633767 0.27497628 0.14100026
0.27605155 0.11409156 0.22378129 0.3412869 0.35999876 0.18882726 0.16909613 0.20841387
0.045684878 0.10280164 0.10919578 0.09750333 0.01675412 -0.09226001 0.066393346 0.029407063
0.01824063 0.2841143 0.1554487 0.27184448 0.3744123 0.21188124 0.23596767 0.2789752
0.2824807 0.31689018 0.081102 0.030774299 0.121740416 0.17967954 0.06644887 0.2299633
0.20576417 0.2369967 0.28720427 0.16479783 0.09566495 0.1829868 0.21379884 0.3353205
0.12362042 0.21895082 0.15971047 0.018289264 -0.112542786 0.025234358 0.02877335 0.10183315
0.109879695 0.22971156 0.031308606 0.043976724 0.14857645 0.0812387 -0.06612329 0.05468154
-0.24864285 -0.11277956 -0.26729226 -0.24382077 -0.28859687 -0.22333653 -0.109238185 -0.051691156
-0.18032075 -0.14784491 -0.20836338 -0.23754571 -0.11293015 -0.17292203 -0.23027016 -0.20644756
-0.063826576 -0.13663244 0.21163222 0.09754093 -0.09084731 0.15702924 0.10296725 0.08333048
0.30404657 0.25487185 0.20128678 0.18584435 0.14794403 0.37234885 0.018753393 0.1348922
0.31747645 -0.011001294 0.03767706 0.23006183 0.41862053 0.23081686 0.15017338 0.48318413
0.27164367 0.21921861 0.6132673 0.31128615 0.15427808 0.1843618 -0.05464645 -0.060322117
0.26460728 -0.08426244 -0.07343458 -0.18448944 -0.24049588 -0.05356926 -0.18358593 -0.1105774
-0.22063386 -0.16661726 -0.19467272 -0.12657376 -0.18420725 -0.20152669 -0.1719489 0.22588281
0.20561086 0.18495364 0.18502335 0.24269521 0.30381835 0.08917944 0.18206859 0.28822324
