pretrain/2016/net1-500-mse.pkl (torch, 366627 bytes, 49 tensors)

cnn1.0.weight f4 [16, 3, 1, 1]
000000 94 95 91 be 89 1d 6f 3d de fa 0a 3f cb f2 d3 be
       -0.28434432 0.058377776 0.5428904 -0.41396174
000010 cf c1 3b bf 2d 7b 41 be c0 26 da 3e b2 b7 cd be
       -0.73342603 -0.18894644 0.4260769 -0.4017921
000020 e5 bc 12 3e 53 51 78 be 90 91 0a 3f 58 bd fe 3e
       0.1432987 -0.24249773 0.5412836 0.49753833
000030 c8 18 d2 be df ab d7 be a6 11 a5 be e2 e5 e6 3d
       -0.41034532 -0.42123315 -0.32240027 0.112743154
000040 28 cb 66 bc 3c d7 01 bf 6e 49 a5 bd 57 71 1c be
       -0.014086522 -0.50719047 -0.08070646 -0.1527761
000050 56 49 0e be a0 ea 0f 3f f2 3d b6 3d be c0 d2 be
       -0.13895163 0.56217384 0.08898534 -0.41162676
000060 94 2c 25 be d7 59 c1 3e be e3 92 be d2 34 dc 3e
       -0.16130286 0.37763855 -0.28689378 0.4300905
000070 33 44 2c bc 61 89 51 bc ac 00 11 bf 98 c1 12 3e
       -0.010514307 -0.012789101 -0.5664165 0.14331663
000080 4a a2 8f bc a5 9d cf 3d 15 b7 de 3e 3d 61 93 3e
       -0.01753344 0.1013749 0.43499056 0.28785124
000090 ab 8d 10 bf c0 de 55 3e 74 45 c3 be 6d 22 95 3d
       -0.5646617 0.20885754 -0.38138926 0.07281957
0000a0 df 0e 9f 3e 4b 34 84 be f5 3a ac 3d e7 e2 4a be
       0.31066033 -0.25821146 0.08409683 -0.19813119
0000b0 01 f4 9e 3d a0 3b 89 be 52 c0 3b 3f d7 7e b7 3e
       0.07761384 -0.26803303 0.7334033 0.3583896

cnn1.0.bias f4 [16]
000000 10 0b ed 3e 92 43 cd 3e e5 10 92 bc dd 9b bf be
       0.46297503 0.40090615 -0.017830322 -0.37423602
000010 cf a6 a4 be 53 7f 7b be 9f 2f d8 3e c4 0e 94 3e
       -0.32158515 -0.24560289 0.42223832 0.28917515
000020 75 32 03 3f cb 50 06 3e 42 1d 11 bf 5e 0b a7 bd
       0.51248866 0.13116758 -0.5668527 -0.08156465
000030 87 25 44 be c1 34 0a be 14 b0 12 3e 9c 0b 24 be
       -0.1915494 -0.13496687 0.14324981 -0.16020054

cnn1.1.weight f4 [16]
000000 20 b2 7f 3f 30 1f 82 3f 52 42 7a 3f d5 be 79 3f
       0.9988117 1.0165768 0.97757447 0.9755681
000010 77 be 7a 3f f9 2e 7a 3f 23 fd 7e 3f 10 ca 84 3f
       0.97946876 0.97727925 0.99605006 1.0374165
000020 d6 99 7d 3f a5 90 7f 3f 75 ec 80 3f 38 79 7e 3f
       0.9906286 0.99830085 1.0072161 0.99403715
000030 8d c7 78 3f 4c a9 83 3f 9e f9 7d 3f 68 be 7b 3f
       0.9717949 1.028604 0.9920901 0.9833741

cnn1.1.bias f4 [16]
000000 58 9e 47 bb 8b 0b 97 bd d3 96 be bd 50 49 de 3d
       -0.003045937 -0.073752485 -0.09306111 0.10853827
000010 b6 30 3e bd a8 e9 16 3b 3f f8 c8 bc bd a5 37 3e
       -0.046433173 0.0023027454 -0.024532435 0.17934318
000020 a3 98 ef 3c 92 8e ce 3d 53 61 8a 3d fe 4b 84 3d
       0.029247588 0.10085787 0.06756844 0.06459807
000030 82 30 4c 3d ed 0d 69 be 48 80 71 3d e2 2c 4a bd
       0.04985095 -0.22759219 0.05896023 -0.04935921

cnn1.1.running_mean f4 [16]
000000 ea 76 35 3f 59 89 29 bf dd 64 ef 3d 25 c8 81 3e
       0.70884573 -0.662252 0.1168916 0.2534801
000010 55 8c 9e bf bb b8 10 bf 90 dd 01 3e 73 e6 f8 3e
       -1.2386576 -0.56531876 0.12682176 0.4861332
000020 10 45 ea 3e 7b fb e9 3e 3d 9d 6b bf 21 61 12 3f
       0.45755816 0.45699677 -0.920368 0.57179457
000030 87 21 47 bf 4f b9 05 bd 2e 6d e9 3d b0 f8 fa 3e
       -0.77785534 -0.032647427 0.113977775 0.49017859

cnn1.1.running_var f4 [16]
000000 b3 9d 62 3b 2f 63 4a 3d 41 c4 45 3a 70 a3 98 3c
       0.003457886 0.049410995 0.0007544198 0.01863262
000010 e9 62 17 3d bb 9a a8 3b 28 fe 7e 3b eb 01 ea 3a
       0.036959562 0.0051453984 0.0038908813 0.0017853355
000020 90 16 34 39 89 91 92 3b b2 bd ab 3b 56 98 9c 3c
       0.00017174543 0.0044729155 0.0052411193 0.019115608
000030 98 53 75 3c fb 25 f1 39 f9 93 24 38 37 5e a1 3c
       0.014973544 0.000459954 3.9238457e-05 0.019698245

cnn1.3.weight f4 [16, 16, 1, 1]
000000 96 70 6d 3e 47 de 30 bd f7 0f ef bb 35 3a 2f 3e
       0.2318748 -0.04318073 -0.0072956043 0.17112048
000010 d1 c7 90 bd 95 52 13 3e 5c 47 d8 bd 0e b8 8a be
       -0.07069362 0.14386971 -0.10560486 -0.27093548
000020 09 9b 0a bd 85 09 30 3e 4c e3 5f be d5 87 88 3d
       -0.03383926 0.17191131 -0.2186405 0.06666533
000030 5f 18 50 3d 95 6b 61 be f9 7f b9 bd 0d 69 40 3e
       0.050804492 -0.22013696 -0.09057612 0.18790074
000040 eb d6 66 3e d3 4b 24 3a d5 90 a8 3e ff 7a 9e 3e
       0.22542922 0.0006267402 0.32922998 0.30953214
000050 26 c1 ea bd b6 64 56 3e 1e 99 60 3e b1 a8 5b 3e
       -0.114626214 0.20936856 0.2193341 0.2145107
000060 e0 50 a6 3d c5 d3 98 3e 82 8e 2c be 57 98 70 bd
       0.081208944 0.29849067 -0.16851237 -0.058739033
000070 bd f2 0e be bd 0f 1b be ab 65 8f 3c 72 3f 3a 3c
       -0.13959785 -0.15142722 0.017504534 0.011367666
000080 d8 54 e3 3c ea 3c 7b 3d f9 50 6d 3d 9d c5 8b bd
       0.027750418 0.06133739 0.05793855 -0.06824801
000090 dd 4f 53 be 3d d6 9d 3b 15 6e be bc 5e 31 c4 bc
       -0.20635934 0.004816799 -0.02324585 -0.023949321
0000a0 78 2e 85 3d b3 10 28 be b2 74 43 be c1 0e 04 be
       0.06503004 -0.1641262 -0.19087484 -0.12896253
0000b0 5c 01 64 bc ba 23 03 3e dc 32 89 3e b6 93 ad 3d
       -0.01391634 0.12806597 0.26796615 0.08475439
0000c0 45 87 10 3e ed 43 65 3e 14 4e 34 be 21 33 5c 3d
       0.14114101 0.22389193 -0.1760791 0.053759698
0000d0 bf bd 11 3e 82 e8 2a 3b 35 65 29 3e 65 1f 68 3e
       0.14232539 0.0026078527 0.16542514 0.22668226
0000e0 6e 68 7d be 5a 78 77 bd bd 56 ab bd 49 cd 28 3e
       -0.24746868 -0.06041751 -0.083661534 0.1648456
0000f0 4f 0b 53 be 76 cb 13 be 19 83 57 bd 79 62 07 bd
       -0.20609783 -0.14433083 -0.05261526 -0.033052895
000100 68 cb 89 bd 22 45 28 3e 71 14 a4 3a b1 5f 19 3e
       -0.0672825 0.16432622 0.0012518299 0.1497791
000110 a6 c5 2a be ce 9d 82 3e da 47 1e be a1 ef de bd
       -0.1667696 0.2551102 -0.15457097 -0.10885549
000120 62 33 f8 3d 5c cd 10 3e c3 97 ca bc e6 4f f1 3d
       0.121191755 0.14140838 -0.024730569 0.117828175
000130 a5 f3 4a be 4e 45 a9 bd d3 b8 3b 3e 21 5f e6 3d
       -0.19819506 -0.08265172 0.18332224 0.11248613
000140 58 4b 50 be 81 64 80 bc ac 72 55 3e 33 70 5b 3e
       -0.20341241 -0.015672924 0.20844525 0.2142952
000150 66 2e 90 3d c8 8e d0 3d ab 58 1a 3d 60 3d 0a 3e
       0.070401 0.10183483 0.037682217 0.13499975
000160 09 db 79 be 3b e8 87 3e 8f 85 c8 bc c5 ff ab 3d
       -0.24399962 0.26544365 -0.024477748 0.083983935
000170 9f 50 21 be 8f 71 4d be 87 2f 5a 3e 7e 37 46 be
       -0.15753411 -0.2006285 0.21307193 -0.19357106
000180 d5 e2 a6 bd c8 ee 33 be db 08 e2 bd ad 82 8d 3e
       -0.081487335 -0.17571557 -0.11036845 0.2763876
000190 e6 ca 40 be 9c 38 0f be ff 3f b1 bc 04 49 c7 bd
       -0.188274 -0.13986439 -0.021636961 -0.097307235
0001a0 ce 91 91 3e 02 7d ab 3e 6d ec 25 3c 8f 56 c6 3c
       0.28431553 0.3349381 0.010127169 0.024211196
0001b0 3d bd f8 bc 98 d0 29 be 50 7d 4d 3e 3f 5a d9 bd
       -0.030363673 -0.16583478 0.20067334 -0.10612916
0001c0 30 07 6f bc 82 80 04 be a1 48 63 be 15 b1 2c be
       -0.014589116 -0.12939647 -0.22195674 -0.16864426
0001d0 a4 0d f8 3d b0 d0 62 3d 7a f1 f7 3d 3c 66 8b 3e
       0.12111977 0.0553748 0.12106605 0.27226436
0001e0 70 a3 f6 bc 07 e3 b8 3c 1e 39 f0 bd 0d f5 f7 3d
       -0.03010723 0.022569193 -0.11729644 0.121072866
0001f0 22 84 07 3c 5f 04 81 be a3 a4 29 be ab 99 9c 3c
       0.008271249 -0.25198647 -0.1656671 0.019116243
000200 b4 b2 dc bd f3 75 21 be 1d 0a 23 3d 47 39 42 3d
       -0.107762724 -0.1576765 0.039804567 0.047417905
000210 78 19 4f 3e 1b 7b d2 bd 6a 13 17 be 32 f0 be bc
       0.2022456 -0.10277387 -0.147535 -0.023307893
000220 ed 8a 82 be 83 82 03 3e c5 ab aa 3d b1 13 95 3e
       -0.25496617 0.12842755 0.08333544 0.29116586
000230 a0 4e 2c 3e 72 06 02 3c 54 d4 9e bd 8d 4e 8e 3d
       0.16826868 0.007936107 -0.07755342 0.06948576
000240 94 ad e0 3d d4 44 6a 3e a0 ed cb bc 9d a3 28 3e
       0.109706074 0.22877818 -0.024893582 0.16468664
000250 62 35 8c 3e 9c d6 40 be c8 35 24 be bb 38 34 3d
       0.27384478 -0.18831867 -0.16036141 0.043999415
000260 56 ea 2f be 1b 9a 49 bd 7c 43 66 be 04 26 84 3e
       -0.17179236 -0.049219232 -0.22486681 0.25810254
000270 9c 5e bf bc aa dc 28 be bc e2 4f 3c 21 5f 8c 3c
       -0.023360543 -0.16490427 0.012688335 0.017135205
000280 76 2b 1e 3e fe 66 a4 3e 5e c2 d7 bd c0 38 5e bd
       0.15446267 0.32109827 -0.105351195 -0.05425334
000290 3a 00 87 3d 5d 48 cf 3d 7b 86 79 3e aa 8a a6 3d
       0.0659184 0.10121224 0.24367706 0.08131917
0002a0 a1 3a a4 3d 96 3f 8a 3d 8c ee 4a bd 11 c9 b0 bd
       0.08018995 0.06750409 -0.049543902 -0.086321004
0002b0 83 9b 0a 3e 4e c5 39 be 32 4b 6d 3e 19 5c 8f 3e
       0.13535886 -0.18141672 0.23173216 0.27999952
0002c0 8f 5d 51 3e 00 29 5d be c6 0d 4d 3e 1b 5c 27 be
       0.20445846 -0.21597672 0.20024785 -0.16343729
0002d0 ca 81 6d be 16 fe ad bd f9 bf 8e bd 6e 44 eb bd
       -0.23194042 -0.08495729 -0.0697021 -0.11487661
0002e0 df ff cb 3b af 66 8a 3e e9 b8 5f be cc 6f a7 3c
       0.0062255706 0.27031466 -0.21847881 0.020439051
0002f0 2f 78 87 be b3 81 8c 3d 24 da 45 bd cb 61 02 be
       -0.2645888 0.06860676 -0.04830374 -0.12732618
000300 b4 a6 42 3e 96 1d aa bd f9 a1 20 3d 2e 0b 41 bd
       0.19008905 -0.08306424 0.03921697 -0.047129802
000310 8c a8 95 3d ea 84 3f be 83 c3 17 bd 54 ab cf bd
       0.073075384 -0.18703046 -0.03705169 -0.101401
000320 8f a6 2b 3d 7d 8e 76 3e dc de 2d be 3f 67 82 3e
       0.04190689 0.24077792 -0.16979545 0.25469396
000330 55 0e d0 3d 66 d0 22 be c9 f3 64 be 73 1f 3d 3e
       0.101589836 -0.1589981 -0.22358622 0.18469028
000340 de 87 90 3c 84 4b cf bd 5c e9 0b 3d cc 11 e1 3d
       0.017642912 -0.10121825 0.034158096 0.109897226
000350 70 69 36 bd 68 01 4d 3d 00 2f e7 3d 6d 26 24 be
       -0.044534147 0.05005017 0.112882614 -0.16030283
000360 53 c3 29 3d 9e 9c 13 3e a3 93 89 be 29 74 85 3d
       0.04144604 0.14415213 -0.2687045 0.065162964
000370 05 5b 3b 3d ef 80 a0 3e d2 29 f2 3a 1c e5 53 be
       0.0457411 0.3134837 0.0018475598 -0.20692867
000380 00 77 c3 bd 9c c7 5f be f2 37 2e 3e 98 e4 18 be
       -0.09544182 -0.21853489 0.17013529 -0.14930952
000390 d1 93 7b be 7d 61 04 be f7 ee a6 3d fb 5c 14 be
       -0.24568106 -0.12927814 0.08151048 -0.14488594
0003a0 02 5c 9b bc b1 5d 6a 3e 56 8b 53 be a2 6c b4 bd
       -0.018964771 0.22887303 -0.20658621 -0.088097826
0003b0 ea c5 80 be e1 df 49 3e 33 6d 56 3d d0 9a 52 3e
       -0.25150996 0.1971431 0.052350234 0.20566869
0003c0 8e 8e 5d 3e e4 29 7d bd 13 41 85 3d ed 31 fd bd
       0.21636412 -0.06180753 0.065065525 -0.12363038
0003d0 5e e9 59 be 41 39 17 be b3 f3 f6 bc 91 fb 13 be
       -0.21280429 -0.14767934 -0.030145502 -0.14451434
0003e0 73 b8 1e 3d ef 7d 69 3e 5b 3d 60 3e b1 d1 57 3d
       0.038750123 0.22801946 0.21898405 0.05269021
0003f0 65 7b 4a bd b8 2b 99 be 16 f0 1a 3e 6e 03 68 3d
       -0.049434084 -0.29916167 0.15130648 0.056643896

cnn1.3.bias f4 [16]
000000 2e de 6e 3e 4e aa ff bd 37 b9 18 3e eb 0f 00 3e
       0.23326942 -0.12483655 0.14914404 0.12506072
000010 66 3a 1f be 10 33 63 be 98 7b 6a bc 98 a6 ae 3c
       -0.15549621 -0.22187448 -0.014311694 0.021319672
000020 e4 59 02 3e 34 f3 51 bd 22 bf 61 bd 48 b9 da 3d
       0.12729603 -0.051257327 -0.05511392 0.10679871
000030 2e 3e 2a bd a7 0e 76 3e 1a 76 7f 3e 95 84 77 3e
       -0.041563205 0.24029027 0.24947396 0.2417167

cnn1.4.weight f4 [16]
000000 c3 9e e3 3f f4 c0 a4 3f 71 6c 83 3f f5 91 97 3f
       1.7782825 1.2871385 1.0267469 1.1841418
000010 9e 2c 95 3f ef de 95 3f d4 4a a6 3f 68 1c 9e 3f
       1.1654241 1.1708659 1.2991586 1.2352419
000020 ba ed 94 3f ef 0d a1 3f 9c f0 8a 3f a6 cc 75 3f
       1.1635048 1.2582377 1.0854678 0.96015394
000030 1a 15 9a 3f a8 6a 8f 3f a8 40 74 3f 84 3c 97 3f
       1.203769 1.1204424 0.9541116 1.1815343

cnn1.4.bias f4 [16]
000000 79 a5 57 3f 80 3a 91 3e 6c 4d 5e bc 83 ed 94 3e
       0.84236866 0.28364944 -0.0135682635 0.29087457
000010 46 b5 a7 bd 21 1d 83 3d 64 8c c3 3e 99 68 e7 3e
       -0.08188872 0.0640204 0.38193047 0.4519699
000020 e1 19 73 3e b8 e7 7c 3e 73 80 83 3c 51 d3 a2 3a
       0.23740341 0.24697769 0.01605246 0.0012422596
000030 e5 56 87 3e 61 86 2f bc d5 08 39 bc ac c6 7e 3e
       0.26433483 -0.010713191 -0.01129361 0.24880475

cnn1.4.running_mean f4 [16]
000000 4c 67 85 3e 34 4c a5 3e 80 2f 69 3d 89 11 6b 3e
       0.26055372 0.322847 0.056930065 0.22955908
000010 9b 5c 13 39 68 11 9e bd 0d b4 92 3d c3 d6 f2 3b
       0.0001405351 -0.07718164 0.07163248 0.0074108555
000020 8b 4d 3b 3e c4 bf c7 3c 90 d3 b2 3e 60 90 0f be
       0.18291299 0.024383433 0.34927034 -0.14019918
000030 52 55 ec 3c ec 7d 79 3e 52 ee 83 bb 71 64 88 3e
       0.028849278 0.24364442 -0.0040262127 0.2663913

cnn1.4.running_var f4 [16]
000000 bb 66 3b 3e ed 48 79 3d 37 15 e8 3b df 3f 31 3c
       0.18300907 0.060860563 0.007082607 0.010818451
000010 85 86 4c 3c 72 25 82 3c 1c c3 a0 3c db 5e 90 3c
       0.012483244 0.015886996 0.019624285 0.017623356
000020 5f 4c bb 3d d9 9f c1 3d 5b 06 5e 3f 2c aa 83 3f
       0.09145426 0.09454317 0.8672845 1.0286307
000030 f3 b6 85 3e 33 50 13 3d 19 67 31 3f 8d 51 13 3d
       0.26116142 0.035965156 0.6929794 0.035966445

cnn2.0.weight f4 [16, 3, 3, 3]
000000 f9 49 04 3e 63 07 a5 3d 6d 1b 24 be 0a f6 5a be
       0.12918843 0.080580495 -0.16026087 -0.21382919
000010 92 99 c2 bd d7 8e 2c bc 2f e2 35 3d a8 2f 9e 3d
       -0.095019475 -0.010532103 0.04440516 0.077239335
000020 32 a3 f1 bc db b3 9f bc cc 62 9c be d6 63 f4 bc
       -0.029496763 -0.019494941 -0.30544126 -0.029832762
000030 db 99 30 be f3 fd c8 3d f9 7c 17 3c 34 03 bb 3d
       -0.17246191 0.09814062 0.009246104 0.0913147
000040 c6 31 74 bd c1 d5 24 be 5c 3a 19 be 54 b7 c0 be
       -0.05961778 -0.16097166 -0.14963669 -0.37639868
000050 a3 ef a5 be 6a 59 74 bc 5d c4 b9 bd af fb 31 be
       -0.3240939 -0.014913896 -0.090706564 -0.17381166
000060 96 85 3d 3d b9 4d df bd 86 ff df 3d f0 0b 69 bd
       0.046269976 -0.10903496 0.10937409 -0.05689615
000070 c0 10 81 3b ad eb 25 3d fe 09 66 3e 45 ac 92 3d
       0.0039387643 0.04050796 0.22464749 0.07161764
000080 64 64 94 3c 74 8e c7 bd c3 53 7b 3d f4 f4 b4 bd
       0.018114276 -0.09743968 0.06135918 -0.088357836
000090 b0 de 29 be 84 11 b1 be 8f 1c 02 be d1 c9 93 bd
       -0.16588855 -0.34583676 -0.12706207 -0.07216228
0000a0 94 c2 77 3d ae b8 58 3c 40 5c 78 3d 96 85 94 be
       0.0604883 0.013227625 0.06063485 -0.29008168
0000b0 bb 24 8b bd 9f fe 85 3d 54 c6 e2 bd 91 d6 7c 3e
       -0.06794115 0.06542706 -0.11072984 0.24691226
0000c0 54 f7 74 3d d2 e2 cb bc bd 0c 15 bd 51 1f 2f 3e
       0.059806183 -0.02488843 -0.0363891 0.1710179
0000d0 0f 70 1e be 56 2a 1f 3e 49 fa 59 3d d0 3b 18 be
       -0.15472434 0.15543494 0.053217206 -0.14866567
0000e0 17 07 0b 3e a5 5e 10 be c1 ac 3f 3e 41 cd b4 3d
       0.13576923 -0.14098604 0.18718244 0.088282116
0000f0 30 31 35 be dd b7 01 3e 4c 0a 49 3d 7e 46 e7 3d
       -0.17694545 0.12667795 0.049082085 0.11292742
000100 60 f6 90 3d b4 e9 18 be f2 95 03 be 72 0b 66 be
       0.07078242 -0.149329 -0.12850168 -0.22465304
000110 ac b0 9a 3d f6 08 95 3c 88 34 ca bd 26 b3 33 bd
       0.07553229 0.01819275 -0.09873301 -0.04387202
000120 35 4d 13 be 98 ee 45 3e 62 1c 87 bc 02 71 d4 3d
       -0.14384921 0.19329298 -0.016493026 0.10373117
000130 7e e8 2f be 72 68 80 3d 4f 3a be 3c 99 3c c1 bd
       -0.17178532 0.06269921 0.023221163 -0.09435386
000140 f7 29 14 3e f3 f5 04 3e 12 78 10 bd 59 f9 6a bc
       0.14469133 0.12984447 -0.035270758 -0.014341676
000150 8c cb 51 3e 88 80 fd 3d 76 0a 00 3e 2d 26 25 3e
       0.20487803 0.12378031 0.1250399 0.16127844
000160 45 2b 14 3b 8f e9 ec bd b0 e8 00 be 37 fb d0 bc
       0.0022608798 -0.11567985 -0.12588763 -0.025510414
000170 75 d9 05 be 8e 14 8d bd f5 dc 08 3e a6 6c cb bb
       -0.13071235 -0.06888686 0.13365538 -0.0062080203
000180 aa c9 74 bd ff 53 00 3e c8 a6 02 be f5 28 7a 3c
       -0.059762634 0.12532042 -0.12758934 0.015268554
000190 b6 4e 06 bd c2 1e 5e 3e 34 7f 65 3e dd 92 25 3e
       -0.03278991 0.2169142 0.22411805 0.16169305
0001a0 8d 7c f0 bd 64 35 3a b9 b7 4c 00 be 1f f2 1a 3e
       -0.11742506 -0.00017758232 -0.12529264 0.15131424
0001b0 b4 0d de 3d fb 6a 62 bc cf f8 1a 3d f3 3e db 3d
       0.108424574 -0.013819451 0.03783494 0.10705366
0001c0 95 10 a1 bd cc cf 9a 3d 3c 68 7c 3e 04 99 02 3d
       -0.07864491 0.07559165 0.24649137 0.03188421
0001d0 a6 68 d6 bd ad 52 0b 3d b6 1c 0a 3e 95 38 40 3d
       -0.10469179 0.034014393 0.13487515 0.04692896
0001e0 af e9 53 3e ed 55 cc 3d 61 52 48 3e af 95 07 3e
       0.20694612 0.099773265 0.19562675 0.13240694
0001f0 29 e8 49 3d d9 51 0c 3e 38 05 b9 3d e5 8a 23 3d
       0.04929367 0.13703097 0.090341985 0.039927382
000200 9e 86 6f bd 3c be c8 bd 16 9e 1e be 54 0d 25 3e
       -0.05847799 -0.09801909 -0.15489992 0.16118366
000210 ce 1f 69 3e 54 42 e2 bd 8b ff 0d be 5e 01 11 3e
       0.22766039 -0.11047807 -0.13867013 0.14160678
000220 f8 0d bf 3b 78 d9 9e 3d 2e 63 15 3e 05 66 f4 bd
       0.0058305226 0.077563226 0.14588615 -0.11933521
000230 83 1f 98 3d b3 e5 22 3a 85 d0 1c be c8 1d c2 bc
       0.074278854 0.00062140374 -0.15313919 -0.023695841
000240 5b 9d cb bd f1 b8 5a 3d ab 9b f4 bc cf bf 15 3e
       -0.099421225 0.05339903 -0.029859385 0.1462395
000250 89 83 4a 3e 9d 0a 90 bc 4b 29 e0 3d 84 d8 0e 3e
       0.19776739 -0.017583186 0.10945376 0.13949782
000260 1a 9a 14 be d5 a4 50 3c 9c 61 3c 3e c9 c4 a0 bd
       -0.1451191 0.0127346115 0.1839661 -0.07850034
000270 18 bf e7 3c 37 5c 18 3e 9d ae 3c be ad 08 1b 3d
       0.028289363 0.14878927 -0.18425985 0.03785007
000280 f5 d0 82 be df 35 51 be 17 61 5a be 83 93 12 be
       -0.25550047 -0.20430706 -0.213261 -0.14314084
000290 bd 2b 26 3d 87 9d 34 be 72 ec a9 bd ef 4c 28 3e
       0.040569056 -0.17638217 -0.082970515 0.16435598
0002a0 54 3c 54 3e 6d 84 13 3e 32 59 01 bc db 86 1c 3e
       0.20726138 0.14405985 -0.007894801 0.15285818
0002b0 0e 81 26 3e b6 77 b9 bd 50 1c 83 be 17 79 32 3d
       0.16260168 -0.09056036 -0.25607538 0.04357251
0002c0 b9 04 36 3e 98 02 65 3e 0f bb 6e bd 3a 80 84 3d
       0.17775239 0.2236427 -0.05828386 0.0646977
0002d0 1a 6f 35 3e ec f0 b5 bd 69 b0 02 be 0b 08 75 3d
       0.17718163 -0.08883843 -0.12762608 0.059822123
0002e0 6a 4d a4 bd 44 cb 42 bd 4c 85 ce 3d 52 b1 23 3e
       -0.08022578 -0.04755713 0.10084018 0.15985611
0002f0 5c d1 c2 3d 7c da cf 3c 42 2a 48 3c fa c4 ab bd
       0.095125884 0.025372736 0.012217106 -0.0838718
000300 3a 45 17 3e ce 75 ea 3c e7 e4 4f bd 71 ca b1 3d
       0.14772502 0.028620627 -0.050755408 0.08681191
000310 fe cf 3d 3e 96 8e de bb b8 c9 25 be 9b 60 09 3e
       0.18536374 -0.0067919 -0.16190231 0.13415758
000320 80 a4 28 3e ef 53 62 3d e3 f0 b4 bd 7b fd 76 3e
       0.16469002 0.055255827 -0.08835008 0.24120133
000330 7c f4 3f be fa d3 1a be 92 f9 5e bb 56 bc 22 be
       -0.18745607 -0.15119925 -0.0034023267 -0.15892157
000340 ef 3e 1c be bb e4 c9 3c 70 6e 1a be f6 7f 1d 3e
       -0.15258382 0.0246452 -0.15081191 0.15380844
000350 20 ba 47 3e 65 9a 35 be 28 49 d0 3d 95 fe cc 3d
       0.19504595 -0.17734678 0.101702034 0.10009495
000360 bc cb 9c 3d 1e c8 0f 3e c0 bf ca bb 53 6c ca 3d
       0.07656047 0.14041182 -0.006187409 0.098839425
000370 85 e6 63 be ac 31 00 be e9 0e 16 bc fc 7c e3 3c
       -0.22255905 -0.12518948 -0.009158828 0.027769558
000380 ac 07 81 3d 8c 6c 94 bd 70 a4 86 bc 49 fb 9c bd
       0.063002914 -0.07247266 -0.016435832 -0.07665116
000390 4c ea 07 3e 0d 95 70 be 19 eb fe bd 3b eb 33 be
       0.13272971 -0.23494358 -0.12447185 -0.17570202
0003a0 77 0c 80 3c 6a 09 1e 3e 97 41 c1 bc fd 9f 52 3e
       0.015630944 0.15433279 -0.023590846 0.20568843
0003b0 c8 8c fc 3d 5f 16 38 3e c6 d4 df bd b6 c0 b0 3c
       0.123315394 0.17977284 -0.10929255 0.021576267
0003c0 1e e2 b9 3d 95 2e 17 3e 29 b6 bc bd 72 11 25 3e
       0.090763316 0.14763863 -0.09214432 0.16119936
0003d0 b9 d0 9b bc 2e 09 9c bd 30 86 c8 3d d5 e6 54 be
       -0.019020425 -0.076189384 0.09791219 -0.2079118
0003e0 eb e3 57 bd 71 10 de 3c a4 d0 eb bd 49 17 84 3d
       -0.052707594 0.02710745 -0.115144044 0.06449754
0003f0 06 1f a7 3b c2 82 95 bd 10 26 8c 3d bd 99 1b bc
       0.005100134 -0.07300331 0.06843197 -0.009497103

cnn2.0.bias f4 [16]
000000 0c 04 41 3d 75 9c 63 bd 12 51 f7 bd 2e c2 06 be
       0.047123 -0.05556913 -0.1207601 -0.13160011
000010 e6 aa fd 3d a0 6c 32 3e c1 71 35 3d a5 32 f4 3d
       0.12386112 0.1742425 0.044297937 0.11923722
000020 de 9d dd 3d 98 0d c4 bd 67 e4 88 3d a4 b6 7b ba
       0.108211264 -0.09572905 0.06684189 -0.0009602106
000030 f8 69 ec 3c 7f 5d 91 bc 13 b7 16 3d 18 a1 01 3e
       0.028859124 -0.017744778 0.036795687 0.12659109

cnn2.1.weight f4 [16]
000000 21 93 68 3f ea 45 78 3f 6d 1e 77 3f c6 cd 93 3f
       0.908495 0.9698168 0.965308 1.1547172
000010 6d 70 82 3f 33 27 87 3f 15 fe 88 3f 40 75 9d 3f
       1.019056 1.0558838 1.070254 1.2301407
000020 a8 0a 72 3f 0c f3 66 3f 55 98 81 3f 56 76 89 3f
       0.9454751 0.9021461 1.0124613 1.0739238
000030 bb 57 5e 3f 57 ab 88 3f 97 33 6c 3f e5 01 90 3f
       0.86852616 1.0677289 0.9226622 1.1250578

cnn2.1.bias f4 [16]
000000 a5 ea a4 be 17 b3 35 bd 13 8b 24 be 25 5c 5d be
       -0.3221027 -0.044360247 -0.16068678 -0.21617182
000010 b9 a7 58 3d 56 18 70 be 0f 0f 14 3d 60 6f 29 be
       0.052894328 -0.23446783 0.036147173 -0.16546392
000020 3d 5e 04 be ed 2d 06 be 79 04 d0 3d f1 81 91 bd
       -0.12926574 -0.13103457 0.10157103 -0.071048625
000030 77 23 9c 3d 48 6e 65 3e b2 59 72 bd 1d 3a 7f be
       0.07623952 0.2240535 -0.05916757 -0.24924512

cnn2.1.running_mean f4 [16]
000000 dc 5c af bf d0 41 b8 be 48 29 46 be 6b bc fc 3e
       -1.3700213 -0.3598771 -0.19351685 0.49362502
000010 ab 63 9d 3f 66 81 aa 3e 4f 4e 02 3f d2 aa b1 3e
       1.2296041 0.33301848 0.5090074 0.34700638
000020 8f 8f 7e 3e 19 c7 51 bf f9 a6 ce 3e e7 74 df 3e
       0.24859451 -0.81944424 0.40361765 0.43643877
000030 a4 b0 4d be bc 3e aa 3e e8 71 2f bd 3b a6 e5 3e
       -0.20086914 0.33250988 -0.04283324 0.44853386

cnn2.1.running_var f4 [16]
000000 f9 8a ca 3d 07 3a b1 3b a2 84 d6 3a a1 c1 96 3c
       0.09889788 0.0054085287 0.0016366432 0.018402876
000010 a2 a8 70 3d 7d 7b 03 3c 8e f6 82 3c 83 50 d6 3b
       0.05875457 0.008025047 0.015986707 0.0065403595
000020 23 c9 2f 3b 00 be cb 3c ef 69 61 3c c4 7f 30 3c
       0.0026822768 0.024870872 0.013758167 0.010772649
000030 4e 71 2f 3b d0 df 1b 3c 44 ff 30 3b 77 e7 71 3c
       0.0026770416 0.00951381 0.002700762 0.014764658

cnn2.3.weight f4 [16, 16, 3, 3]
000000 a8 0c ad bc 7f 41 58 bd e4 f8 c7 bc 18 1a 72 3d
       -0.021124199 -0.052796837 -0.024410672 0.059106916
000010 3f e7 e8 3c 54 1e 9c 3d 7d ac 34 bd 47 be 55 bd
       0.02843058 0.07622972 -0.04410981 -0.052183416
000020 3f aa 9a bc ef 78 19 3d 94 4b 5f bd d3 0b 29 3d
       -0.018880008 0.037468847 -0.054515436 0.041271042
000030 c3 c8 83 3d 1c 75 e2 3c fe 60 c6 bc dd 44 13 3c
       0.06434777 0.027643733 -0.024216171 0.008988586
000040 a3 6f 2c 3c 1f f1 45 3d fb a2 0b bd b7 f7 3b bc
       0.010524663 0.048325654 -0.034090977 -0.011472634
000050 9f 26 b5 3d 93 bc 05 3d d0 db 40 3d a5 95 1d 3d
       0.08845257 0.03265054 0.04708463 0.03847279
000060 41 35 d1 3c 0f a5 df bb a1 45 3d 3d 01 57 43 bd
       0.025538089 -0.0068250964 0.04620898 -0.047690395
000070 32 97 25 bd fe 63 ba bd a6 32 f1 bd d9 97 c4 3c
       -0.040427394 -0.09101103 -0.117772385 0.023998188
000080 3a ba c3 bd 14 97 e3 3c 19 19 e1 bb 91 42 d1 bc
       -0.09557004 0.027782 -0.006869447 -0.025544437
000090 f1 17 f7 bc b6 32 ab bc 28 5f 6f 3c 46 86 bf bd
       -0.030162783 -0.020898204 0.014610089 -0.093517825
0000a0 37 ae 01 bd f6 8f 65 3d 00 34 a4 3c 65 ca 91 3d
       -0.031660285 0.056045495 0.020044327 0.07118682
0000b0 80 c7 bb 3d 63 eb 26 bd b0 81 2d 3d fa 0b ac bd
       0.09168911 -0.040751826 0.042360008 -0.08400722
0000c0 c6 ac c1 bc fd 25 45 bd bd 46 39 bd 94 8a 09 3d
       -0.023641955 -0.04813193 -0.045233477 0.033579424
0000d0 09 1d 7a bd e5 b9 80 3c 9b cc 0f bd 1e 43 db 3d
       -0.061062846 0.015713641 -0.035107236 0.10706161
0000e0 3d 49 9d 3c b3 2c 9e 3c 1d 78 a7 bc 63 96 b8 3d
       0.019199962 0.019308424 -0.020443017 0.09013059
0000f0 78 d8 6a 3a 69 74 18 bd 42 57 e3 3d b4 61 4d be
       0.0008958648 -0.037220392 0.111006275 -0.20056802
000100 75 60 59 bd d7 a1 0c bd f6 ee ec bd 7d 24 4a bd
       -0.053070504 -0.03433403 -0.11569016 -0.049351204
000110 10 55 6f bc ae c7 9d bd ff 66 da 3d 63 15 18 3e
       -0.014607683 -0.077041015 0.10664176 0.14851908
000120 f0 af a9 bd 0b c3 9c 3c 1f 40 b8 bd de f9 fb bd
       -0.082855105 0.019135972 -0.08996605 -0.12303518
000130 d9 0c 31 bd ec 3c 70 bd 6e 51 e8 bd 0e b0 0e 3c
       -0.043225143 -0.05865185 -0.113436565 0.008708967
000140 40 16 2a 3d 64 5b a6 3c f5 7f 44 3c 09 89 39 3c
       0.041525126 0.02030725 0.011993398 0.011324176
000150 92 90 05 3d f4 a8 41 3c 76 bb db 3d b1 7b 0e bd
       0.032608576 0.011820067 0.10729115 -0.03478593
000160 50 0c 71 ba ca 7d 9b 3d af b6 c6 3d b3 ca ae bd
       -0.0009195255 0.07592352 0.09702813 -0.085347556
000170 28 28 4e bc 58 82 d9 bc 07 1b f8 3c 9a e4 e3 bc
       -0.012582816 -0.02655141 0.030286325 -0.027818967
000180 9f a8 cc bc 0d d5 44 bd 5a 98 d3 bd b0 40 c3 bd
       -0.024982749 -0.048054744 -0.10331793 -0.095338225
000190 81 1b 50 be 6d cd fb bd fb 08 45 3b df 8d 91 3d
       -0.20322992 -0.12295041 0.0030065167 0.07107138
0001a0 54 14 9e 3d 0c 06 2b 3e d1 fc 10 3e 7c 67 34 3e
       0.07718721 0.16701525 0.14158942 0.17617601
0001b0 8a fc a9 bd dc 87 8d bd 14 4a 33 bd e7 12 27 3c
       -0.08300121 -0.06910679 -0.04377182 0.010197378
0001c0 63 ad 05 bb 8b 4a 68 bd 95 c7 20 3d f4 52 a6 3d
       -0.0020397536 -0.056711715 0.039252836 0.08121291
0001d0 56 4f 66 3d 2e 13 04 3c 1d c2 cf 39 da 42 2a 3d
       0.056228004 0.008061213 0.00039626742 0.04156766
0001e0 53 98 7a 3d 9b 63 4f 3c 74 61 e3 bc 25 30 19 bd
       0.061180424 0.012658025 -0.02775643 -0.03739943
0001f0 2c 8e 45 bd 3b 58 59 bd aa b4 ba 3d 46 b0 38 3c
       -0.04823129 -0.05306266 0.0911649 0.011272496
000200 1b 53 99 3b 66 a7 1f bd 1e 66 3e 3d 08 a9 96 3d
       0.0046790964 -0.038978003 0.046484105 0.07356459
000210 cc 5f bf bc 49 e0 8f bb b5 ad 7a 3c 0e 81 ab bd
       -0.02336111 -0.0043907505 0.015300204 -0.083742246
000220 2f 6d 01 be 53 25 03 bc f0 74 0b 3e b5 c9 55 bd
       -0.12639306 -0.008004504 0.13618827 -0.052194316
000230 d2 cd cd bc cc b0 fd 3d 91 cc 63 3d 1b 8b 2d bd
       -0.025122557 0.12387237 0.05561501 -0.04236899
000240 b8 93 0c 3d 7d 70 a2 bc 85 8e 60 3d c1 77 34 bc
       0.034320563 -0.01982903 0.054823417 -0.01101488
000250 32 40 8e 3c 8b 23 67 bc ae 0b 45 3d 86 0e 34 bb
       0.017364595 -0.014107595 0.04810684 -0.0027474477
000260 94 7b df 3c 7d 68 e5 3c 4c a1 10 be 1e a8 1d bc
       0.027280606 0.028003925 -0.1412403 -0.009622602
000270 a5 d8 96 bc a2 9e 7a bc 77 11 db bc 86 4f e8 bb
       -0.018413851 -0.01529661 -0.026741726 -0.007089558
000280 80 d4 68 bd c5 a8 19 bd 99 ec 29 3d 86 a7 fe 3a
       -0.05684328 -0.037514467 0.041485403 0.0019428588
000290 1e ff aa 3b 29 dc de bd f7 cc b0 bd 33 a9 82 bd
       0.0052184006 -0.10881836 -0.08632844 -0.063799284
0002a0 7e 68 12 bd b4 bb 9a 3c 83 f3 44 bd 79 44 30 bd
       -0.035744183 0.018888332 -0.048083793 -0.04303405
0002b0 78 97 a8 3b 7d e9 00 be 0f 84 a7 bd ec 9e 0e 3e
       0.0051450096 -0.12589069 -0.08179485 0.13927811
0002c0 84 fb 9d 3c 65 c3 8d bd 9a 18 a5 bd be 18 1a be
       0.019284971 -0.06922034 -0.08061333 -0.15048501
0002d0 f7 19 b8 3d 51 4b 88 bd 06 0c 9a bd 30 30 87 3d
       0.089893274 -0.066549905 -0.075218245 0.06600988
0002e0 da 76 c5 3d 70 0b 23 3e 53 27 e5 bc f4 1b 13 3d
       0.0964181 0.15922332 -0.027972853 0.03591533
0002f0 25 e4 d1 bc dd bd 84 bd 3a 5d 07 3d 59 aa 9b 3d
       -0.025621483 -0.06481526 0.033047892 0.076008506
000300 22 76 28 bd e4 04 c3 3d 26 71 e2 3d 25 7c 71 3d
       -0.041128285 0.09522417 0.110567376 0.058956284
000310 dd e9 05 3e d2 de fe bd 38 bd cf bd 7b 14 7d 3c
       0.13077493 -0.12444843 -0.101435125 0.015446777
000320 5e b7 b1 3c 47 73 39 bd fe 5f 12 3d 97 c5 59 bd
       0.021693882 -0.045275953 0.035736077 -0.053166952
000330 8c 55 f5 3c e4 c8 19 bd 65 44 a0 3d 5f c7 b1 bd
       0.029948018 -0.0375451 0.07825545 -0.08680605
000340 06 51 77 bd e0 80 d5 3d da a7 28 3e 1a 86 1d bc
       -0.060380004 0.104249716 0.1647028 -0.009614492
000350 84 46 5e bd ad 65 02 3d 31 e5 f0 3d 99 b6 0e be
       -0.054266468 0.031835247 0.11762465 -0.13936843
000360 b4 93 93 bd bd 98 71 bd c3 28 3b bd 6c b2 7f bd
       -0.072059065 -0.058983553 -0.04569317 -0.062426016
000370 85 66 fe bd b2 3c 70 3d a0 cb 38 bd 48 f6 90 3c
       -0.12421898 0.058651634 -0.045116067 0.017695561
000380 2c fc 91 bd 1e d1 9d 3d d5 eb 88 bd 94 eb 2b bb
       -0.07128176 0.077059016 -0.066856064 -0.0026232945
000390 cd 07 19 bb 59 fd 8b 3d db 6d 3a 3d d2 a3 73 3d
       -0.0023350597 0.068354316 0.045514923 0.059482403
0003a0 b9 4b 5c bd 89 4a 8d bc 0c e1 1d be e6 b2 d2 bd
       -0.053783152 -0.017247455 -0.1541788 -0.102880284
0003b0 4a ad b8 3c a5 9d 08 bd 16 89 83 bd 34 c1 e9 3c
       0.022543568 -0.033353467 -0.064226314 0.02853451
0003c0 2d 6f b4 bc 86 31 57 3d 1d 29 10 3e e9 59 aa bb
       -0.022025669 0.052537464 0.14078183 -0.0051987064
0003d0 f0 21 a6 bd 0e 6a 2b be c1 1b 18 bd 63 27 fa bc
       -0.08111942 -0.16739675 -0.037135843 -0.03053636
0003e0 e0 26 b2 bd a0 71 1f be 2f e9 ed bd 4f 79 db bd
       -0.08698821 -0.15570688 -0.11616742 -0.10716497
0003f0 57 7c 29 bd 11 e3 74 bd 43 90 b8 bd c4 50 43 3c
       -0.041378345 -0.05978686 -0.09011891 0.0119211115

cnn2.3.bias f4 [16]
000000 1d 6b 8b 3c 55 d2 d4 bb 11 13 8d bd ef c2 93 bd
       0.017018849 -0.0064948 -0.06888402 -0.07214915
000010 7b e2 6a bd 62 81 45 bb 04 44 2f 3d dc a7 1b bd
       -0.057344895 -0.0030136933 0.042789474 -0.03800188
000020 9d 2d 11 3d da 44 72 3d 2f 82 8c 3d 11 62 8d bd
       0.03544389 0.059147693 0.06860768 -0.0690347
000030 59 97 ab bc f5 d9 a9 3b d0 a7 c3 3c cf 86 d3 bc
       -0.020946192 0.005183453 0.02388373 -0.025821118

cnn2.4.weight f4 [16]
000000 0b 0b 8c 3f d7 1a b7 3f 4c 56 f5 3f ad 17 8e 3f
       1.094087 1.4305066 1.9166961 1.1100975
000010 20 de a5 3f b0 0e 93 3f 06 44 9c 3f b5 49 ae 3f
       1.2958412 1.1488857 1.2208259 1.3616244
000020 1f 0a 94 3f 71 2f 95 3f 0f 15 aa 3f 58 35 98 3f
       1.1565589 1.1655103 1.3287677 1.1891279
000030 69 5c 9e 3f 89 40 88 3f e3 e6 b2 3f 3d f7 9a 3f
       1.2371951 1.0644695 1.3976711 1.2106701

cnn2.4.bias f4 [16]
000000 1b 9f f4 3c cc db 4f 3e 7c 53 ac 3e 79 a0 07 3d
       0.029861024 0.2029869 0.33657444 0.033112023
000010 01 6b 91 3e dc 6a a3 ba ed bf 8a bc ed db 25 3e
       0.2840195 -0.001246776 -0.01693722 0.16197176
000020 d5 f3 6d 3c e1 11 00 3d ca f5 0b 3e ea a6 2d 3c
       0.014523466 0.03126705 0.1366798 0.010598877
000030 16 63 7a 3c 4d 32 70 b9 5c 40 20 3e 48 09 1c bc
       0.015282413 -0.00022906922 0.15649551 -0.009523697

cnn2.4.running_mean f4 [16]
000000 05 33 54 bc 58 aa 0c be df 7a f1 be c0 71 88 be
       -0.012951617 -0.13736856 -0.47164056 -0.26649284
000010 9d aa 0f bf 61 61 e0 3d b4 2a da 3c dc 40 4f 3e
       -0.5611971 0.109560736 0.02663169 0.20239586
000020 09 6c 08 3e d9 09 04 3e bb 17 94 be 91 5d 92 bb
       0.13322462 0.12894382 -0.28924355 -0.0044667204
000030 11 ae 70 3d 4f aa ac 3c 45 8f bb 3e 21 4f 2a 3e
       0.058759753 0.021077303 0.36632743 0.16631748

cnn2.4.running_var f4 [16]
000000 10 57 87 3e c5 57 b9 3d 30 64 9f 3e 2d e8 04 3e
       0.2643361 0.09049944 0.31131124 0.12979193
000010 67 02 6b 3e 37 d5 37 3d 22 80 d9 3d 7a 29 6d 3d
       0.22950135 0.044881072 0.106201425 0.057900883
000020 a3 16 72 3d 23 04 3b 3e a1 93 a1 3d 8b 73 9c 3d
       0.05910362 0.18263297 0.07889486 0.076392256
000030 aa 6d 5b 3d e4 89 36 3d 9b b8 55 3d 76 d6 03 3d
       0.05357138 0.044565096 0.052178007 0.032186948

cnn3.0.weight f4 [16, 3, 7, 7]
000000 63 c7 f2 3c 10 69 18 bc 4d fb a2 3d 1d 40 bd 3d
       0.02963609 -0.009302393 0.07958088 0.09240744
000010 69 0f 37 bc 40 84 fb bc 98 2a 94 3d 01 65 4a bd
       -0.011173108 -0.03070271 0.072346866 -0.04941273
000020 57 c6 20 bd 80 2d 78 bd ed d2 62 3d 1f cd 8c bd
       -0.03925165 -0.060590267 0.055376936 -0.06875061
000030 bc ef 41 3c 30 94 a1 3c ba 7b 14 3d a2 b9 44 3c
       0.011836942 0.019723982 0.036250807 0.012007149
000040 b7 4c e6 3c 7c b6 54 3d ec 10 02 be 17 47 4a bc
       0.028112752 0.051931843 -0.12701768 -0.012346051
000050 23 b7 08 3d 6b 4b 5c 3d c0 17 69 bd ab ee 1a 3d
       0.033377778 0.05378286 -0.056907415 0.037825268
000060 0e 12 5d bd 61 90 78 bd 25 67 cb bd 4d 4a 86 bd
       -0.053972296 -0.060684565 -0.09931783 -0.065571405
000070 8e 46 10 3d c4 46 53 bc 1c 92 82 bc 58 e6 59 bd
       0.035223536 -0.01289529 -0.015938811 -0.05319819
000080 bd 19 ea bc d3 85 c2 bd d4 05 60 ba f2 90 78 3d
       -0.028576726 -0.09498181 -0.00085457903 0.060685106
000090 11 a9 21 bd a2 e2 19 be 5e 66 69 bd 47 2e f1 3d
       -0.039467875 -0.1502786 -0.05698239 0.11776405
0000a0 2e f9 d3 3d 3a 26 14 3e c3 60 4f bc d2 d1 56 bd
       0.10350262 0.14467707 -0.012657347 -0.052446194
0000b0 9c 72 c3 bd 4e 9e c1 3d 28 16 94 3e fb a2 5a 3e
       -0.095433444 0.09454022 0.28923154 0.21351235
0000c0 41 95 de 3d 57 04 9e bc 8c b3 18 bd 3a bc 70 3d
       0.10868312 -0.019289179 -0.037280604 0.058773257
0000d0 e2 96 06 3d 36 84 af 3d e7 75 0a 3d 60 4a 9a bc
       0.032858737 0.08570139 0.033803847 -0.018834293
0000e0 1f aa f1 bd b1 cd 18 bd 02 40 61 3d e3 de 7f 3b
       -0.11800026 -0.037305538 0.054992683 0.0039042763
0000f0 fc fe 79 bd 82 95 7f bd 87 0d 7c 3c 2d c1 01 3d
       -0.061034188 -0.06239844 0.015384085 0.031678367
000100 46 6a 8f bc ae cd 4f bd a2 0f b6 3c 66 71 f5 3a
       -0.01750673 -0.05073326 0.022224251 0.0018725812
000110 eb 44 93 bc e7 d4 09 3d 35 8f 4f 3d 02 5f 74 3c
       -0.017977199 0.033650305 0.050673682 0.01491523
000120 71 35 02 3d b2 13 b0 3d e2 5b ab bb 22 6e 20 3d
       0.031789247 0.085975066 -0.005229459 0.03916753
000130 0a da ba bd ba fb cd 3d 54 cc af 3d 18 e7 7c bc
       -0.09123619 0.10057779 0.08583894 -0.015435956
000140 2f ad 3f 3d 32 4b 1d bd c9 a5 c7 3c e3 8c 83 bd
       0.04679602 -0.03840179 0.024371045 -0.064233564
000150 b0 96 94 3d 49 57 3b bd ff 33 21 bd 2b 0b 59 bd
       0.07255304 -0.04573754 -0.039356228 -0.052989166
000160 84 e8 ad 3d 25 c9 1d 3e 4e 92 5d 3d 8d 3c cd 3b
       0.084916145 0.15408762 0.054094605 0.0062633217
000170 60 a2 2a bd 3d fc d0 bc 15 74 59 3e cc 71 78 3e
       -0.04165876 -0.025510902 0.21235688 0.2426216
000180 b9 61 76 3e 92 e2 9f 3d 5a 56 b2 3c 7b 83 84 bb
       0.24060716 0.07806887 0.021769691 -0.004043994
000190 e1 e2 ab 3d 96 5c 4c 3d fd c0 8a 3d 2f 36 a7 3d
       0.08392883 0.049892984 0.06775091 0.081646316
0001a0 7f ff 22 3d 09 01 ad bd 91 8a db bc 94 ee 86 bd
       0.03979444 -0.08447463 -0.026799472 -0.06588474
0001b0 10 10 f5 3c a8 fe 4a bc f8 79 9a 3c d8 52 93 3d
       0.029914886 -0.012389816 0.018856987 0.071935356
0001c0 45 ec b8 3c 87 d2 b3 bc cf 41 73 bd 49 eb 2b 3d
       0.0225736 -0.021950973 -0.05938893 0.041972432
0001d0 39 c7 06 3d 78 0d 36 bd f8 4d 8e 3d 8a 23 61 3d
       0.032904837 -0.04444644 0.06948465 0.054965533
0001e0 08 2a dd 3d d5 f1 dc bc 30 7e be 3c cc c3 87 3d
       0.107990324 -0.026970783 0.02325353 0.06629142
0001f0 30 c1 22 bc 06 ab 87 bd f1 fa c1 3c 74 7e 9c bc
       -0.009933755 -0.06624417 0.023679228 -0.019103266
000200 3b 09 d4 bc a7 ec 44 3d 98 e3 74 bd 00 8f 38 3b
       -0.025883308 0.04807725 -0.059787363 0.0028161407
000210 55 f2 4b bd 6e 84 16 3d 84 cc 46 3c 93 9b 8a bd
       -0.049791653 0.03674739 0.012133721 -0.06767955
000220 8f 87 a1 3d 41 15 0e 3e 0f e7 97 3d 14 79 2f bd
       0.07887184 0.13875295 0.07417118 -0.04284008
000230 05 96 32 bd 8a 8c 58 bd 41 1b 3a bd 38 f7 19 3e
       -0.0436001 -0.052868403 -0.045436148 0.15035713
000240 8d 32 2d 3e 53 ae 37 3e ef cc 42 3d 2c 90 67 3d
       0.16913815 0.17937593 0.04755872 0.056533977
000250 ca 13 59 bd 11 cb c3 bd 8e 5d 0f 3e 8d 7f 79 3d
       -0.052997388 -0.09560216 0.14000532 0.060912658
000260 61 a2 4d 3d 7b 24 a5 3c 1a 6f ed bc 35 0e ca 3a
       0.050203685 0.020158997 -0.028983641 0.0015415611
000270 56 d5 fd 3c 8f 56 a6 3d 97 f5 80 3d e0 94 ae 3c
       0.030985516 0.081219785 0.062968425 0.021311224
000280 81 e7 81 bd fb 08 c2 bd a7 df 48 3d 4d de bf 3d
       -0.06342984 -0.09474369 0.049041416 0.093685724
000290 2b 2e 2f 3e 80 89 8d 3a 3f e3 df bd 5c 9d cf bd
       0.17107455 0.0010798424 -0.10932016 -0.10137436
0002a0 60 36 ef 3c bc a3 25 3d ae 94 b4 3d 39 3a 8c 3d
       0.029200733 0.040439352 0.08817421 0.068470426
0002b0 c4 46 ea 3d 92 e5 be bd 2b e1 a9 bd 6a 48 db 3d
       0.11439279 -0.09321131 -0.082949005 0.10707171
0002c0 31 0f 14 3d 73 a3 bd 3c 44 27 2c 3d c7 eb 16 bd
       0.0361473 0.023149228 0.042029634 -0.03684595
0002d0 ae c3 8d bd 22 cb 6e 3c 07 e2 eb 3d bb 43 92 3b
       -0.069220886 0.014574798 0.11517721 0.0044636405
0002e0 95 c2 97 bd 6b c7 9b bc 71 41 cf bd 9d fa 4b 3c
       -0.074101605 -0.019015988 -0.10119904 0.012449888
0002f0 66 ad 23 bd 77 d4 d5 bc 9b bb d6 3b b1 53 e6 3a
       -0.039960288 -0.026102288 0.006553126 0.0017572549
000300 11 a8 73 bc c3 40 65 3d 20 4c 94 3d dc ba f1 3c
       -0.014871613 0.055969965 0.07241082 0.029508047
000310 1a 44 d8 bd 3c 92 ca bc b6 ac f2 bd 51 8a d5 3c
       -0.10559864 -0.024727933 -0.11849348 0.026066931
000320 2f d7 f5 3d 03 3c 37 3c 97 ef d7 bd 67 eb 0b bd
       0.12003934 0.0111837415 -0.10543745 -0.034160044
000330 48 44 5e bd 29 66 ec 3c 00 c9 ae 3d ba 4b f4 3d
       -0.054264337 0.028857308 0.085344315 0.11928506
000340 68 90 a2 bd ff c1 cb bc 83 aa 5c bd 6c cd c3 bc
       -0.079376996 -0.024872778 -0.05387355 -0.023901664
000350 de 14 7c bc 25 a2 e3 3d cd cf 90 3d 67 e2 5f bd
       -0.0153858345 0.11114911 0.07070885 -0.054659273
000360 52 6a 27 be 5c ea ae 3b 7f e0 4f 3d dd b4 e0 3d
       -0.16349152 0.0053379964 0.050751206 0.10971997
000370 b2 b4 ba 3d 03 63 c2 3d 1f 90 db bd 8a 49 c3 bc
       0.09116496 0.09491541 -0.10720848 -0.023838777
000380 50 df dc bb 4e 32 9b 3d bd d3 98 3d a4 7a 8a bd
       -0.006740488 0.07577954 0.07462261 -0.06761673
000390 91 f2 7d 3c 6a 91 14 3a 58 2e 24 bb 26 e8 4f bd
       0.015499727 0.00056674203 -0.0025052037 -0.050758503
0003a0 f5 e9 5d bd 7a c5 03 bd 28 cd 89 bd 4d 4d 9e bd
       -0.054178197 -0.03217075 -0.067285836 -0.07729588
0003b0 b2 66 ea bc 26 ff 34 bd e0 e0 12 bd 84 4a ee bd
       -0.028613422 -0.04418864 -0.03585899 -0.116353065
0003c0 b6 71 79 bd 13 91 c9 bc 37 eb 5c 3d 7e f7 79 3d
       -0.06089946 -0.02460531 0.053935256 0.061027043
0003d0 d1 5f c4 bc 40 7e 34 3d 62 0c 88 bd a8 37 a0 bd
       -0.02397147 0.044065714 -0.06642987 -0.078231156
0003e0 7a df d4 3d ef 40 9c 3c 06 64 2b 3c cc 31 2a bc
       0.10394187 0.019073932 0.010460859 -0.010387849
0003f0 24 d5 30 bd df f9 4d bd 34 b3 8b 3d ef e9 ce 3d
       -0.043172017 -0.050287124 0.0682129 0.10103213

cnn3.0.bias f4 [16]
000000 3a c4 28 3d 35 9a 99 3d e9 3c 89 3d 68 ab 8c bd
       0.04120276 0.07500116 0.06701071 -0.06868631
000010 d4 b6 84 3d 80 d2 3a 3c af 6f 59 3d 4e 12 91 3d
       0.06480184 0.011402726 0.053085025 0.070835695
000020 99 21 a3 3d 2d f8 80 bd cc 9a 5d 3d f6 82 a2 3d
       0.079653926 -0.06297336 0.054102704 0.07935135
000030 a6 db a1 3d 2b d9 43 bd 6a 66 31 bc 34 de 11 bc
       0.07903223 -0.04781453 -0.01082764 -0.008903075

cnn3.1.weight f4 [16]
000000 40 19 7e 3f 0e 31 88 3f 8c 70 7b 3f 28 66 8e 3f
       0.9925728 1.063997 0.9821861 1.1124926
000010 e4 e4 8a 3f b2 fc 5e 3f 2c 02 6c 3f d0 91 54 3f
       1.0851102 0.8710433 0.92190814 0.8303499
000020 f1 52 6e 3f c6 46 7f 3f 61 a1 82 3f 91 49 7c 3f
       0.9309531 0.99717367 1.0205499 0.98549753
000030 2a 62 8b 3f 7e a3 81 3f d6 bb 78 3f 8b c9 81 3f
       1.0889332 1.0128019 0.97161615 1.0139631

cnn3.1.bias f4 [16]
000000 a5 6a 04 3d fa 85 3d bd c7 c3 09 3d aa e3 0d be
       0.032328267 -0.046270348 0.033633973 -0.13856378
000010 3c ec c8 bd 16 b9 04 bf f3 d3 8c 3e 8e 0a 72 be
       -0.09810683 -0.5184492 0.27505454 -0.23636839
000020 54 76 0b bf 65 30 e5 3b 54 c2 0f be cf 2c 3f bd
       -0.5447743 0.0069942945 -0.14038974 -0.046673592
000030 32 40 da bd ec 7f d2 be 7e 00 19 bd 9f ba 0f be
       -0.106567755 -0.41113222 -0.037353985 -0.14036034

cnn3.1.running_mean f4 [16]
000000 65 34 01 40 c9 95 6b 3e 4c 54 54 3e ce 36 01 3f
       2.018823 0.23006357 0.20735282 0.5047425
000010 58 98 f3 3e 4b dd 95 be 6d 9c 96 3e 33 06 1d bf
       0.47577167 -0.29270396 0.29416218 -0.61337584
000020 46 b8 80 3e ee 20 f8 3e 76 c2 78 3f 1c e0 60 3f
       0.2514059 0.48462623 0.97171724 0.87841964
000030 a2 93 40 3f ac 17 46 3f b6 41 68 3d 22 e5 58 3d
       0.7522527 0.7737987 0.05670329 0.052952893

cnn3.1.running_var f4 [16]
000000 06 25 7b 3e f0 32 65 3d 54 97 cc 3c fb c8 fd 3c
       0.24525842 0.05595678 0.024974503 0.030979624
000010 6c 1b 1c 3d b1 1f 2b 3d b5 3f 0b 3d 1c 36 4b 3d
       0.03811209 0.04177827 0.033996303 0.04961215
000020 45 d8 b3 3d ed 8b 07 3d f2 ef a0 3d 0b ed 11 3e
       0.087814845 0.033092428 0.07858266 0.14250581
000030 64 34 7b 3d 1b 24 b6 3d c2 e5 da 3c 0f 3a bc 3c
       0.06132926 0.08893605 0.026720885 0.022976903

cnn3.3.weight f4 [16, 16, 7, 7]
000000 5f 14 00 3d 85 34 83 bd bb f8 4f bd db 2f 01 3c
       0.031269427 -0.06406502 -0.050774317 0.007884945
000010 99 5a 90 bc 4c 8b ac 3a 95 11 77 3d 53 bf 8b bd
       -0.017621325 0.0013164072 0.060319502 -0.068236016
000020 f4 14 2b bd 8b 92 a9 bc 03 a0 3b bd 3f 44 6b bc
       -0.04176803 -0.02069976 -0.045806896 -0.014359533
000030 86 34 a4 bc 0a 94 d0 3c 27 75 36 bd 8d f6 ed bc
       -0.020044576 0.025461216 -0.04454532 -0.029048229
000040 52 43 53 bd a8 8a 8a bc 5d a6 01 3d 6e 80 10 3d
       -0.051577874 -0.01691182 0.031652797 0.03527873
000050 71 df a1 3d 68 fb 73 bd 2f dd 9f bc 08 8a 32 3d
       0.07903946 -0.05956593 -0.019514648 0.043588668
000060 fc a0 1c 3d 0b 60 4c 3c 67 2f 3d 3d 1d 13 ac 3d
       0.038239464 0.01247407 0.046187785 0.08402083
000070 32 12 4f 3c 5d 42 bc 3c 98 b8 59 3d ec e7 19 3d
       0.012638615 0.022980863 0.053154558 0.037574694
000080 66 31 45 3d 6c 2e a8 3d 4d cb 86 3d 62 d8 a0 3c
       0.048142813 0.08211979 0.06581745 0.01963443
000090 02 b8 5c 3d b1 ec b2 3c 6b b3 69 3c e2 81 86 3d
       0.05388642 0.021841379 0.014263968 0.06567742
0000a0 31 65 be 3d ff 2d ae 3c 29 69 60 3c 4d d7 10 3d
       0.092966445 0.021262167 0.013696947 0.035361577
0000b0 48 09 54 3d 93 97 cb 3d 65 57 07 3d 2e 97 6d 3d
       0.051766664 0.0994102 0.03304233 0.058005504
0000c0 1a f1 0d 3d 30 f8 fd bc ab 94 58 bd 98 45 59 3c
       0.03465376 -0.031002134 -0.052876156 0.013261221
0000d0 4b e1 e3 3d 8c 42 08 3e 00 f8 09 3d 31 a2 c2 3c
       0.111269556 0.13306636 0.033683777 0.02375898
0000e0 6a b3 97 3c 41 f7 4e 3d 70 a6 9e 3d d4 7c 0a 3d
       0.018518168 0.05052877 0.07746589 0.03381045
0000f0 fe 26 d9 3c 05 e5 1a 3c 66 40 4d 3d d7 b1 8c 3d
       0.02650785 0.009454017 0.050110243 0.06869858
000100 34 2c 8a 3d 80 8c 7d 3d 25 b7 18 3d 48 75 d2 3c
       0.06746712 0.06190157 0.037284035 0.02569069
000110 58 84 06 3c 17 58 71 3c 3d 28 8f 3d f2 87 f5 bb
       0.008210264 0.014730475 0.06990097 -0.0074930126
000120 a0 e4 1d bd fd 42 69 bd f7 d0 11 bd 7b 2a aa bb
       -0.038548112 -0.05694865 -0.035599675 -0.0051930523
000130 ce 6d f0 bd bf 02 b6 3d 51 a8 4b 3d 29 e2 4a 3c
       -0.117396936 0.088872425 0.049721066 0.012383022
000140 b9 cd b5 bd 93 a1 b4 bc 21 d5 1a 3d 71 6f 6c 3d
       -0.08877129 -0.0220497 0.03780091 0.057723466
000150 e7 87 dd 3c 59 a9 c0 bc ee 20 15 bd 4e 0c 0c bd
       0.027042342 -0.023518251 -0.036408357 -0.034191422
000160 da 35 8c 3d 9a 72 2c 3d e0 d7 14 bc 9c 47 2e bd
       0.06846209 0.04210148 -0.009084672 -0.04254876
000170 a7 94 80 bd f8 d1 a8 bc 33 3d a1 bd b3 48 3e bd
       -0.06278353 -0.020607933 -0.07873001 -0.04645605
000180 96 99 03 bd e4 e8 bc bd b8 44 dd bc 64 80 8a bd
       -0.032128893 -0.09224108 -0.027010307 -0.0676277
000190 eb 40 38 bd 43 6a 78 bc dc 3c 32 bd ab b1 63 bc
       -0.044983786 -0.0151620535 -0.04351507 -0.01389734
0001a0 cf 11 ce 3a eb 81 9f bc 04 9f b1 bd 78 e8 4e bd
       0.001572186 -0.01947113 -0.08672908 -0.05051467
0001b0 73 ee a0 bd fa bc 30 bd cc 55 ca 3c 7c 94 d7 3c
       -0.078579806 -0.043148972 0.024699114 0.02631592
0001c0 0a 15 51 bd 0f 4e af bd ab 50 fa bd 13 91 48 bd
       -0.051045455 -0.0855981 -0.122224174 -0.04896648
0001d0 35 81 a8 3d 64 6e 6f 3d dd 4c 3e 3d 3c fc b7 bd
       0.08227769 0.058454886 0.04646002 -0.08983657
0001e0 c4 d2 b7 bd ab 6d 13 bc d0 a0 b5 3b 61 29 12 3d
       -0.08975747 -0.008998315 0.005542852 0.035683993
0001f0 02 a5 a9 3c 30 14 b5 3c 61 97 3f bd 22 6f 8a bd
       0.020708565 0.022104353 -0.046775226 -0.06759478
000200 53 7c bc bc 4a 1c 90 3c 57 d3 c5 3c 94 aa b1 3c
       -0.023008501 0.017591614 0.024148626 0.021687783
000210 1f 8f 4b 3d a2 ef 0e 3c 75 ff 17 bd df e9 20 bc
       0.049697038 0.008724125 -0.037108857 -0.009821384
000220 48 f2 2b 3c 0b 9c aa bc b7 fb 4b 3b ed 9f 33 3d
       0.010494776 -0.02082636 0.0031125376 0.04385369
000230 59 d1 34 bd b5 7a c7 bc 5f ca 26 3c 1f 87 fa 3c
       -0.044144962 -0.024350503 0.010180085 0.030582009
000240 58 c9 16 3b 2b 59 23 3d de f4 6a 3c e1 1c 97 3d
       0.0023008194 0.03987996 0.014340607 0.07378555
000250 90 1b 45 bc a1 9e 4e 3d 14 e2 b1 3c 7e b0 ff 3c
       -0.012030497 0.05044425 0.021714248 0.031212088
000260 48 82 9e 3d fb 2e 4c 3c 7c 67 a4 3d 0c 70 00 3d
       0.07739693 0.012462373 0.080275506 0.031356856
000270 fe ef 52 3d 74 f5 e2 3d 6f 4b 2b 3d 8b 83 1e 3d
       0.051498406 0.11081973 0.041819986 0.038699668
000280 e5 5f 74 3c 5a 36 72 3c 19 dc c0 3c 04 6f e6 3c
       0.014915441 0.014783466 0.02354245 0.028129108
000290 48 df ec 3c c4 65 aa bb dc c4 82 bc 94 50 24 3c
       0.028915063 -0.0052001197 -0.01596301 0.010028977
0002a0 85 10 96 3d 44 64 4a 3d ad a7 d4 bc 29 f5 3c 3b
       0.073273696 0.049412027 -0.02595886 0.002883265
0002b0 a3 aa f8 3c 40 81 7a 3a 20 d9 ab bd 36 52 84 3d
       0.030354803 0.0009556003 -0.08391023 0.06460993
0002c0 93 c9 1a 3c 17 9d 9c 3c 80 f7 12 3b 34 04 58 3c
       0.009447473 0.019117875 0.0022425354 0.013184596
0002d0 88 2b c9 bc d0 b7 a3 bd e6 7e 69 3d de 90 c3 bb
       -0.02455689 -0.07994044 0.057005785 -0.0059681972
0002e0 d7 92 a0 bc 19 8b 44 bd 80 58 ae bd e2 31 e2 3c
       -0.019601269 -0.047984216 -0.08512974 0.027611677
0002f0 7b 7f a6 bb 14 9c 73 3d e2 86 38 3b 54 e6 9b 3c
       -0.005081115 0.05947502 0.0028156568 0.019030727
000300 bb 17 90 bd 8e 93 9b bd b2 d7 53 bd 8d 5b b6 bc
       -0.07035776 -0.07596503 -0.051719375 -0.022260452
000310 b5 bd 3e 3d eb 6e 90 3d f5 ca 8c 3c 30 a5 b6 3b
       0.046567637 0.07052406 0.017186621 0.005573891
000320 5b 74 45 bd 25 39 c2 bc 13 be 80 bc 56 e4 20 3d
       -0.04820667 -0.02370889 -0.015715634 0.039280258
000330 84 be 65 3d ca 8f 05 bd 49 f2 12 3d ff f0 31 bc
       0.056089893 -0.03260783 0.035875592 -0.010860681
000340 2d 2a 45 bd d6 66 45 3d 8d 85 8a bc 6d 6c d8 3c
       -0.048135925 0.048193775 -0.016909385 0.026418889
000350 be 15 74 bd 22 b2 61 bc 16 50 6b bd ef d5 3e bd
       -0.059591047 -0.01377538 -0.057449423 -0.04659074
000360 f9 54 eb 3c 1f 6e ec 3c 9f 77 4e 3d 0b 69 23 bd
       0.028727042 0.028861104 0.05040705 -0.0398951
000370 6c bc 9c bd 24 e8 f9 bd 97 89 b7 3c 5e e5 7c 3d
       -0.07653126 -0.122024804 0.022404475 0.06174218
000380 fa 8a d7 3b 8f 0c 65 bd f1 09 8e bd 86 68 94 bb
       0.0065778466 -0.05592018 -0.0693549 -0.0045290617
000390 e1 74 0e bb 47 ec 94 39 1d 04 e3 3d 0c 6e 23 3d
       -0.0021737146 0.000284048 0.11084769 0.03989987
0003a0 03 2d 99 3c 3f e2 91 3b f4 13 58 3d 10 5c 0b bc
       0.018698221 0.0044520195 0.052753404 -0.008505836
0003b0 f6 57 03 3c 28 9c b5 3d b7 7f be 3d 83 67 b1 3d
       0.008016577 0.08867675 0.093017034 0.086623214
0003c0 4e 2d 2e 3d a1 6c 8d 3d b0 cc be 3d 32 9b 91 3d
       0.042523675 0.06905485 0.09316385 0.07109679
0003d0 14 5c e0 3d 38 d9 c6 bc dd 5b 0d bd 36 0d ab bc
       0.109550625 -0.0242735 -0.034511436 -0.020880323
0003e0 01 af 90 bc 16 1b 18 3d a5 5a ca 3c dd 9b d2 3b
       -0.017661573 0.037135206 0.024701426 0.0064272718
0003f0 64 05 b7 bd 78 f7 89 bd 5f 52 86 bd 93 4d 6f 3c
       -0.08936575 -0.06736654 -0.0655868 0.0146058975

cnn3.3.bias f4 [16]
000000 a6 7e a0 bc 40 3f 1b 3d 6a 76 3b bc 4f c3 a8 3c
       -0.01959164 0.037902117 -0.011441806 0.020600943
000010 be 3d 87 3c 76 1f f9 3c 5d 13 b2 bc 3a a9 a9 bb
       0.016508933 0.03041051 -0.021737749 -0.005177644
000020 01 88 5d 3c 33 62 d4 3b ab 5b 9b bc 96 85 8b bc
       0.013521195 0.006481433 -0.01896461 -0.017031472
000030 18 76 45 3d 52 55 38 3c 13 b1 ee 3c b1 33 c5 bc
       0.048208326 0.011250811 0.02913717 -0.0240725

cnn3.4.weight f4 [16]
000000 c9 e3 a7 3f 95 bc b6 3f bb ae c3 3f 3f a1 02 40
       1.311639 1.4276301 1.5287699 2.0410917
000010 e9 2c ea 3f e1 f9 ad 3f f2 ed fb 3f b6 78 c8 3f
       1.8294955 1.3591882 1.968199 1.5661838
000020 e8 a4 a4 3f 6e 18 a4 3f c4 0d e0 3f 15 d4 a5 3f
       1.2862825 1.2819955 1.7504201 1.2955347
000030 86 c2 ff 3f 4a d8 9a 3f fd 17 db 3f 27 47 b0 3f
       1.9981239 1.2097256 1.7116696 1.3771714

cnn3.4.bias f4 [16]
000000 94 ba 19 bd 0a f1 36 3e 1d b8 de bd 9c 04 e9 3e
       -0.03753145 0.17865387 -0.108749606 0.4551133
000010 40 14 ce 3e 94 c2 7c 3e b6 2f 00 3f 26 eb 7c 3e
       0.40249825 0.246836 0.500728 0.24699077
000020 53 da cb 3b d4 7a a6 3d cb 58 d2 3e c6 2d fb 3d
       0.0062210946 0.08128896 0.4108337 0.1226459
000030 09 27 c5 3e ff 27 f3 3d 40 dd 50 3e 09 50 a0 bd
       0.38506344 0.11872863 0.203969 -0.078277655

cnn3.4.running_mean f4 [16]
000000 65 10 20 3d 49 6d df 3d ec 18 48 be 31 be 61 be
       0.039078135 0.10909516 -0.19540757 -0.22045209
000010 9d 81 ae be f3 a8 48 bf 16 be 56 be e1 44 e2 be
       -0.34083262 -0.78382796 -0.2097095 -0.44193175
000020 20 64 ec 3e 26 67 43 3f 0b a7 c3 bf 6a 92 45 be
       0.4617014 0.7632927 -1.5285352 -0.19294134
000030 dd be 03 bd 54 b2 78 bf a7 27 39 bd 35 a8 85 bd
       -0.032164443 -0.9714711 -0.04520383 -0.065262236

cnn3.4.running_var f4 [16]
000000 d4 8b 05 3f f1 c3 c3 3e 14 43 23 3e d3 a8 8d 3f
       0.52166486 0.3823543 0.15943557 1.1067146
000010 f6 47 27 3f 0a 99 05 3f 72 02 3c 3f ab d3 62 3e
       0.6534418 0.52186644 0.7344123 0.22151057
000020 e8 37 98 3e bf aa c5 3e 7e ee 91 3f ac 97 9a 3e
       0.29730153 0.3860683 1.1400907 0.3019384
000030 39 db 1c 3f 8e 83 94 3e fa 34 d0 3e 62 93 8a 3e
       0.6127201 0.29006618 0.40665418 0.2706557
