pretrain/2016/net1-500-dice.pkl (torch, 366687 bytes, 49 tensors)

cnn1.0.weight f4 [16, 3, 1, 1]
-0.36752078 0.438722 -0.04171762 0.40130553 0.14593373 -0.33380586 -0.4821901 0.08431202
-0.2412177 -0.049279675 -0.4036048 0.37484774 0.04395347 -0.2752089 -0.13429971 0.56174946
-0.38943452 0.123267844 -0.041497026 0.390481 0.55249774 0.025841475 -0.352573 0.2174207
0.12593842 0.18176031 -0.16703309 -0.07509747 0.3246051 -0.08542401 -0.5076806 -0.12185882
0.35842404 -0.0053438367 -0.27548724 -0.44646013 -0.065880954 -0.18650964 0.3212366 0.23008206
0.18341598 0.10872193 -0.047853507 0.010228182 -0.44811586 0.34372053 0.224264 0.054051287
00000000: af2b bcbe 2ca0 e03e 18e0 2abd eb77 cd3e
00000010: a76f 153e 9ae8 aabe 9fe1 f6be c8ab ac3d
00000020: c601 77be 7cd9 49bd 4aa5 cebe 0bec bf3e
00000030: 8e08 343d 2ee8 8cbe dd85 09be d0ce 0f3f
00000040: f663 c7be da73 fc3d c9f8 29bd 20ed c73e
00000050: 7e70 0d3f 80b1 d33c 7384 b4be 88a3 5e3e
00000060: 00f6 003e 601f 3a3e b90a 2bbe b4cc 99bd
00000070: a432 a63e c9f2 aebd 5bf7 01bf 1e91 f9bd
00000080: 5b83 b73e 5a1b afbb aa0c 8dbe 6c96 e4be
00000090: 98ec 86bd 62fc 3ebe 2079 a43e a29a 6b3e
000000a0: 66d1 3b3e 9aa9 de3d 0a02 44bd 1b94 273c
000000b0: 716f e5be 23fc af3e 76a5 653e e264 5d3d

cnn1.0.bias f4 [16]
0.27546754 0.3360727 0.39838374 0.62109506 -0.471507 0.39565778 -0.24950211 0.27774832
0.34637854 -0.39449683 0.045457255 0.38261718 -0.22579393 0.2280889 -0.3374263 0.2652577
00000000: 150a 8d3e b911 ac3e f4f8 cb3e 1600 1f3f
00000010: 5e69 f1be a893 ca3e 7b7d 7fbe 0735 8e3e
00000020: 8758 b13e 7dfb c9be 6331 3a3d 66e6 c33e
00000030: 8636 67be 2390 693e 24c3 acbe dbcf 873e

cnn1.1.weight f4 [16]
0.92759794 1.0200473 1.0050327 0.9472212 0.97654 1.0120263 0.85712373 1.090591
0.8757398 0.97751045 0.9458356 0.9725593 1.0681609 1.0025721 0.9917494 0.97291267
00000000: 0f77 6d3f e990 823f e9a4 803f 177d 723f
00000010: 87fe 793f 148a 813f 766c 5b3f 7c98 8b3f
00000020: 7c30 603f 203e 7a3f 4822 723f a5f9 783f
00000030: 7fb9 883f 4854 803f 4ae3 7d3f ce10 793f

cnn1.1.bias f4 [16]
-0.190402 -0.06177701 -0.119578324 -0.12347215 0.13746622 0.11601055 -0.28449374 0.25169843
-0.36662337 0.21848676 0.4009901 -0.036395904 0.16499725 -0.1871253 0.16159563 -0.21379194
00000000: bef8 42be e409 7dbd 7be5 f4bd f7de fcbd
00000010: f2c3 0c3e f096 ed3d 2aa9 91be 9ede 803e
00000020: 0fb6 bbbe feba 5f3e 934e cd3e df13 15bd
00000030: 0af5 283e c69d 3fbe 5379 253e 46ec 5abe

cnn1.1.running_mean f4 [16]
0.29738685 0.5098973 -0.1107773 0.5565603 -0.76089114 0.63264394 0.4632731 0.18978387
0.45993686 -0.26390627 -0.1749776 -0.19250979 -0.17392616 0.6438939 -0.72086835 0.761267
00000000: 1743 983e a188 023f 36df e2bd bc7a 0e3f
00000010: c3c9 42bf f4f4 213f 2232 ed3e b456 423e
00000020: d87c eb3e b91e 87be 542d 33be 4921 45be
00000030: b319 32be 3bd6 243f d48a 38bf 65e2 423f

cnn1.1.running_var f4 [16]
7.452895e-05 0.0012933642 0.010779939 0.00023493657 0.0036626186 0.0022570803 0.022538457 0.00032279314
0.00052675867 0.0007209341 0.002045124 0.014617393 0.00023931288 0.007236652 0.006629757 0.010185329
00000000: 6d4c 9c38 1a86 a93a 579e 303c 4e59 7639
00000010: 8b08 703b 86eb 133b 92a2 b83c 903c a939
00000020: 2d16 0a3a 12fd 3c3a 7d07 063b ca7d 6f3c
00000030: 10f0 7a39 7021 ed3b 6f3e d93b 5ee0 263c

cnn1.3.weight f4 [16, 16, 1, 1]
-0.08744302 0.10448547 0.13583271 0.16091663 0.14909825 0.028285757 -0.047298837 -0.035477478
-0.23427583 0.1336411 -0.24218997 0.13682702 0.09507207 -0.25998053 -0.28378698 0.068854704
0.05491323 -0.18541053 -0.076399684 0.04840799 -0.030784108 0.025906805 -0.03321357 0.08452256
-0.2477496 0.06505354 -0.06932396 -0.21458185 0.28466323 -0.03153734 -0.01846993 -0.03777954
-0.17941423 0.09344753 -0.062173493 0.06182438 0.30941975 -0.0121716475 -0.28197107 0.044519886
-0.105172634 0.1078291 0.16832206 0.10712929 0.043097056 0.14141816 -0.092762575 -0.048111897
0.112959616 -0.1396306 -0.008602957 -0.08041622 -0.13172603 0.049396068 -0.1931343 -0.11868745
0.06559343 0.27804568 0.15474208 0.17677453 0.22710568 -0.026503505 -0.018891787 -0.2153237
-0.036722545 -0.27228048 -0.022544561 0.017081492 -0.018750362 0.20595932 -0.2100157 0.07136824
0.060650736 0.33763802 -0.1326117 0.018303936 0.0005321046 -0.10963102 0.016694026 0.09093471
0.24513221 -0.4203672 -0.1156352 0.18552919 -0.15544349 -0.22220618 -0.088097304 -0.07398591
-0.07285297 0.055084176 0.12661833 -0.0398905 0.09087175 -0.21638638 -0.040049512 -0.085071705
-0.06825101 0.16475067 -0.07645615 0.04347671 0.13353819 -0.0039436766 -0.25554946 -0.28102046
-0.22275628 0.01768865 0.04109606 0.014443128 0.052936677 -0.13544177 -0.009564017 -0.16520683
0.034209587 -0.21777911 0.12857714 0.133185 -0.094036706 -6.6488836e-05 0.16705285 -0.26311713
-0.06163528 0.1920895 -0.02234928 -0.0066197948 -0.056408998 -0.15468551 0.1554227 -0.16173783
-0.05496154 -0.043243766 0.17918941 0.025506964 -0.14877413 0.041124716 -0.1408294 -0.039821733
-0.08016874 0.25725526 -0.05611409 0.20999277 0.015562942 0.069147706 -0.19465305 -0.16549663
-0.303287 -0.08755311 0.054244854 -0.2860915 0.18957561 0.11204685 -0.118102506 0.13247062
0.08196831 0.160995 -0.052502684 0.14466065 0.08763879 -0.10643565 -0.17849112 -0.2026103
0.051649373 0.27156264 -0.06513279 0.021031868 0.027338658 -0.022482196 0.076389186 0.1256604
-0.32229495 0.069081046 -0.104978636 0.039104845 0.23254831 0.105856255 -0.007599869 0.058412354
-0.0060157576 -0.023534738 0.24125318 -0.013336356 -0.24547538 0.103029884 -0.052786313 -0.0015313632
-0.1661372 -0.09804338 -0.049630314 -0.2224334 0.19525751 0.12059432 0.20535536 -0.11694275
0.08657587 -0.012490785 0.08384851 0.06725672 0.056336444 0.11194157 0.079537444 -0.099829964
-0.31444088 0.13844426 -0.13687766 -0.106580354 0.057466634 -0.14352266 0.14151892 -0.016401233
0.0766992 -0.2497824 0.17844906 0.07167981 -0.17924547 0.3151641 -0.16756643 -0.11366345
-0.038884137 -0.0031636814 -0.020352675 0.22594859 0.03720893 0.19553512 -0.18836202 -0.20199321
-0.0016624063 -0.32292885 -0.011417659 0.18035224 0.095082045 0.20106915 -0.17905666 0.07618759
-0.027118117 0.16234055 -0.18301378 -0.040295634 0.04965492 0.018678062 -0.18131298 -0.17205699
-0.057831433 0.13936481 0.24477337 -0.10448307 -0.112973824 0.011901403 -0.16739014 -0.13775249
-0.20698959 0.04083281 -0.09060508 0.18827024 0.07157228 -0.22468704 -0.16895367 -0.18150371
00000000: 5315 b3bd 7afc d53d bb17 0b3e 54c7 243e
00000010: 36ad 183e 88b7 e73c 6dbc 41bd d550 11bd
00000020: 01e6 6fbe 36d9 083e a600 78be 621c 0c3e
00000030: 25b5 c23d 2b1c 85be 874c 91be b203 8d3d
00000040: b2ec 603d 42dc 3dbe 7077 9cbd 7547 463d
00000050: f42e fcbc 823a d43c f40a 08bd 2a1a ad3d
00000060: 12b2 7dbe ca3a 853d b8f9 8dbd 58bb 5bbe
00000070: 61bf 913e 4c2d 01bd 404e 97bc b8be 1abd
00000080: 5db8 37be 6b61 bf3d a2a9 7ebd 903b 7d3d
00000090: 446c 9e3e 976b 47bc 835e 90be 7c5a 363d
000000a0: c064 d7bd 81d5 dc3d 9e5c 2c3e 9a66 db3d
000000b0: 8a86 303d eccf 103e 4efa bdbd fb10 45bd
000000c0: 5f57 e73d 53fb 0ebe 6bf3 0cbc 42b1 a4bd
000000d0: 30e3 06be 8853 4a3d ffc4 45be 6812 f3bd
000000e0: d955 863d 015c 8e3e b574 1e3e 6204 353e
000000f0: 648e 683e e11d d9bc f3c2 9abc d17d 5cbe
00000100: 616a 16bd 5968 8bbe 5faf b8bc 7cee 8b3c
00000110: 5c9a 99bc 00e7 523e 5b0e 57be 8329 923d
00000120: e86c 783d e4de ac3e 5dcb 07be 23f2 953c
00000130: ef7c 0b3a 3a86 e0bd e9c1 883c fa3b ba3d
00000140: f003 7b3e 5f3a d7be 26d2 ecbd 5dfb 3d3e
00000150: 942c 1fbe 048a 63be 5c6c b4bd ed85 97bd
00000160: f033 95bd f29f 613d 3ca8 013e 3964 23bd
00000170: f81a ba3d 6494 5dbe f50a 24bd 133a aebd
00000180: 2fc7 8bbd 66b4 283e 0b95 9cbd a214 323d
00000190: 3cbe 083e f539 81bb 61d7 82be eae1 8fbe
000001a0: 391a 64be cae7 903c 5854 283d dfa2 6c3c
000001b0: 21d4 583d 3fb1 0abe 65b2 1cbc fb2b 29be
000001c0: 5a1f 0c3d 7d01 5fbe baa9 033e a661 083e
000001d0: 5196 c0bd ec6f 8bb8 e70f 2b3e 4ab7 86be
000001e0: 4675 7cbd 1cb3 443e d615 b7bc ddea d8bb
000001f0: 1f0d 67bd e165 1ebe 2127 1f3e 9a9e 25be
00000200: 5a1f 61bd 6020 31bd 6e7d 373e fbf3 d03c
00000210: 3f58 18be 6472 283d 9535 10be 1d1c 23bd
00000220: 822f a4bd f6b6 833e e3d7 65bd 5808 573e
00000230: b6fb 7e3c 509d 8d3d 2153 47be f377 29be
00000240: 6f48 9bbe 0c4f b3bd da2f 5e3d 967a 92be
00000250: 1c20 423e d278 e53d badf f1bd 61a6 073e
00000260: 00df a73d e0db 243e 0e0d 57bd ec21 143e
00000270: f77b b33d effa d9bd 60c6 36be 1379 4fbe
00000280: 4b8e 533d 420a 8b3e 5764 85bd 064b ac3c
00000290: 52f5 df3c 952c b8bc ef71 9c3d 1fad 003e
000002a0: d803 a5be 5d7a 8d3d 0aff d6bd 672c 203d
000002b0: 2521 6e3e 2acb d83d 5208 f9bb cb41 6f3d
000002c0: d51f c5bb eccb c0bc 130b 773e bb80 5abc
000002d0: e65d 7bbe 5501 d33d 7636 58bd 06b8 c8ba
000002e0: df1f 2abe f8ca c8bd 2849 4bbd 95c5 63be
000002f0: 96f1 473e 28fa f63d ad48 523e ae7f efbd
00000300: b14e b13d 26a6 4cbc c5b8 ab3d e4bd 893d
00000310: 0bc1 663d 9f41 e53d 87e4 a23d a773 ccbd
00000320: 65fe a0be 55c4 0d3e a829 0cbe cd46 dabd
00000330: 2262 6b3d 9bf7 12be 56ea 103e e15b 86bc
00000340: 7814 9d3d f5c6 7fbe 5abb 363e ddcc 923d
00000350: 208c 37be 305d a13e 8996 2bbe 62c8 e8bd
00000360: f944 1fbd c455 4fbb a7ba a6bc 115f 673e
00000370: 6468 183d 5c3a 483e f9e1 40be 4fd7 4ebe
00000380: 19e5 d9ba ee56 a5be 2211 3bbc 42ae 383e
00000390: 60ba c23d 12e5 4d3e a15a 37be 3d08 9c3d
000003a0: d026 debc 9a3c 263e f767 3bbe 090d 25bd
000003b0: f562 4b3d bc02 993c 1caa 39be b52f 30be
000003c0: a7e0 6cbd a6b5 0e3e dfa5 7a3e 38fb d5bd
000003d0: d25e e7bd 1afe 423c 5268 2bbe fd0e 0dbe
000003e0: 14f5 53be 4e40 273d 288f b9bd eac9 403e
000003f0: 7d94 923d 5c14 66be 3102 2dbe 1cdc 39be

cnn1.3.bias f4 [16]
0.19361733 -0.1313648 -0.007498999 0.019681698 -0.20234376 -0.003497607 -0.23459615 0.23670577
-0.09596654 0.30474418 -0.20460081 -0.16792047 0.01606797 0.11239456 0.1308729 -0.03523389
00000000: 9f43 463e 7e84 06be 2aba f5bb 833b a13c
00000010: 3433 4fbe 1c38 65bb f939 70be ff62 723e
00000020: 1b8a c4bd 6e07 9c3e e082 51be 58f3 2bbe
00000030: faa0 833c 1e2f e63d 8c03 063e 6951 10bd

cnn1.4.weight f4 [16]
1.7984449 1.3057222 1.0541223 1.3976309 1.4108231 1.3530319 1.2720772 1.7293224
1.7359359 1.5811429 1.5448803 1.3887073 1.3962009 1.4752234 1.3263574 1.3758644
00000000: 7133 e63f e821 a73f 7bed 863f 92e5 b23f
00000010: da95 b43f 2630 ad3f 6dd3 a23f 705a dd3f
00000020: 2633 de3f e462 ca3f a3be c53f 29c1 b13f
00000030: b6b6 b23f 1fd4 bc3f 14c6 a93f 531c b03f

cnn1.4.bias f4 [16]
0.85817766 0.38423404 0.013580806 0.3474036 0.30808225 0.45158708 0.3787787 0.61162233
0.6463038 -0.2473765 0.32546228 0.3924221 0.32968757 0.5658094 0.39337355 0.44452134
00000000: 88b1 5b3f 53ba c43e 0782 5e3c e2de b13e
00000010: f5bc 9d3e 6c36 e73e 48ef c13e 4893 1c3f
00000020: 2a74 253f 4450 7dbe fea2 a63e 8deb c83e
00000030: cfcc a83e e3d8 103f 4268 c93e 4d98 e33e

cnn1.4.running_mean f4 [16]
0.21700956 -0.09853857 0.23880482 0.22158414 -0.086178616 -0.17139855 -0.29078788 0.19081143
-0.037966706 0.38242525 0.016501091 -0.12743552 0.098703966 0.14210284 0.1363271 -0.117770955
00000000: c137 5e3e 97ce c9bd 4089 743e f4e6 623e
00000010: 6a7e b0bd 1a83 2fbe 26e2 94be 1264 433e
00000020: fa82 1bbd 3ecd c33e 4c2d 873c 757e 02be
00000030: 4e25 ca3d 6883 113e 5599 0b3e e631 f1bd

cnn1.4.running_var f4 [16]
0.008551973 0.095808335 0.19680832 0.020911112 0.01763906 0.06230703 0.029274164 0.004495983
0.013742813 0.006058747 0.012801781 0.011912751 0.008332386 0.022643294 0.026185697 0.032662068
00000000: 931d 0c3c 2937 c43d 1f88 493e c84d ab3c
00000010: ca7f 903c a835 7f3d 5fd0 ef3c 0a53 933b
00000020: 8929 613c 7488 c63b 90be 513c b32d 433c
00000030: 8f84 083c 6e7e b93c 6383 d63c a9c8 053d

cnn2.0.weight f4 [16, 3, 3, 3]
0.10482999 0.014274227 -0.04835984 -0.13554467 0.007540065 0.0716609 -0.086748935 -0.19805835
0.1670473 -0.03713818 -0.21455291 -0.14595872 0.01417395 0.059199423 -0.08899825 0.12973721
0.12273294 0.07552347 0.15573138 0.01782465 0.15458763 -0.1281044 -0.1868996 -0.10865677
-0.056100663 -0.112854466 0.07100876 0.015224994 -0.1822254 0.07933934 -0.15115406 -0.14101635
0.054292213 0.020405015 0.16974005 -0.04685783 -0.14432399 -0.030378677 0.087999634 0.18168926
0.122622155 0.11975437 -0.15400092 -0.016807877 -0.0019237632 0.1539832 -0.08205774 0.091587365
0.22494791 0.23776992 0.120071135 -0.06083897 0.053249843 0.042154644 0.07889876 0.021700496
0.15507346 -0.016129341 -0.07462795 -0.025223628 0.10489743 -0.12612595 0.036758833 -0.19258516
0.17237264 -0.2853765 -0.2514978 0.17692956 -0.02419753 -0.22247499 0.13460834 -0.11417386
0.05953934 0.12405027 -0.08996296 -0.19382074 0.06545673 0.06824722 -0.2035266 -0.060219042
0.016455948 0.07824112 -0.09334923 -0.009343471 0.16864592 -0.11019129 -0.0071890173 0.112269714
-0.16324496 0.13324004 0.06409469 -0.19280206 0.05910262 -0.092187904 -0.022050207 0.019672807
-0.15173033 -0.09060583 -0.14951882 0.0759232 -0.079853915 0.20080382 0.048142336 -0.17267652
-0.19448751 0.20606853 -0.07670199 0.008277876 0.1733733 0.3316344 -0.03681565 0.1558481
-0.05414097 -0.18621759 -0.071749106 -0.0024080814 0.10774159 0.23636103 -0.09255228 -0.034500528
-0.030203257 -0.016189927 0.08095935 0.089629166 -0.025430402 -0.040424686 0.018461498 -0.020505354
0.09895647 0.19137818 -0.10694307 0.014268704 -0.049843643 -0.19385852 -0.19009303 -0.1816085
-0.15207501 -0.07664246 -0.09394366 0.1693943 -0.028968193 0.029847769 0.030731922 0.029324373
0.08250398 -0.075826764 0.0979946 -0.07252344 0.16657801 0.21155606 0.068421535 0.031955846
-0.1495484 0.05444061 0.017629974 0.067923754 -0.03043935 0.23762393 0.082661696 0.13748474
0.22901644 -0.20269522 0.018633435 0.055182 0.0027554154 -0.07488987 -0.087115295 -0.12586902
0.14591807 -0.022542862 -0.04406668 -0.03936958 0.03254925 0.2119894 0.08028978 -0.10508102
0.17310998 -0.05252138 0.073534064 0.18169867 0.08732695 -0.021064343 0.037639476 -0.10469326
-0.00042845076 0.21855392 0.13582951 0.03004097 -0.13438168 0.18548037 -0.15872367 -0.1277112
-0.035569374 0.1293804 -0.118474446 0.1529595 -0.15493052 0.019390777 0.26065803 -0.068894185
-0.0630008 -0.13978839 0.12942365 0.11799769 0.024639564 -0.22538255 -0.053486854 -0.03330508
-0.044792242 -0.081592605 0.16212045 -0.14791416 0.09928423 -0.18128708 -0.05019866 0.15592
0.19535585 -0.08915737 -0.11343309 0.09316964 -0.25071636 -0.06754311 0.12777537 0.010327218
0.14169553 0.014287992 0.024670266 0.11429066 0.11038644 -0.20843422 -0.013631613 -0.038494054
-0.05696741 -0.004731851 0.06898653 0.14731817 -0.15735082 0.11039549 0.13926627 0.12434871
0.23248956 0.11719535 0.10364394 0.18398587 -0.11031485 -0.07081203 -0.024235502 0.23119959
0.15748464 0.037451897 0.19610794 0.20126873 -0.15820527 0.041265406 -0.058976766 -0.08548351
00000000: 1bb1 d63d 73de 693c f814 46bd 39cc 0abe
00000010: a612 f73b f3c2 923d 6da9 b1bd cfcf 4abe
00000020: 730e 2b3e 341e 18bd c2b3 5bbe 3476 15be
00000030: db39 683c 187b 723d b744 b6bd d5d9 043e
00000040: 685b fb3d 0dac 9a3d 0c78 1f3e 0005 923c
00000050: 384c 1e3e cd2d 03be 9c62 3fbe 7187 debd
00000060: cfc9 65bd 3e20 e7bd 0a6d 913d 4172 793c
00000070: 4c99 3abe aa7c a23d 21c8 1abe 9766 10be
00000080: 8361 5e3d 6b28 a73c 56d0 2d3e ffed 3fbd
00000090: abc9 13be b4dc f8bc 2739 b43d c00c 3a3e
000000a0: 5321 fb3d c741 f53d 6bb2 1dbe acb0 89bc
000000b0: c826 fcba c6ad 1d3e e30d a8bd 2892 bb3d
000000c0: bf58 663e f579 733e dbe7 f53d 4932 79bd
000000d0: 821c 5a3d 59aa 2c3d ac95 a13d 3dc5 b13c
000000e0: 94cb 1e3e ae21 84bc 8ad6 98bd c8a1 cebc
000000f0: 77d4 d63d 2927 01be 6e90 163d 0b35 45be
00000100: 7482 303e de1c 92be 52c4 80be 062d 353e
00000110: e639 c6bc 7cd0 63be c5d6 093e fcd3 e9bd
00000120: 86df 733d 110e fe3d 803e b8bd f278 46be
00000130: 2e0e 863d 33c5 8b3d 4769 50be 3ea8 76bd
00000140: a0ce 863c e13c a03d e22d bfbd 5c15 19bc
00000150: 84b1 2c3e f9ab e1bd d991 ebbb aaed e53d
00000160: b029 27be 1470 083e 1444 833d e76d 45be
00000170: 9715 723d 03cd bcbd a3a2 b4bc de28 a13c
00000180: 325f 1bbe 8d8f b9bd 761b 19be 9f7d 9b3d
00000190: 738a a3bd 849f 4d3e e630 453d 1dd2 30be
000001a0: bc27 47be a103 533e ef15 9dbd ee9f 073c
000001b0: c588 313e fccb a93e 02cc 16bd a596 1f3e
000001c0: ecc2 5dbd d3af 3ebe 32f1 92bd e7d0 1dbb
000001d0: 9fa7 dc3d a008 723e 0d8c bdbd 6d50 0dbd
000001e0: d26c f7bc bda0 84bc 04ce a53d 7f8f b73d
000001f0: 6b53 d0bc 5b94 25bd 913c 973c d8fa a7bc
00000200: b1a9 ca3d a4f8 433e f804 dbbd 48c7 693c
00000210: d928 4cbd d982 46be bfa7 42be 94f7 39be
00000220: 8db9 1bbe b9f6 9cbd 8965 c0bd b375 2d3e
00000230: b44e edbc 4f83 f43c 83c1 fb3c ab39 f03c
00000240: d9f7 a83d 104b 9bbd 65b1 c83d 2b87 94bd
00000250: 6d93 2a3e 27a2 583e 9720 8c3d 22e4 023d
00000260: 3723 19be 1efd 5e3d bc6c 903c 9c1b 8b3d
00000270: f25b f9bc b053 733e 894a a93d cdc8 0c3e
00000280: 4983 6a3e 568f 4fbe 25a5 983c 8506 623d
00000290: 3394 343b dc5f 99bd 8169 b2bd cfe3 00be
000002a0: 8c6b 153e cfab b8bc 437f 34bd ff41 21bd
000002b0: 5d52 053d c013 593e f86e a43d b834 d7bd
000002c0: be43 313e a920 57bd 0799 963d 370f 3a3e
000002d0: 79d8 b23d 218f acbc da2b 1a3d 6b69 d6bd
000002e0: b0a1 e0b9 99cc 5f3e e416 0b3e 7b18 f63c
000002f0: 5a9b 09be 91ee 3d3e 7588 22be bac6 02be
00000300: 31b1 11bd 4c7c 043e bba2 f2bd 6aa1 1c3e
00000310: 1ba6 1ebe 68d9 9e3c f874 853e 6518 8dbd
00000320: 9006 81bd b024 0fbe a287 043e c6a8 f13d
00000330: e9d8 c93c afca 66be 0815 5bbd e86a 08bd
00000340: 1278 37bd 061a a7bd e702 263e cf76 17be
00000350: 8855 cb3d 52a3 39be 1c9d 4dbd 7ea9 1f3e
00000360: 5d0b 483e 2498 b6bd 9c4f e8bd b9cf be3d
00000370: e55d 80be 0b54 8abd 8cd7 023e 7e33 293c
00000380: a218 113e 2f18 6a3c 4c19 ca3c 3911 ea3d
00000390: 4912 e23d c86f 55be 2157 5fbc f1ab 1dbd
000003a0: a956 69bd a50d 9bbb cf48 8d3d 93da 163e
000003b0: 9320 21be 0817 e23d d19b 0e3e 89aa fe3d
000003c0: be11 6e3e 1e04 f03d 4643 d43d cb66 3c3e
000003d0: c1ec e1bd e605 91bd 8889 c6bc 96bf 6c3e
000003e0: a743 213e 2967 193d 85d0 483e 6419 4e3e
000003f0: 9000 22be ea05 293d 9f91 71bd fa11 afbd

cnn2.0.bias f4 [16]
0.043714836 -0.09752375 0.10532554 0.15800066 -0.068681166 0.18824883 -0.12440502 0.19152658
-0.054602318 0.011289377 -0.09353233 -0.14694136 -0.16647176 0.039867196 -0.13751219 -0.08150055
00000000: 540e 333d 88ba c7bd ebb4 d73d edca 213e
00000010: b6a8 8cbd 4dc4 403e 0fc8 febd 8b1f 443e
00000020: aea6 5fbd 14f7 383c e18d bfbd cc77 16be
00000030: 9377 2abe c94b 233d ffcf 0cbe c3e9 a6bd

cnn2.1.weight f4 [16]
0.953636 1.1025542 0.95152247 0.9889778 1.135576 1.0553797 1.0458328 0.7942147
1.0131252 1.0871291 0.9599279 1.061534 0.9668926 0.81120956 1.0463705 0.90434617
00000000: 7d21 743f 7f20 8d3f fa96 733f a62d 7d3f
00000010: 8e5a 913f af16 873f d9dd 853f a851 4b3f
00000020: 16ae 813f 0c27 8b3f d6bd 753f 59e0 873f
00000030: 4686 773f 6eab 4f3f 78ef 853f 3b83 673f

cnn2.1.bias f4 [16]
-0.1682731 -0.2080874 -0.046453953 -0.07973415 -0.15886748 -0.02434141 0.06216081 -0.354397
-0.05665663 -0.2869623 -0.04629051 -0.1945237 -0.26764598 -0.24722299 0.103167936 -0.037190415
00000000: c94f 2cbe dd14 55be 8046 3ebd a84b a3bd
00000010: 28ae 22be a367 c7bc 559c 7e3d 8673 b5be
00000020: c810 68bd b9ec 92be 1e9b 3dbd 3931 47be
00000030: e508 89be 0628 7dbe b649 d33d fa54 18bd

cnn2.1.running_mean f4 [16]
-0.2620075 0.501414 -0.41138926 -0.18831661 0.20792915 0.71933293 0.39970982 -0.002207625
0.6244707 0.25712657 -0.56229174 -0.06516641 -0.14646974 -0.20826645 0.24287659 -0.7783868
00000000: d925 86be ab5c 003f 9da1 d2be 12d6 40be
00000010: 61eb 543e 3426 383f c4a6 cc3e cdad 10bb
00000020: 50dd 1f3f 18a6 833e 5af2 0fbf f775 85bd
00000030: 2afc 15be cd43 55be a4b4 783e 5b44 47bf

cnn2.1.running_var f4 [16]
0.004703487 0.018193323 0.016230976 0.007071262 0.011610734 0.014500681 0.014145588 0.0034255807
0.02599883 0.006552172 0.011523577 0.0025721362 0.0038649861 0.0058242097 0.009853251 0.028081058
00000000: b51f 9a3b 2a0a 953c d3f6 843c 0cb6 e73b
00000010: f33a 3e3c 4494 6d3c e5c2 673c b57f 603b
00000020: 80fb d43c 9ab3 d63b 63cd 3c3c 4991 283b
00000030: b54b 7d3b 03d9 be3b 886f 213c 3f0a e63c

cnn2.3.weight f4 [16, 16, 3, 3]
-0.01887174 -0.04633929 -0.037151206 0.06757714 0.048563052 -0.02073897 0.046283342 -0.025404155
-0.03585555 -0.103514485 -0.07153343 -0.07859537 -0.109891765 -0.018221026 0.018883826 -0.09713906
0.098018706 0.08323292 0.056732956 -0.046496786 -0.025712268 0.013656626 -0.04766807 -0.051856533
0.006280554 0.049446184 -0.09669024 -0.041950367 -0.05517669 -0.008117844 0.096514635 0.012670255
-0.029783275 0.022364866 0.017572748 -0.021377567 0.047468845 0.031645853 0.036255274 -0.03184575
0.083626844 -0.003241555 -0.020593707 -0.0061187157 -0.03940609 -0.07278714 -0.0501768 0.048379064
0.06135387 0.05580786 0.1448379 0.029407803 0.034436785 0.037501767 -0.07131319 0.056818828
-0.058885198 -0.04272265 0.031381957 0.026173891 -0.08022258 0.034082383 0.07169445 0.021339657
0.029798834 0.032269385 -0.026561975 -0.07765253 -0.036018815 0.0018224405 0.011728254 0.0383978
-0.07946277 -0.094844975 0.05184167 -0.084086016 -0.04637709 0.0028954651 -0.1041646 -0.029013073
0.037709367 -0.07690045 0.085513294 0.08673002 -0.05727452 0.032255877 0.087704815 -0.040771194
-0.008103058 -0.0008932969 0.05299272 0.10732104 0.009855428 0.060235884 -0.039178904 -0.014019712
-0.023639923 0.020941548 -0.067831926 -0.0065379813 0.020441568 -0.017873911 -0.1318691 -0.06984086
0.05428863 -0.040724486 -0.07060111 0.0056779627 -0.0073888414 0.022893764 0.026396193 -0.04213352
0.11004397 0.0038370914 -0.0062371423 0.071081154 0.016415413 -0.047725864 -0.07322723 0.05146806
-0.012390577 0.08823957 0.120311834 0.02105362 0.08807895 0.046001215 0.112765655 0.025368946
0.033155218 0.064092144 -0.06246571 -0.000875262 0.04537349 0.0018154437 -0.031206625 0.032346517
-0.023506965 -0.07886688 0.022787012 -0.08266854 -0.08538178 0.076103106 0.078670755 0.09222758
-0.10657044 0.022358522 -0.06976837 0.0016221517 -0.07105481 0.11477742 0.0021613734 -0.028534962
0.056145098 -0.0045056622 -0.083823055 -0.11452573 -0.12824719 -0.051465545 0.036222924 -0.022096466
-0.078141086 -0.02024884 -0.043713614 0.09461525 0.096477605 0.05264953 -0.00918231 0.0057101855
0.022343209 0.004958962 0.019298062 0.05135059 0.022323813 0.06727588 0.032251574 0.013767646
0.054968026 -0.12735717 0.018246906 -0.05548801 0.08682593 0.04627689 0.015858764 0.1709431
0.014331629 -0.043801926 0.09256013 -0.08378275 -0.037060868 0.027826687 0.054989163 0.066196
0.041200433 0.04728867 0.043938525 0.017782796 -0.008398844 0.08866767 -0.040898938 0.07356554
0.009133002 -0.098573595 -0.08536681 -0.104518875 0.034746192 -0.081448026 0.0019779718 -0.022406997
0.11045228 -0.016931262 0.027850531 0.02102461 0.030707162 0.06445902 0.008354732 -0.03580392
0.05517 -0.037204504 -0.029716011 -0.10460617 -0.026252916 -0.06833653 0.02100409 -0.025481429
0.044505037 -0.20601368 -0.17566334 -0.061224427 -0.025097184 -0.021389935 -0.04483144 0.06640388
-0.033866342 -0.03516687 -0.03738481 -0.03349607 0.048886567 -0.048277006 -0.0060424563 -0.07735505
-0.10432101 -0.08010096 0.058805075 -0.05080225 0.022686696 0.041915983 -0.15973869 -0.05918715
-0.045861524 0.044021145 -0.036578517 -0.03408065 -0.0030586643 -0.025699375 0.03757779 0.17769822
00000000: e898 9abc 44ce 3dbd dd2b 18bd e265 8a3d
00000010: 0dea 463d c6e4 a9bc 9a93 3d3d 601c d0bc
00000020: 45dd 12bd 67ff d3bd 1e80 92bd 9cf6 a0bd
00000030: ef0e e1bd 4344 95bc 41b2 9a3c d8f0 c6bd
00000040: 08be c83d 0576 aa3d d160 683d 6a73 3ebd
00000050: 89a2 d2bc 0bc0 5f3c 983f 43bd 8467 54bd
00000060: 1bcd cd3b 1588 4a3d 8805 c6bd 26d4 2bbd
00000070: f400 62bd b500 05bc 77a9 c53d e796 4f3c
00000080: 0efc f3bc 8636 b73c b9f4 8f3c 0220 afbc
00000090: b16e 423d 159f 013d 6980 143d b070 02bd
000000a0: 8d44 ab3d 4570 54bb 22b4 a8bc 827f c8bb
000000b0: 4868 21bd 6d11 95bd 3086 4dbd 2029 463d
000000c0: 324e 7b3d c896 643d 6350 143e a2e8 f03c
000000d0: 960d 0d3d 749b 193d a60c 92bd dcba 683d
000000e0: 9b31 71bd f2fd 2ebd 5e8a 003d a16a d63c
000000f0: bc4b a4bd f899 0b3d 8ad4 923d 81d0 ae3c
00000100: af1c f43c e72c 043d 8098 d9bc 4a08 9fbd
00000110: 7788 13bd f5de ee3a dd27 403c 0347 1d3d
00000120: 60bd a2bd 153e c2bd ee57 543d 4a35 acbd
00000130: e7f5 3dbd d8c1 3d3b 4054 d5bd d3ac edbc
00000140: 2375 1a3d fc7d 9dbd 9821 af3d 829f b13d
00000150: b098 6abd bd1e 043d 959e b33d b2ff 26bd
00000160: b0c2 04bc 242c 6aba e50e 593d 22cb db3d
00000170: a978 213c e7b9 763d 0f7a 20bd efb2 65bc
00000180: 83a8 c1bc 9c8d ab3c 77eb 8abd 903c d6bb
00000190: 1375 a73c 4f6c 92bc b108 07be ba08 8fbd
000001a0: c15d 5e3d b8ce 26bd 5197 90bd 340e ba3b
000001b0: 181e f2bb b48b bb3c d43c d83c 3394 2cbd
000001c0: bc5e e13d b677 7b3b f160 ccbb ff92 913d
000001d0: 9e79 863c 327c 43bd 28f8 95bd 2cd0 523d
000001e0: d901 4bbc f3b6 b43d 0d66 f63d a478 ac3c
000001f0: bd62 b43d c56b 3c3d aef1 e63d 89d2 cf3c
00000200: c4cd 073d be42 833d 0bdc 7fbd d771 65ba
00000210: 8dd9 393d 2ff4 ed3a 09a5 ffbc c87d 043d
00000220: ae91 c0bc f584 a1bd d4ab ba3c 204e a9bd
00000230: a5dc aebd f2db 9b3d 221e a13d d0e1 bc3d
00000240: 9a41 dabd 3829 b73c b8e2 8ebd 619e d43a
00000250: 2f85 91bd 6d10 eb3d d4a5 0d3b 27c2 e9bc
00000260: 67f8 653d 3ca4 93bb 6cab abbd 778c eabd
00000270: 3b53 03be 89cd 52bd 7d5e 143d a603 b5bc
00000280: 6f08 a0bd e5e0 a5bc 0c0d 33bd a4c5 c13d
00000290: 0d96 c53d 09a7 573d 6671 16bc 821c bb3b
000002a0: 1b09 b73c ca7e a23b f816 9e3c ff54 523d
000002b0: 6ee0 b63c f0c7 893d 3a1a 043d b191 613c
000002c0: 2726 613d eb69 02be 897a 953c 6547 63bd
000002d0: cbd1 b13d d68c 3d3d 3dea 813c b50b 2f3e
000002e0: 35cf 6a3c a669 33bd 2a90 bd3d 4a96 abbd
000002f0: 23cd 17bd cbf4 e33c 513c 613d c591 873d
00000300: c9c1 283d c4b1 413d e2f8 333d 3aad 913c
00000310: 4e9b 09bc 6597 b53d a585 27bd 88a9 963d
00000320: 96a2 153c f4e0 c9bd cbd4 aebd fe0d d6bd
00000330: 0652 0e3d 39ce a6bd dca0 013b e18e b7bc
00000340: ce34 e23d 6eb3 8abc cc26 e43c ce3b ac3c
00000350: 968d fb3c 1703 843d 49e2 083c 22a7 12bd
00000360: f0f9 613d c063 18bd fe6e f3bc c23b d6bd
00000370: 5b10 d7bc 06f4 8bbd c510 ac3c 6ebe d0bc
00000380: ea4a 363d 40f5 52be 17e1 33be 77c6 7abd
00000390: 9c98 cdbc f239 afbc 2ca1 37bd c2fe 873d
000003a0: 6fb7 0abd 230b 10bd d120 19bd 2d33 09bd
000003b0: 483d 483d 1cbe 45bd ccff c5bb 536c 9ebd
000003c0: 41a6 d5bd f90b a4bd 97dd 703d 0516 50bd
000003d0: 73d9 b93c 18b0 2b3d 8a92 23be 3a6e 72bd
000003e0: 4bd9 3bbd 844f 343d 5bd3 15bd 2798 0bbd
000003f0: df73 48bb 7f87 d2bc 2beb 193d 86f6 353e

cnn2.3.bias f4 [16]
0.07591843 0.0023827476 0.05833883 0.027059866 -0.019122746 -0.06393621 -0.03765704 -0.07186817
0.05868849 0.059808176 0.077479035 -0.036112636 -0.007600393 -0.015081497 0.046795897 -0.081179805
00000000: 1f7b 9b3d df27 1c3b b2f4 6e3d a7ac dd3c
00000010: 4ea7 9cbc fdf0 82bd 453e 1abd 9e2f 93bd
00000020: 5863 703d 6bf9 743d 54ad 9e3d d8ea 13bd
00000030: b80c f9bb 6218 77bc 0ead 3f3d 9941 a6bd

cnn2.4.weight f4 [16]
1.1806855 1.3908347 1.6286044 1.2388781 1.3826382 1.6290152 1.6211448 2.7538388
1.7269872 1.7803748 1.2064216 1.5555077 1.4583873 1.3042374 1.8715823 1.0754367
00000000: b420 973f df06 b23f 1c76 d03f 8f93 9e3f
00000010: 4afa b03f 9283 d03f ac81 cf3f e53e 3040
00000020: eb0d dd3f 52e3 e33f 066c 9a3f e01a c73f
00000030: 6fac ba3f 40f1 a63f 0290 ef3f e9a7 893f

cnn2.4.bias f4 [16]
0.019651532 -0.024733279 0.43102995 0.0035268313 -0.039678942 -0.08019209 0.29105678 1.0371203
-0.15963775 -0.111493826 0.02311447 0.12616077 0.15381205 -0.011348246 -0.22413512 0.026808267
00000000: 40fc a03c 729d cabc f5af dc3e 6922 673b
00000010: 6386 22bd c03b a4bd 6505 953e 5cc0 843f
00000020: 1478 23be e056 e4bd 8f5a bd3c 4a30 013e
00000030: e880 1d3e feed 39bc ad83 65be 039d db3c

cnn2.4.running_mean f4 [16]
0.11394039 -0.03489551 0.009727717 -0.03994271 -0.035858903 -0.010076986 0.13912167 0.0817121
0.115424216 0.106846996 0.054871876 0.13334022 -0.21014498 -0.040857006 0.09603032 0.0050607864
00000000: 9459 e93d 98ee 0ebd 0161 1f3c f89a 23bd
00000010: c9e0 12bd f119 25bc e975 0e3e ac58 a73d
00000020: 8863 ec3d 99d2 da3d 55c1 603d 578a 083e
00000030: 3f30 57be ad59 27bd 8bab c43d f4d4 a53b

cnn2.4.running_var f4 [16]
0.035661094 0.08958461 0.03202579 0.056725822 0.023165325 0.030548427 0.023295745 0.04540715
0.050824888 0.026229227 0.09967524 0.021570947 0.06760914 0.07822477 0.019949717 0.51132894
00000000: 5e11 123d 2378 b73d 7a2d 033d 5659 683d
00000010: 35c5 bd3c b240 fa3c b8d6 be3c d9fc 393d
00000020: c22d 503d adde d63c 8822 cc3d 8eb5 b03c
00000030: a976 8a3d 4f34 a03d 976d a33c 74e6 023f

cnn3.0.weight f4 [16, 3, 7, 7]
0.047463555 0.026791036 0.056750976 0.08064767 0.078564346 0.07289954 -0.03849759 0.09861795
-0.0050499286 0.118520856 0.007758492 -0.03708107 -0.016304906 -0.04228117 0.090963 0.043695893
-0.04963538 0.06540056 0.115841374 0.030972084 -0.021536028 0.056626603 0.028361134 0.076716125
0.03801435 0.150167 0.01519826 -0.022819428 -0.068091094 -0.0054903263 0.10978775 0.122774124
0.074527524 -0.064458095 0.028173229 0.088028796 -0.015329569 -0.0050467723 0.13083702 -0.0012215369
-0.0016120885 0.09443712 0.056069575 -0.043516934 0.09329491 0.10130455 0.02979551 0.0497043
0.0601275 -0.020657875 0.05333172 -0.014929044 -0.013618135 -0.060037598 -0.01215397 -0.045109656
-0.04017341 -0.057626836 0.0038996725 -0.11820605 -0.16597404 -0.050807536 -0.18889439 -0.02565199
-0.036856014 -0.14002402 -0.12334866 -0.009278553 -0.12739894 -0.076570615 -0.07167315 -0.07675032
0.03528461 0.06529457 0.07165335 -0.07791462 -0.13283233 -0.11555301 -0.009125445 -0.07925703
0.027252313 0.015912551 -0.19301057 -0.08486615 -0.015272047 -0.09796007 0.033679225 -0.038940225
-0.122505456 -0.11806019 -0.000103920676 -0.045986842 0.009075754 -0.0789906 -0.10287057 -0.10008088
-0.025871357 -0.01557417 0.025059965 0.070755325 0.027816052 0.03797515 -0.056534164 -0.09141461
0.022230806 0.022769554 -0.023206394 0.04501257 0.017035158 -0.06943927 -0.020827735 -0.09487901
-0.044256426 -0.07368074 0.015176749 -0.08207788 0.0067567723 -0.09966424 -0.105137385 0.054384768
0.08095638 0.033717755 0.042318102 0.037539262 -0.028676959 0.038851302 0.060734496 0.014924351
0.08617932 0.11273524 0.02422423 -0.12239505 0.034769185 0.053454187 0.0022338016 -0.030336037
0.04534816 0.07194253 -0.03315677 0.046283204 0.061634302 -0.03812483 -0.045419242 0.07584008
0.0072534387 -0.034190096 0.053914733 0.061611336 -0.0805894 0.0082447715 -0.09583946 -0.0116362
0.047836494 -0.13167502 0.028365837 -0.037455518 -0.09993173 -0.11424169 -0.09779887 0.07189543
-0.09422406 0.10640041 0.08322207 -0.0433985 -0.049088627 -0.063072786 -0.0006721173 -0.07882593
0.0012204963 0.06116462 0.054743685 0.07881778 -0.04232672 0.024247589 0.015454938 -0.02323301
0.02575758 0.032796048 -0.0014027136 -0.0010789322 0.046853937 0.022508323 -0.014344978 -0.07942676
-0.09189524 0.007464825 -0.09969003 -0.028397374 0.0003577761 -0.055123005 -0.1043978 -0.07426675
0.0018217756 0.07090096 0.05803214 0.08855482 0.048723474 0.02605445 -0.033499476 0.044603653
-0.008446846 0.08329739 -0.053548984 -0.013150472 -0.011670706 0.044527147 0.018898595 -0.03696871
0.08603186 -0.057602417 0.00976983 0.0804722 -0.0073300595 0.0748967 -0.048469324 0.09629821
0.057351157 0.08444264 0.043365475 0.058769096 0.034638964 -0.009364122 0.092088 -0.009719291
0.031247884 5.381261e-06 0.124117255 0.080746405 0.11831684 0.1053915 0.03690029 -0.13041683
-0.04903208 -0.066717304 -0.07220649 -0.108660996 -0.040321782 0.023721052 -0.12758839 -0.03748818
0.041029222 -0.021973807 0.040515993 0.021298932 0.16978432 -0.028930627 -0.013601754 -0.0077464953
0.075060695 -0.01866061 0.09566529 -0.024837721 0.057875145 0.06306781 0.029733548 -0.036671273
00000000: 2569 423d e078 db3c b673 683d 9b2a a53d
00000010: 58e6 a03d 5b4c 953d a6af 1dbd 35f8 c93d
00000020: df79 a5bb 10bb f23d f33a fe3b 52e2 17bd
00000030: de91 85bc 052f 2dbd cf4a ba3d 77fa 323d
00000040: 784e 4bbd bbf0 853d 3e3e ed3d 2bb9 fd3c
00000050: 536c b0bc 4cf1 673d 9c55 e83c 581d 9d3d
00000060: efb4 1b3d 61c5 193e 1f02 793c cfef babc
00000070: 5873 8bbd 32e8 b3bb 66d8 e03d 0071 fb3d
00000080: e3a1 983d 9b02 84bd 8bcb e63c 7148 b43d
00000090: df28 7bbc 655f a5bb 24fa 053e fa1b a0ba
000000a0: b74c d3ba 4068 c13d 36a9 653d d03e 32bd
000000b0: 6711 bf3d c378 cf3d b715 f43c bc96 4b3d
000000c0: 4148 763d b43a a9bc 5d72 5a3d f398 74bc
000000d0: 991e 5fbc fce9 75bd 7221 47bc e7c4 38bd
000000e0: e08c 24bd 1e0a 6cbd a691 7f3b 0316 f2bd
000000f0: 19f5 29be 901b 50bd 886d 41be 1f24 d2bc
00000100: 55f6 16bd 7562 0fbe 399e fcbd 1205 18bc
00000110: de74 02be 0ed1 9cbd 5fc9 92bd 462f 9dbd
00000120: 9886 103d 29b9 853d febe 923d b391 9fbd
00000130: 3305 08be 0ea7 ecbd e482 15bc 8251 a2bd
00000140: 3e40 df3c 0a5b 823c 90a4 45be 4ece adbd
00000150: 9c37 7abc 4a9f c8bd 3af3 093d c97f 1fbd
00000160: 24e4 fabd 8ac9 f1bd fdef d9b8 b35c 3cbd
00000170: 79b2 143c d3c5 a1bd cead d2bd 34f7 ccbd
00000180: 2bf0 d3bc ce2a 7fbc 8e4a cd3c 2be8 903d
00000190: 7dde e33c d58b 1b3d 5e90 67bd 9537 bbbd
000001a0: 611d b63c 3787 ba3c 561b bebc 1a5f 383d
000001b0: 518d 8b3c 2d36 8ebd ed9e aabc ed4f c2bd
000001c0: 3a46 35bd eee5 96bd e6a7 783c 7318 a8bd
000001d0: ea67 dd3b c41c ccbd 4552 d7bd 90c2 5e3d
000001e0: 75cc a53d a11b 0a3d bf55 2d3d c5c2 193d
000001f0: f1eb eabc 8b22 1f3d bcc4 783d 4485 743c
00000200: c97e b03d bce1 e63d e471 c63c 42aa fabd
00000210: 226a 0e3d c7f2 5a3d f964 123b 4883 f8bc
00000220: febe 393d 9b56 933d 65cf 07bd 7593 3d3d
00000230: 4074 7c3d c828 1cbd 8709 3abd 0b52 9b3d
00000240: 41ae ed3b ea0a 0cbd b2d5 5c3d 2b5c 7c3d
00000250: 0e0c a5bd 1415 073c 7b47 c4bd c3a5 3ebc
00000260: 33f0 433d d1d5 06be 795f e83c f56a 19bd
00000270: 02a9 ccbd 8cf7 e9bd c64a c8bd e93d 933d
00000280: 8bf8 c0bd 75e8 d93d 5570 aa3d a0c2 31bd
00000290: 2811 49bd 4e2c 81bd 0731 30ba 7d6f a1bd
000002a0: 0ff9 9f3a c187 7a3d ea3a 603d 376b a13d
000002b0: c85e 2dbd e1a2 c63c b536 7d3c 2753 bebc
000002c0: 8f01 d33c 2655 063d 42db b7ba f56a 8dba
000002d0: eae9 3f3d 6063 b83c 3307 6bbc 7faa a2bd
000002e0: 9233 bcbd 7e9b f43b 492a ccbd 9ca1 e8bc
000002f0: e593 bb39 a9c8 61bd 84ce d5bd 2a19 98bd
00000300: a5c8 ee3a 8634 913d 1cb3 6d3d 3b5c b53d
00000310: 4492 473d 2470 d53c bf36 09bd 52b2 363d
00000320: a464 0abc d297 aa3d 2e56 5bbd 1475 57bc
00000330: 7d36 3fbc 1962 363d 3ad1 9a3c 816c 17bd
00000340: 7931 b03d 83f0 6bbd a311 203c 9cce a43d
00000350: ff30 f0bb 7163 993d c587 46bd ff37 c53d
00000360: 0ce9 6a3d 43f0 ac3d ff9f 313d ddb7 703d
00000370: 96e1 0d3d f96b 19bc a298 bc3d a93d 1fbc
00000380: 90fb ff3c ae90 b436 3031 fe3d 5f5e a53d
00000390: 1950 f23d 80d7 d73d c224 173d fd8b 05be
000003a0: ddd5 48bd 15a3 88bd ffe0 93bd a889 debd
000003b0: 7428 25bd a752 c23c 88a6 02be 358d 19bd
000003c0: 420e 283d 6a02 b4bc 19f4 253d 197b ae3c
000003d0: f1db 2d3e ecff ecbc e4d9 5ebc 50d6 fdbb
000003e0: 6cb9 993d 23de 98bc 2aec c33d 7a78 cbbc
000003f0: 7d0e 6d3d b229 813d c593 f33c 9e34 16bd

cnn3.0.bias f4 [16]
-0.018020513 0.025793863 -0.080807485 -0.07927637 -0.023902247 0.03320766 -0.049579456 0.05849704
-0.024497423 -0.012497004 0.08029806 0.03654127 0.06330816 0.07003132 -0.010126905 0.058561586
00000000: c19f 93bc a74d d33c 657e a5bd a65b a2bd
00000010: a5ce c3bc c104 083d d413 4bbd 989a 6f3d
00000020: d2ae c8bc 3cc0 4cbc 4f73 a43d 4cac 153d
00000030: b5a7 813d 956c 8f3d 51eb 25bc 46de 6f3d

cnn3.1.weight f4 [16]
0.88852406 1.0364224 1.019236 1.006354 1.0315664 1.0326209 1.0659313 1.0073649
0.9947265 0.91479343 1.035621 0.982146 0.9885385 0.96365994 0.980801 0.9268222
00000000: 5076 633f 7da9 843f 5376 823f 35d0 803f
00000010: 5e0a 843f ec2c 843f 7070 883f 55f1 803f
00000020: 65a6 7e3f e72f 6a3f 3b8f 843f ec6d 7b3f
00000030: dc10 7d3f 6bb2 763f c615 7b3f 3844 6d3f

cnn3.1.bias f4 [16]
-0.13781965 -0.24835601 -0.15242945 -0.2697927 0.026310679 0.032641914 -0.15671952 -0.10435098
-0.041891586 0.17303675 -0.019683708 0.06499084 0.034663305 -0.0019257339 -0.21889551 -0.082004786
00000000: 9820 0dbe 0a51 7ebe 7716 1cbe 4522 8abe
00000010: 7e89 d73c 87b3 053d 157b 20be f7b5 d5bd
00000020: 8396 2bbd 8c30 313e ba3f a1bc eb19 853d
00000030: 1cfb 0d3d e868 fcba 2526 60be 20f2 a7bd

cnn3.1.running_mean f4 [16]
-0.36369735 0.96502787 1.2586648 0.17259423 0.9476004 0.6837122 0.68037534 1.4100901
1.0099394 1.9401548 0.33004254 0.88923496 0.6543711 0.2037119 0.1639754 -0.11402099
00000000: 8a36 babe 110c 773f ee1b a13f 8bbc 303e
00000010: f195 723f c307 2f3f 142d 2e3f d57d b43f
00000020: b245 813f fe56 f83f 56fb a83e e7a4 633f
00000030: dd84 273f da99 503e 2be9 273e d683 e9bd

cnn3.1.running_var f4 [16]
0.041433316 0.06683614 0.089198336 0.028042998 0.07237796 0.042298507 0.040606763 0.08074188
0.0651999 0.28481007 0.02161467 0.066670045 0.043553736 0.018995473 0.025635747 0.024272727
00000000: fbb5 293d 63e1 883d 9ead b63d 6eba e53c
00000010: e53a 943d 3341 2d3d 4753 263d 005c a53d
00000020: 8687 853d a0d2 913e 4011 b13c 4e8a 883d
00000030: 6765 323d 659c 9b3c 0f02 d23c 99d7 c63c

cnn3.3.weight f4 [16, 16, 7, 7]
-0.042228404 -0.03210988 -0.00047929634 0.00720625 0.025729422 0.024902567 0.006080473 0.020658148
-0.031101204 0.023488265 0.0037749438 -0.021538652 -0.0061180345 0.0024319314 0.05871087 0.048986737
0.0025439253 -0.013973823 -0.0021699003 -0.04861773 -0.01886817 0.077326894 0.029751599 0.008797158
0.012385157 0.014400911 0.042566232 0.011861553 0.039397545 0.043277863 0.007883152 -0.0041092425
0.022008004 0.034321256 0.00836259 0.044139516 0.014222235 0.07706696 0.00652521 0.028341884
0.0015210902 0.044599086 0.014543134 0.0023683088 0.07702725 0.02586714 0.06559916 0.016472576
0.0125675965 0.030714452 0.056185875 -0.0030070352 -0.009911651 0.0013011778 0.013822421 0.028653761
-0.039290253 -0.045526292 -0.064620234 -0.019799775 -0.06320014 -0.0069930404 -0.023134273 0.0133661395
-0.021124942 0.011087132 -0.001443626 -0.0033121277 -0.040201616 -0.038091004 -0.0687249 -0.06559403
0.011606616 0.016794868 0.028148657 -0.004528411 0.05183241 -0.032214344 -0.021233724 -0.028133992
0.008489855 0.03187742 -0.0145646 -0.014640002 -0.009506749 0.010091952 0.020825062 0.004500867
-0.015285329 -0.014639506 0.0090997815 0.016046438 0.033989165 -0.004683454 -0.006537841 0.012121382
-0.044238713 0.015299692 -0.052305933 -0.04290386 -0.009511241 -0.027230995 -0.026315987 -0.03215183
-0.080817714 -0.044260856 -0.019808033 -0.06631985 -0.026410937 -0.0114249615 -0.033437066 -0.020809252
-0.059643276 -0.056976292 -0.083541825 -0.022177892 0.04143144 -0.01863173 -0.005435652 -0.041040767
-0.062199704 -0.03908226 0.084312215 -0.0060661435 -0.005107725 -0.030798083 -0.10930386 -0.012251589
0.09257242 0.070717745 0.03376201 -0.034748044 -0.06388921 -0.015595278 0.0006396029 0.06267155
-0.013488183 -0.0047656316 -0.027294511 -0.01842955 -0.060801513 -0.04478642 -0.012311452 -0.061410293
-0.017018069 -0.037929103 -0.08008944 0.007580745 0.011402874 0.0033168823 -0.0028334854 -0.018662702
0.017527765 0.011280661 -0.018141093 -0.05269363 -0.06164805 -0.04756411 -0.013232505 -0.0035883407
0.0035523658 -0.010971314 -0.058710765 -0.06662967 -0.090463184 -0.050372705 0.030169697 0.026469277
-0.007009125 -0.022301776 -0.089850485 -0.03856231 0.007723497 0.010850504 0.012823221 -0.030389339
-0.04213887 -0.0205354 -0.030717084 0.019451007 0.043542158 0.0024136815 -0.018651117 -0.008615581
0.010798736 0.025885351 -0.010710278 -0.081515856 0.0010558628 0.05365392 0.08338141 0.0073796185
-0.010642268 -0.011044088 0.011555618 0.058455158 0.03497413 0.0060059675 -0.019994907 -0.002952172
0.019061126 0.10596998 0.08873601 -0.0013350247 -0.028614433 -0.04969779 0.0085804835 0.07390641
0.028369848 0.071061976 0.0019292244 -0.06324243 -0.039112095 0.025296895 0.04710705 0.02422732
0.034432568 0.0025543838 -0.07460776 -0.03237357 0.05690811 0.061598893 0.0050283303 0.0459045
0.0050333445 -0.0018634142 0.07030989 0.072812706 0.018742852 0.05910618 0.014074279 0.08800952
0.06072062 0.009863253 -0.0038064143 0.010044702 0.039994575 0.054422136 0.026826922 0.008205384
0.03245709 -0.008414587 0.015298665 0.008240808 0.0030685656 -0.012671955 -0.013530701 0.040630363
0.010841317 0.0035456205 -0.018615004 0.0424437 0.06014096 0.046069052 0.015674992 -0.016870402
00000000: b1f7 2cbd a685 03bd 114a fbb9 6822 ec3b
00000010: 82c6 d23c 7800 cc3c b43e c73b 473b a93c
00000020: f4c7 febc 766a c03c 0c65 773b d471 b0bc
00000030: cb79 c8bb 0a61 1f3b cf7a 703d 51a6 483d
00000040: fcb7 263b 76f2 64bc e334 0ebb 6323 47bd
00000050: 6c91 9abc 905d 9e3d a0b9 f33c f421 103c
00000060: 1deb 4a3c ccf1 6b3c ee59 2e3d f656 423c
00000070: 525f 213d 2144 313d 5628 013c d3a6 86bb
00000080: 214a b43c 7294 0c3d 3f03 093c a3cb 343d
00000090: 6104 693c 48d5 9d3d 6ed1 d53b 3d2d e83c
000000a0: 515f c73a 88ad 363d 5346 6e3c a135 1b3b
000000b0: 76c0 9d3d 53e7 d33c da58 863d 7ff1 863c
000000c0: 52e8 4d3c e09c fb3c 2923 663d ae11 45bb
000000d0: 7a64 22bc 488c aa3a 7077 623c 4bbb ea3c
000000e0: d1ee 20bd c779 3abd 9d57 84bd 2333 a2bc
000000f0: 136f 81bd e025 e5bb 1684 bdbc a7fd 5a3c
00000100: 370e adbc cda6 353c 0d38 bdba 4810 59bb
00000110: 73aa 24bd 5005 1cbd a4bf 8cbd 2a56 86bd
00000120: ad29 3e3c 6495 893c 0398 e63c 1163 94bb
00000130: 394e 543d 30f3 03bd 59f2 adbc 4279 e6bc
00000140: 0819 0b3c e691 023d 5ca0 6ebc 9edc 6fbc
00000150: 32c2 1bbc b758 253c 5299 aa3c 027c 933b
00000160: 516f 7abc 8ada 6fbc 4017 153c d273 833c
00000170: 3938 0b3d a977 99bb 633b d6bb c398 463c
00000180: a733 35bd 8fab 7a3c bf3e 56bd f5bb 2fbd
00000190: 09d5 1bbc 8913 dfbc a094 d7bc a3b1 03bd
000001a0: c283 a5bd df4a 35bd 7544 a2bc b4d2 87bd
000001b0: c05b d8bc c32f 3bbc 4ef5 08bd 2a78 aabc
000001c0: 824c 74bd f95f 69bd fa17 abbd 69ae b5bc
000001d0: 03b4 293d 92a1 98bc 8e1d b2bb 5d1a 28bd
000001e0: 1ec5 7ebd b814 20bd e2ab ac3d 80c6 c6bb
000001f0: b45e a7bb 434c fcbc b4da dfbd e4ba 48bc
00000200: 9c96 bd3d 77d4 903d 094a 0a3d f753 0ebd
00000210: 59d8 82bd 5683 7fbc 06ab 273a f159 803d
00000220: 8afd 5cbc 0429 9cbb bd98 dfbc 91f9 96bc
00000230: 020b 79bd f771 37bd f9b5 49bc 5c89 7bbd
00000240: 7a69 8bbc 8c5b 1bbd ef05 a4bd e667 f83b
00000250: 1fd3 3a3c 0d60 593b ffb1 39bb 86e2 98bc
00000260: 6396 8f3c 86d2 383c a19c 94bc 47d5 57bd
00000270: aa82 7cbd 96d2 42bd 26cd 58bc 5e2a 6bbb
00000280: cfce 683b 07c1 33bc b37a 70bd 2375 88bd
00000290: c344 b9bd 9c53 4ebd 7126 f73c 19d6 d83c
000002a0: cdac e5bb 37b2 b6bc 8803 b8bd 83f3 1dbd
000002b0: 6415 fd3b 50c6 313c 7d18 523c 10f3 f8bc
000002c0: cf99 2cbd db39 a8bc 65a2 fbbc b857 9f3c
000002d0: 4359 323d db2e 1e3b 3aca 98bc 5e28 0dbc
000002e0: 2eed 303c 840d d43c 297a 2fbc c9f1 a6bd
000002f0: e064 8a3a 36c4 5b3d dfc3 aa3d bad0 f13b
00000300: e85c 2ebc 43f2 34bc c653 3d3c ad6e 6f3d
00000310: 0941 0f3d b5cd c43b 5ccc a3bc 3a79 41bb
00000320: 1426 9c3c ca06 d93d 3abb b53d fffb aeba
00000330: d168 eabc e98f 4bbd 2895 0c3c 3e5c 973d
00000340: e267 e83c f188 913d 07de fc3a 3f85 81bd
00000350: 0134 20bd 6f3b cf3c 52f3 403d 5f78 c63c
00000360: 2a09 0d3d 7367 273b f4cb 98bd 269a 04bd
00000370: 7a18 693d 1f4f 7c3d b1c4 a43b 5b06 3c3d
00000380: c1ee a43b ce3d f4ba a2fe 8f3d d41e 953d
00000390: 9c8a 993c 5219 723d ce97 663c 563e b43d
000003a0: 2fb6 783d 7b99 213c 0975 79bb 8992 243c
000003b0: 5ad1 233d bfe9 5e3d 22c4 db3c e06f 063c
000003c0: baf1 043d 56dd 09bc 40a7 7a3c 7404 073c
000003d0: fd19 493b 089e 4fbc e0af 5dbc 066c 263d
000003e0: c79f 313c a45d 683b 7e7e 98bc 72d9 2d3d
000003f0: 5e56 763d e7b2 3c3d d768 803c cc33 8abc

cnn3.3.bias f4 [16]
0.0023985317 -0.008796629 0.021089021 -0.007684249 -0.0326361 0.017915545 0.010696994 -0.033097066
-0.021874093 -0.0047889133 -0.024464093 0.010987949 -0.02298003 -0.0036286453 -0.0021984195 0.031057548
00000000: af30 1d3b bc1f 10bc e2c2 ac3c 27cc fbbb
00000010: 6ead 05bd 9fc3 923c 7242 2f3c ca90 07bd
00000020: 4c31 b3bc 51ec 9cbb ec68 c8bc cc06 343c
00000030: 9e40 bcbc 91ce 6dbb 5c13 10bb 666c fe3c

cnn3.4.weight f4 [16]
1.3102056 2.3969865 1.4812516 2.2872176 2.3649035 1.6733689 1.6291347 1.6526738
1.3873031 1.539239 1.8549407 1.4572155 1.5533223 1.5818169 1.8176918 1.2651824
00000000: d1b4 a73f 3a68 1940 a799 bd3f c661 1240
00000010: 945a 1740 f430 d63f 7c87 d03f d18a d33f
00000020: 2693 b13f c905 c53f b26e ed3f 0a86 ba3f
00000030: 44d3 c63f fa78 ca3f 20aa e83f 7ff1 a13f

cnn3.4.bias f4 [16]
-0.050874934 1.1481512 0.231415 0.9377148 0.810401 0.4934003 0.25922114 0.40446165
-0.050261818 -0.16355841 0.6602854 -0.14323825 0.29747415 -0.22903539 0.35375935 -0.021773346
00000000: 3c62 50bd 9ef6 923f 0ef8 6c3e 140e 703f
00000010: 7176 4f3f f79e fc3e a2b8 843e 9915 cf3e
00000020: 56df 4dbd db7b 27be 7708 293f 0cad 12be
00000030: 884e 983e 4188 6abe f21f b53e 045e b2bc

cnn3.4.running_mean f4 [16]
0.29134375 -0.82390285 0.45244285 -0.62791586 -0.51850104 -0.7717745 0.33856952 0.037879117
-0.7021288 -0.20008692 -1.3064734 -0.4238206 0.06995737 -0.02211058 0.19057716 -0.13770324
00000000: 022b 953e 4ceb 52bf 97a6 e73e 18bf 20bf
00000010: 7cbc 04bf 0393 45bf fc58 ad3e 2227 1b3d
00000020: b7be 33bf 96e3 4cbe 853a a7bf 04ff d8be
00000030: cf45 8f3d 3f21 b5bc a926 433e 1402 0dbe

cnn3.4.running_var f4 [16]
0.24605308 0.37943804 0.09004635 0.4826194 0.2812312 0.41214412 0.057089332 0.11752311
0.2569042 0.26386538 0.7455152 0.20172949 0.15999694 0.13503323 0.09458273 0.42735234
00000000: 57f5 7b3e b445 c23e 396a b83d e419 f73e
00000010: 89fd 8f3e 8e04 d33e 81d6 693d f5af f03d
00000020: f388 833e 5d19 873e 16da 3e3f 2d92 4e3e
00000030: 3dd6 233e 2746 0a3e 97b4 c13d edcd da3e
