pretrain/2017/net0-1000-mse.pkl (torch, 17441 bytes, 13 tensors)

cnn1.0.weight f4 [16, 3, 3, 3]
0.06883989 -0.04856961 -0.028725566 0.13362494 -0.22570837 -0.16475445 0.20706569 -0.02996665
0.09120226 0.18326242 0.03833164 -0.30032578 0.08452597 -0.27855885 -0.1735306 0.15779667
0.13758975 0.2161788 0.03231798 0.1376408 -0.241284 -0.07968337 -0.15726541 -0.16473727
0.3061772 -0.15157202 0.218414 -0.1757566 -0.271089 0.08006016 -0.09928783 0.16436599
0.16869546 0.24170108 0.15025821 0.24460296 0.061626587 -0.12899987 -0.065192476 0.108307295
0.1041682 0.21052247 0.092971824 -0.05302904 -0.0061532934 -0.26629224 -0.28238842 -0.2562179
0.01688482 -0.1590338 0.22552852 -0.0881311 -0.031164065 0.044067554 0.44893527 0.04715924
0.07076026 0.26734275 -0.14417864 -0.10170199 0.16686296 0.12944223 0.114796594 0.21647039
-0.05490088 -0.05322282 0.008021873 -0.18443726 -0.26740953 -0.20461605 -0.26324004 -0.14058867
0.14383776 -0.15493365 -0.25183082 0.1637856 0.056588538 0.013011075 -0.045719754 -0.0018108959
0.19108102 0.023818858 0.16293354 0.18119052 -0.021829477 0.050404146 -0.06576978 0.18476355
-0.14900365 -0.10357024 -0.05505227 0.15556256 0.25633535 -0.0024733145 -0.0013644289 0.012481986
-0.031352967 -0.3187093 -0.35067928 -0.14279829 0.031035652 0.25965795 0.2280464 -0.09578002
-0.0032033918 0.12343513 -0.15951587 -0.22862172 0.14237662 0.1735275 -0.21976653 0.31126195
0.28274652 0.04299927 0.12677133 -0.019575682 0.02971405 -0.1200227 -0.031696208 -0.15637095
-0.10803036 0.09243997 0.013434785 -0.23566459 -0.13228747 -0.15799512 0.29851705 0.123147935
-0.044355083 0.41070595 -0.020230692 -0.23506643 -0.101293065 -0.07285693 -0.103904806 -0.070654735
-0.053586274 -0.047961548 -0.17749852 -0.04317954 0.23113891 0.30955437 0.14133082 -0.16035138
-0.14336254 -0.22650485 -0.14474747 0.054416038 -0.0048244195 -0.11573127 0.24431293 0.056266215
-0.07932699 -0.28125915 -0.24243104 0.090103894 0.087811455 0.18601117 0.14844944 0.37738714
0.1275973 -0.21855862 0.12954456 0.121683694 0.035018865 -0.13066213 0.2361206 -0.16457061
0.065238096 -0.011564755 0.059976775 -0.104979716 0.092633724 -0.11896472 -0.27105954 -0.039089326
-0.062808365 -0.13898075 -0.036871713 -0.012812377 0.37091726 0.30346426 0.28405705 -0.0496702
-0.10624545 -0.03496426 -0.3278035 0.07464753 -0.2130597 0.20083968 0.10636042 0.08498756
0.05212453 0.2936336 0.27992073 0.1769228 0.25659704 0.28827712 -0.19428322 -0.15935966
-0.13248007 0.04300788 -0.07319967 -0.25850493 -0.13044454 -0.25956133 -0.25061586 -0.042131133
0.07196878 0.18548295 0.03643696 -0.022978092 -0.048496526 -0.026153529 -0.007886294 -0.017311867
0.049811017 -0.07557401 0.1217132 0.23919527 -0.05050358 0.16211197 0.32853764 0.29871175
0.15435824 -0.2994606 -0.17577171 0.10680008 -0.34970188 -0.39110807 0.16960475 0.01067774
0.02294079 -0.13287425 0.032535598 -0.12845878 0.058793765 -0.06605192 -0.17010945 0.027494585
0.045865953 -0.033975672 0.23185253 0.06328247 -0.12025644 -0.18314959 0.059244353 -0.27862942
-0.13172708 -0.092399165 -0.18132152 0.035636958 -0.07511038 0.15042374 -0.13252148 0.15248932
00000000: eefb 8c3d edf0 46bd e151 ebbc fad4 083e
00000010: 1820 67be 64b5 28be 0709 543e 9f7c f5bc
00000020: 40c8 ba3d 25a9 3b3e a301 1d3d 4dc4 99be
00000030: f41b ad3d 449f 8ebe 01b2 31be 7395 213e
00000040: 54e4 0c3e fa5d 5d3e dc5f 043d b6f1 0c3e
00000050: 2713 77be 0931 a3bd 2f0a 21be e3b0 28be
00000060: 42c3 9c3e b235 1bbe eba7 5f3e 8af9 33be
00000070: 2dcc 8abe 95f6 a33d 6b57 cbbd 8f4f 283e
00000080: 81be 2c3e 7d80 773e 4add 193e 3379 7a3e
00000090: 296c 7c3d 8b18 04be a283 85bd 37d0 dd3d
000000a0: 2356 d53d 3493 573e 0368 be3d fb34 59bd
000000b0: 91a1 c9bb 7557 88be 3795 90be fe2e 83be
000000c0: 0952 8a3c c2d9 22be f3f0 663e 147e b4bd
000000d0: c84b ffbc 2e80 343d d8da e53e 0c2a 413d
000000e0: c1ea 903d 26e1 883e 91a3 13be 2249 d0bd
000000f0: 20de 2a3e 818c 043e 7a1a eb3d 6aaa 5d3e
00000100: bfdf 60bd 2c00 5abd 2d6e 033c 1fdd 3cbe
00000110: e7e9 88be df86 51be 66c7 86be 7af6 0fbe
00000120: 354a 133e eda6 1ebe f8ef 80be 6ab7 273e
00000130: 62c9 673d 672c 553c a344 3bbd 955b edba
00000140: beaa 433e c41f c33c 0dd8 263e 028a 393e
00000150: bbd3 b2bc 9474 4e3d 4eb2 86bd a832 3d3e
00000160: 6a94 18be a21c d4bd 7d7e 61bd cb4b 1f3e
00000170: 633e 833e 5517 22bb a3d6 b2ba 3e81 4c3c
00000180: f86b 00bd de2d a3be 3c8c b3be b739 12be
00000190: 7b3e fe3c e3f1 843e ff84 693e 5128 c4bd
000001a0: ffef 51bb 8fcb fc3d 2158 23be d01b 6abe
000001b0: 2dcb 113e 31b1 313e 7a0a 61be ba5d 9f3e
000001c0: 27c4 903e 0120 303d 58d0 013e 2e5d a0bc
000001d0: e16a f33c 76ce f5bd e2d3 01bd b51f 20be
000001e0: 053f ddbd 2b51 bd3d 931d 5c3c 0f52 71be
000001f0: 5e76 07be 79c9 21be 3ad7 983e fc34 fc3d
00000200: adad 35bd 0d48 d23e d6ba a5bc 41b5 70be
00000210: bd72 cfbd 0436 95bd 0bcc d4bd 6eb3 90bd
00000220: 487d 5bbd 5473 44bd 2cc2 35be 08dd 30bd
00000230: aeaf 6c3e e97d 9e3e 07b9 103e 2733 24be
00000240: a1cd 12be e3f0 67be ae38 14be 5ae3 5e3d
00000250: 2a16 9ebb 8404 edbd 2b2d 7a3e 6777 663d
00000260: 3076 a2bd 3301 90be d83f 78be 6488 b83d
00000270: 7ed6 b33d b679 3e3e 2103 183e e338 c13e
00000280: dea8 023e d5cd 5fbe 54a7 043e 4d35 f93d
00000290: f16f 0f3d 4bcc 05be 99c9 713e 3385 28be
000002a0: 8d9b 853d 197a 3dbc 35aa 753d 9bff d6bd
000002b0: c0b6 bd3d c6a3 f3bd 51c8 8abe 211c 20bd
000002c0: aca1 80bd f850 0ebe cb06 17bd 01eb 51bc
000002d0: dee8 bd3e ab5f 9b3e ed6f 913e fb72 4bbd
000002e0: 3797 d9bd af36 0fbd dcd5 a7be cee0 983d
000002f0: 522c 5abe eba8 4d3e 7ed3 d93d f50d ae3d
00000300: 8880 553d 2557 963e c551 8f3e 402b 353e
00000310: b060 833e 0f99 933e 2ef2 46be 2e2f 23be
00000320: dba8 07be 0829 303d b5e9 95bd c25a 84be
00000330: 4193 05be 39e5 84be b950 80be b291 2cbd
00000340: 5e64 933d 3eef 3d3e ec3e 153d 8d3c bcbc
00000350: 4ba4 46bd ed3f d6bc 8435 01bc 9ed1 8dbc
00000360: a306 4c3d 8cc6 9abd c544 f93d 9bef 743e
00000370: d8dc 4ebd ae00 263e 1636 a83e bff0 983e
00000380: 1610 1e3e e652 99be 80fd 33be 00ba da3d
00000390: 200c b3be 513f c8be deac 2d3e b0f1 2e3c
000003a0: 53ee bb3c 3010 08be 0c44 053d b38a 03be
000003b0: bbd1 703d 3b46 87bd 2c31 2ebe 533c e13c
000003c0: f0dd 3b3d 132a 0bbd c06a 6d3e 3d9a 813d
000003d0: 0249 f6bd 918b 3bbe 35aa 723d 84a8 8ebe
000003e0: 77e3 06be c63b bdbd 59ac 39be 0ff8 113d
000003f0: 79d3 99bd ae08 1a3e b6b3 07be 2926 1c3e

cnn1.0.bias f4 [16]
-0.0726026 -0.1393568 -0.07772409 0.057430938 0.013715458 0.17128798 -0.04415117 0.51189834
0.11268339 -0.18502676 0.18287626 -0.055700563 -0.022773067 -0.060307473 0.19264546 0.21573332
00000000: acb0 94bd 8db3 0ebe cf2d 9fbd b43c 6b3d
00000010: cdb6 603c 1e66 2f3e dbd7 34bd c50b 033f
00000020: 8dc6 e63d a877 3dbe ea43 3b3e 4626 64bd
00000030: 958e babc f804 77bd da44 453e 32e9 5c3e

cnn1.1.weight f4 [16]
1.1289643 1.1292092 1.2198691 1.1790141 1.2807391 1.1726395 0.9618523 0.9695146
1.13174 0.76015806 0.8228811 1.24704 0.7855989 0.7779387 0.91739815 0.7205929
00000000: e781 903f ed89 903f ac24 9c3f efe9 963f
00000010: 42ef a33f 0d19 963f f43b 763f 1c32 783f
00000020: dbdc 903f b899 423f 56a8 523f 029f 9f3f
00000030: 021d 493f fe26 473f 9bda 6a3f c778 383f

cnn1.1.bias f4 [16]
0.0077721784 -0.16702986 0.33609685 -0.30684176 -0.24570449 -0.025706423 0.37780118 0.2156939
0.98047936 -0.32001835 -0.51839477 -0.15523951 0.055154957 -0.6174944 -0.39153266 0.35974956
00000000: c2ad fe3b e009 2bbe e314 ac3e 5d1a 9dbe
00000010: f599 7bbe 4796 d2bc 286f c13e ddde 5c3e
00000020: b200 7b3f 72d9 a3be 85b5 04bf 1bf7 1ebe
00000030: 2aea 613d 1d14 1ebf f876 c8be 1831 b83e

cnn1.1.running_mean f4 [16]
-0.0936751 -0.0035819318 0.0870835 0.027701667 0.2530956 0.18387818 -0.09124495 0.9303847
0.31439576 -0.7724482 0.277393 -0.036111277 -0.33726084 -0.4645703 -0.0049846945 0.03040415
00000000: bbd8 bfbd d8be 6abb d658 b23d 9bee e23c
00000010: bf95 813e 904a 3c3e a2de babd b12d 6e3f
00000020: 7bf8 a03e 2abf 45bf 7506 8e3e 6be9 13bd
00000030: 74ad acbe 29dc edbe a656 a3bb 2012 f93c

cnn1.1.running_var f4 [16]
0.015556635 0.016103769 0.011486516 0.011884791 0.010424286 0.012211796 0.009003751 0.0039794194
0.011536187 0.021207405 0.0020590138 0.023855852 0.008152801 0.022737958 0.01891891 0.005946251
00000000: 42e1 7e3c 0dec 833c f131 3c3c 6db8 423c
00000010: a0ca 2a3c fc13 483c 7884 133c ca65 823b
00000020: 4602 3d3c 27bb ad3c 85f0 063b 596d c33c
00000030: 5393 053c f444 ba3c d4fb 9a3c c5d8 c23b

cnn2.0.weight f4 [16, 16, 3, 3]
-0.110180564 0.21657346 0.056305736 -0.37588954 -0.0866144 0.17113057 0.016186709 0.07609342
0.078364134 0.12341099 0.10758909 0.19248779 -0.15437865 -0.032607663 0.14072427 -0.43291453
-0.20976375 -0.018581703 0.062830664 -0.028156783 -0.02924824 -0.18368892 -0.08866105 -0.018723426
-0.39746124 -0.037534233 -0.1340466 0.12316522 0.19889191 0.19331807 -0.16493347 -0.08421059
-0.124725215 -0.021289742 -0.010022799 -0.020474061 -0.081505634 0.13878779 0.0867733 -0.3334359
-0.39893466 -0.22959462 0.07334246 0.11566115 -0.16465232 -0.12572528 -0.41716343 -0.03176666
-0.169731 0.07223956 0.26304933 -0.3469167 0.22841798 0.09813151 0.18474776 0.102132656
0.16687281 -0.08441895 -0.025323419 0.06955228 -0.08356958 0.043254785 0.051704306 -0.040488996
0.06389321 -0.017007288 0.18988204 0.102650546 -0.0128467325 -0.12906392 -0.051303077 -0.2628014
0.047685232 -0.029840637 -0.18828271 0.21241753 0.21655753 -0.18926005 0.37208343 0.054010965
0.1697893 -0.018534767 0.0315359 0.06370939 0.021637036 -0.031702805 0.07140514 0.06867436
0.01609181 -0.03337099 0.1303171 -0.03721467 0.064886406 0.061238278 0.027925605 -0.0061208773
-0.04022451 -0.07465835 -0.02110107 0.24969779 0.081275456 0.095293604 -0.056902416 -0.020291587
0.22835639 -0.10263892 -0.068615794 0.056054536 -0.14024109 0.06892089 -0.0664222 0.056869462
-0.023987073 -0.095322125 -0.09759867 -0.113080025 -0.023990465 -0.11239672 0.077728525 0.16232389
-0.23531954 0.023015678 0.2550596 -0.14603259 0.0054670423 -0.04432504 0.0734323 0.055600345
0.118932575 0.0526005 -0.10293783 -0.051114403 0.15740764 -0.02826294 0.052304603 -0.095476456
0.004252086 -0.060425904 0.03885063 0.035031065 -0.058152966 0.0029195864 -0.045228314 -0.11741583
-0.1529284 -0.0048017907 -0.1516882 0.05206721 0.08075053 -0.16485447 -0.018626343 -0.07415035
-0.019361489 0.12597798 -0.032359596 0.030654596 0.03367034 0.020109382 0.014492378 0.14455436
0.035532508 -0.00631841 0.32478976 0.14256252 -0.20726581 0.1995044 -0.10671786 -0.045439113
-0.010354012 -0.20991087 -0.19316305 0.115916364 -0.049702402 -0.117024645 -0.07214441 -0.09869603
0.12199642 0.11084672 0.22861895 -0.0063025383 -0.3669369 -0.07377665 0.33907193 -0.08076777
-0.012451427 0.24047601 -0.10520459 0.06454853 0.00034606032 0.10996457 0.0978757 -0.17142391
0.11840975 0.004289509 -0.18968128 -0.08612562 -0.1517859 0.05636106 -0.07743533 0.048845306
-0.11400416 -0.02059765 0.1083467 -0.13200702 -0.20862526 0.023862524 -0.36928865 0.040380664
-0.07713491 -0.04268634 0.02288115 0.12465071 -0.124129355 0.014719681 -0.16264057 -0.16384691
-0.080982804 0.19837028 -0.08569325 0.12145676 0.15169525 -0.25837237 -0.10433223 -0.05916758
-0.1853635 -0.018039947 -0.032408986 -0.24258874 -0.13155507 0.0069516143 -0.122267105 -0.29980466
-0.12583937 0.0470172 0.10115078 -0.063208096 0.008215819 -0.0936181 -0.009246054 -0.08098141
0.07217623 0.013403195 -0.15583381 0.036786586 -0.13096386 -0.22163749 0.1567181 -0.00408137
-0.05619215 -0.013324793 0.049577456 -0.059631962 0.061724212 -0.07849117 0.048681848 -0.0049455026
00000000: 59a6 e1bd 6fc5 5d3e d8a0 663d 9874 c0be
00000010: e462 b1bd da3c 2f3e fd99 843c ded6 9b3d
00000020: 607d a03d e7be fc3d ab57 dc3d 851b 453e
00000030: 7015 1ebe 9d8f 05bd 061a 103e f9a6 ddbe
00000040: 4fcc 56be a838 98bc 5dad 803d 0ea9 e6bc
00000050: 019a efbc f318 3cbe ed93 b5bd df61 99bc
00000060: 0a80 cbbe 7fbd 19bd 8343 09be 0c3e fc3d
00000070: 52aa 4b3e 2cf5 453e 52e4 28be 9a76 acbd
00000080: ef6f ffbd d367 aebc aa36 24bc 38b9 a7bc
00000090: 6dec a6bd 631e 0e3e 33b6 b13d 1cb8 aabe
000000a0: 2a41 ccbe da1a 6bbe 9234 963d c1df ec3d
000000b0: 9e9a 28be 21be 00be 7296 d5be c21d 02bd
000000c0: f7cd 2dbe 56f2 933d 67ae 863e 119f b1be
000000d0: 67e6 693e 2cf9 c83d 842e 3d3e ed2a d13d
000000e0: b5e0 2a3e d8e3 acbd 0f73 cfbc 6d71 8e3d
000000f0: 8726 abbd ee2b 313d e5c7 533d cad7 25bd
00000100: 71da 823d de52 8bbc 7070 423e 733a d23d
00000110: 1a7b 52bc 5529 04be 2d23 52bd e88d 86be
00000120: 9751 433d 5a74 f4bc 2fcd 40be fb83 593e
00000130: 42c1 5d3e 63cd 41be b881 be3e 9a3a 5d3d
00000140: 3fdd 2d3e 39d6 97bc ca2b 013d 127a 823d
00000150: 2740 b13c cdda 01bd dc3c 923d 25a5 8c3d
00000160: f9d2 833c 05b0 08bd d971 053e 696e 18bd
00000170: 2ae3 843d fdd4 7a3d 3dc4 e43c a491 c8bb
00000180: 75c2 24bd 7ae6 98bd 27dc acbc c7b0 7f3e
00000190: bf73 a63d 4b29 c33d 8212 69bd 8b3a a6bc
000001a0: 42d6 693e 5b34 d2bd 7086 8cbd 7199 653d
000001b0: 5c9b 0fbe 6526 8d3d 5d08 88bd f4ef 683d
000001c0: 8a80 c4bc 3f38 c3bd d0e1 c7bd 8096 e7bd
000001d0: a787 c4bc 4030 e6bd 2230 9f3d 3c38 263e
000001e0: 9bf7 70be 608b bc3c 2c97 823e 9189 15be
000001f0: e024 b33b 2c8e 35bd ac63 963d 30bd 633d
00000200: ec92 f33d 9f73 573d 12d1 d2bd 565d 51bd
00000210: 782f 213e ae87 e7bc 5a3d 563d 2989 c3bd
00000220: 1555 8b3b 2781 77bd d721 1f3d bc7c 0f3d
00000230: ce31 6ebd 8856 3f3b 5341 39bd b677 f0bd
00000240: 4399 1cbe 5758 9dbb 2754 1bbe 6d44 553d
00000250: 8960 a53d 9ccf 28be 4696 98bc 24dc 97bd
00000260: fc9b 9ebc 5f00 013e 7f8b 04bd 591f fb3c
00000270: e9e9 093d 6ebc a43c 7071 6d3c 0f06 143e
00000280: 898a 113d aa0a cfbb d84a a63e e9fb 113e
00000290: 7d3d 54be e24a 4c3e e58e dabd 5d1e 3abd
000002a0: e0a3 29bc e0f2 56be 89cc 45be 8f65 ed3d
000002b0: bf94 4bbd 9eaa efbd 73c0 93bd 2521 cabd
000002c0: 42d9 f93d 9b03 e33d 161b 6a3e 8685 cebb
000002d0: 27df bbbe 3618 97bd d69a ad3e 9369 a5bd
000002e0: 1201 4cbc 583f 763e 8175 d7bd 0532 843d
000002f0: 6e6f b539 1b35 e13d 0e73 c83d c089 2fbe
00000300: d080 f23d 028f 8c3b cf3b 42be a162 b0bd
00000310: c36d 1bbe dbda 663d 6a96 9ebd 0412 483d
00000320: 037b e9bd 67bc a8bc e0e4 dd3d d92c 07be
00000330: dca1 55be 577b c33c 6713 bdbe 3266 253d
00000340: e8f8 9dbd dfd7 2ebd 4071 bb3c df48 ff3d
00000350: 8837 febd d12a 713c 408b 26be 7cc7 27be
00000360: 50da a5bd 9421 4b3e f17f afbd 52be f83d
00000370: 0056 1b3e 6249 84be 23ac d5bd b459 72bd
00000380: eecf 3dbe 83c8 93bc 49bf 04bd 2f69 78be
00000390: 5fb6 06be 5eca e33b 2d67 fabd ff7f 99be
000003a0: 09dc 00be 1c95 403d 2428 cf3d 3f73 81bd
000003b0: a49b 063c d9ba bfbd c37c 17bc 95d9 a5bd
000003c0: 22d1 933d 1399 5b3c e692 1fbe 88ad 163d
000003d0: 641b 06be f0f4 62be b67a 203e 03bd 85bb
000003e0: bd29 66bd 3c50 5abc bb11 4b3d a540 74bd
000003f0: 87d2 7c3d fbbf a0bd 9e66 473d e20d a2bb

cnn2.0.bias f4 [16]
-1.5695436 0.9556707 0.25322244 1.4696351 1.3111804 -0.10019022 -0.23314463 1.7728459
0.5933314 0.8358614 1.418462 -2.4102688 1.4534802 1.094714 1.0127933 1.7114769
00000000: cee6 c8bf d6a6 743f 5fa6 813e 011d bc3f
00000010: c2d4 a73f 8830 cdbd 77bd 6ebe 9dec e23f
00000020: 91e4 173f 03fb 553f 2a90 b53f d841 1ac0
00000030: a40b ba3f 971f 8c3f 36a3 813f ad11 db3f

cnn2.1.weight f4 [16]
1.7057743 1.3645557 1.7149013 1.3555509 1.5669025 1.241488 1.2983782 1.6893731
1.4940155 1.6700865 1.9038244 1.6945708 1.3344809 1.3595872 1.4751258 1.9439423
00000000: d056 da3f c3a9 ae3f e381 db3f b182 ad3f
00000010: 4390 c83f 14e9 9e3f 4231 a63f 613d d83f
00000020: e63b bf3f 65c5 d53f 85b0 f33f b2e7 d83f
00000030: 45d0 aa3f f406 ae3f ecd0 bc3f 1ad3 f83f

cnn2.1.bias f4 [16]
-0.19207814 -0.31277755 0.08159371 0.043950066 -0.043636184 -0.24575822 -0.227794 -0.36747098
0.16359866 -0.20792776 0.044258423 -0.42152002 -0.027467854 -0.054395694 0.074323125 -0.327241
00000000: 22b0 44be 6124 a0be 9a1a a73d fc04 343d
00000010: dbbb 32bd 0ba8 7bbe d542 69be 2825 bcbe
00000020: 6886 273e 04eb 54be 5248 353d 79d1 d7be
00000030: 4404 e1bc 05ce 5ebd b936 983d 228c a7be

cnn2.1.running_mean f4 [16]
-1.5552819 -0.005553325 0.53914565 1.7276623 0.918167 -0.35120094 0.39835003 1.827457
1.0529418 0.83230364 1.3574488 -3.301167 1.5924714 -0.59487116 1.7218218 0.9602364
00000000: 7a13 c7bf abf8 b5bb 7305 0a3f 0a24 dd3f
00000010: fe0c 6b3f 9cd0 b3be 89f4 cb3e 1cea e93f
00000020: ccc6 863f da11 553f e2c0 ad3f 5246 53c0
00000030: 1ad6 cb3f 7a49 18bf a864 dc3f 0dd2 753f

cnn2.1.running_var f4 [16]
1.1635022 0.34595534 0.5027185 0.46985957 0.67964774 1.1417322 0.66122174 0.4197494
0.83099276 1.4572679 0.59611773 0.6677215 0.25431266 0.53834945 0.95456946 0.5508006
00000000: a4ed 943f 0f21 b13e 29b2 003f 6f91 f03e
00000010: 65fd 2d3f 4824 923f d445 293f 65e9 d63e
00000020: f1bb 543f c187 ba3f 2c9b 183f ccef 2a3f
00000030: 4535 823e 45d1 093f aa5e 743f 4501 0d3f

output.0.weight f4 [1, 16, 3, 3]
-0.30670598 -0.4651954 -0.5275554 -0.0042973007 -0.3771805 -0.33778986 -0.36046532 -0.5172203
-0.45667472 -0.019527704 0.26433766 0.22598876 0.2604828 0.22936915 0.612483 0.26337612
0.36363858 0.14710413 -0.19321227 -0.09712492 0.26584867 -0.3408822 -0.08094821 0.4919036
-0.0097471345 0.17870197 0.17186025 0.3193129 0.039322633 0.31378484 0.15699466 -0.041313745
0.32293972 0.5122121 0.17935763 0.28361303 0.34530398 0.05327908 0.33641413 0.12033869
0.3188853 0.3336405 0.12496196 0.03213626 0.19590968 -0.27914014 -0.16542247 -0.30015793
-0.4602984 -0.29729542 -0.24677552 -0.40888116 -0.20911485 -0.127267 -0.30422357 -0.28143764
-0.24870019 -0.18915668 -0.24054013 -0.51202035 -0.48004445 -0.10105073 -0.34576258 0.4885563
0.4796992 0.6029316 0.38664195 0.2778094 0.34340534 0.7187469 0.37328365 0.4388264
0.16892703 -0.044823535 -0.23080818 0.7001775 0.3691564 -0.06897906 0.30312848 0.15152201
0.062675625 0.24443913 0.22552839 0.09870256 0.38055116 0.68666077 0.16396333 0.725986
0.07365835 -0.23374334 0.3460373 0.12722859 0.24686955 0.3996977 0.033892017 0.30169514
0.48917222 0.30697933 0.41221482 -0.86863863 -0.7423761 -1.0007665 -0.5917898 -0.021891193
-0.69100213 -0.78925383 -0.6488336 -0.6598713 0.3099746 0.34517193 0.2881645 0.09885851
-0.08471923 0.17278835 0.02803859 0.008443408 0.23599157 0.2757911 0.24387786 0.33247954
0.24639902 0.07474731 0.15678835 0.19532701 -0.051693466 0.07955323 0.052381795 -0.1169796
0.2630714 0.308489 0.46812344 0.31015545 0.15965444 0.16246174 0.3685172 0.6029203
0.5593958 0.9434188 0.43285543 0.2323046 0.6592631 0.8421332 0.5046233 0.6909934
00000000: 9108 9dbe 172e eebe df0d 07bf 5fd0 8cbb
00000010: cd1d c1be cbf2 acbe e98e b8be 8d68 04bf
00000020: 45d1 e9be 90f8 9fbc 4457 873e 9969 673e
00000030: 005e 853e bfdf 6a3e b0cb 1c3f 3cd9 863e
00000040: d62e ba3e 77a2 163e 70d9 45be 6ee9 c6bd
00000050: 511d 883e 1d88 aebe 2dc8 a5bd cada fb3e
00000060: 72b2 1fbc a6fd 363e 22fc 2f3e fb7c a33e
00000070: c510 213d 68a8 a03e 35c3 203e 9a38 29bd
00000080: 5b58 a53e 5520 033f 87a9 373e ba35 913e
00000090: afcb b03e 2a3b 5a3d 793e ac3e 2274 f63d
000000a0: ef44 a33e edd2 aa3e 0eec ff3d 50a1 033d
000000b0: 8c9c 483e 75eb 8ebe 8264 29be 4dae 99be
000000c0: 3bac ebbe 1b37 98be b9b2 7cbe df58 d1be
000000d0: 3422 56be 4852 02be 31c3 9bbe 9818 90be
000000e0: 43ab 7ebe 4ab2 41be 2750 76be c413 03bf
000000f0: 63c8 f5be aff3 cebd cb07 b1be 0d24 fa3e
00000100: 229b f53e ba59 1a3f eff5 c53e 093d 8e3e
00000110: d3d2 af3e ccff 373f 091f bf3e dbad e03e
00000120: 35fb 2c3e e298 37bd fb58 6cbe d53e 333f
00000130: 1102 bd3e e544 8dbd a833 9b3e 9628 1b3e
00000140: 145c 803d 404e 7a3e eaf0 663e 9124 ca3d
00000150: 9ad7 c23e 00c9 2f3f 01e6 273e 38da 393f
00000160: 30da 963d 6a5a 6fbe cd2b b13e 3648 023e
00000170: 5fcb 7c3e 2da5 cc3e 5bd2 0a3d c977 9a3e
00000180: c874 fa3e 652c 9d3e d20d d33e 1a5f 5ebf
00000190: 5c0c 3ebf 1e19 80bf 897f 17bf 2955 b3bc
000001a0: 84e5 30bf 8a0c 4abf f519 26bf 53ed 28bf
000001b0: feb4 9e3e 60ba b03e 4c8a 933e 5576 ca3d
000001c0: 4781 adbd 6eef 303e 2fb1 e53c 3856 0a3c
000001d0: c6a7 713e 7e34 8d3e 1ebb 793e c23a aa3e
000001e0: 0650 7c3e 1e15 993d 208d 203e ce03 483e
000001f0: 87bc 53bd ceec a23d 4b8e 563d 0093 efbd
00000200: 4bb1 863e 45f2 9d3e e0ad ef3e b2cc 9e3e
00000210: 747c 233e 5f5c 263e 49ae bc3e fc58 1a3f
00000220: 9034 0f3f e583 713f 3a9f dd3e 42e1 6d3e
00000230: 77c5 283f 0b96 573f fe2e 013f f2e4 303f
