pretrain/2017/net0-1000-dice.pkl (torch, 17459 bytes, 13 tensors)

cnn1.0.weight f4 [16, 3, 3, 3]
000000 21 ad 86 be 29 54 af bd e2 31 15 3e 44 21 c1 3d
       -0.26303962 -0.08560974 0.1456981 0.09430173
000010 69 61 1d 3e c4 c5 3a 3d 22 cb b9 3d c5 1c fe 3d
       0.1536919 0.04559876 0.09071948 0.12407831
000020 9d 04 6b be 39 e5 01 be 9d ec 19 be 15 51 24 3e
       -0.22950979 -0.12685098 -0.15031667 0.16046555
000030 ff d0 db 3c de 32 20 3e cb 9a 2d be 24 99 1c 3e
       0.026833056 0.15644404 -0.1695358 0.15292794
000040 11 88 12 be 44 4f a5 be 03 41 9f be a9 29 71 3e
       -0.14309718 -0.32287037 -0.31104288 0.23551048
000050 dd 14 e8 3e 49 8b f7 3d 66 01 18 3e e2 c8 ed 3d
       0.45328417 0.120871134 0.14844283 0.11610581
000060 16 27 e8 bd 5c 90 dc bd 3c 07 ec bd af 56 63 3d
       -0.1133558 -0.10769722 -0.11524817 0.05550259
000070 e1 83 fe 3d c0 c5 35 bd d0 a7 c6 3b 62 4b 87 3e
       0.12427498 -0.044378042 0.0060624853 0.264247
000080 f4 bd 52 3e b8 db 98 3b dc f0 76 3e f8 f9 bf 3e
       0.20580274 0.0046648644 0.24115318 0.374954
000090 44 11 91 be 7b 7a 67 be ef ca 37 be 85 c2 73 be
       -0.28333485 -0.22605316 -0.17948507 -0.23804672
0000a0 99 1b 80 3d fb a9 7f be b0 00 50 be d3 c5 39 3d
       0.06255264 -0.24967186 -0.20312762 0.045354676
0000b0 4d 1b bd 3d 93 de 89 3d 4f e9 3e 3d 0f d4 50 bc
       0.09233723 0.06731906 0.04660922 -0.012745871
0000c0 50 14 1f be db fa 16 be d5 9f 7e 3e f9 d3 90 3c
       -0.15535092 -0.14744131 0.24865659 0.017679201
0000d0 1d 87 61 3d c4 5a ab 3d 37 19 c3 bd f5 57 67 3c
       0.055060495 0.083669215 -0.09526294 0.014120092
0000e0 f1 b7 ff bd e4 c4 2e be e7 14 ec 3d 1f 21 56 3e
       -0.12486256 -0.17067295 0.11527424 0.20911072
0000f0 51 e9 09 be ec f2 49 be 38 9a 8a be 38 4c cd bc
       -0.1346791 -0.19721574 -0.27070785 -0.025060758
000100 f0 d2 c9 3d fa d6 89 3c 2f ee 53 3d 27 32 9e 3c
       0.09854686 0.016826142 0.05174082 0.019311024
000110 63 bb 81 3e 06 04 0a bb 8d 5f f9 3b f7 be 7c be
       0.25338277 -0.0021059527 0.0076102675 -0.24682222
000120 ab 95 8d bc 16 78 ef 3d 39 47 aa be 0c 46 bb 3d
       -0.017283281 0.116928264 -0.33257464 0.0914422
000130 b7 06 b1 3e 1b 25 38 3e 6f 21 47 be 20 81 c1 3d
       0.34575436 0.17982905 -0.19446348 0.09448457
000140 9c f7 02 bf e8 ca 6d be 12 03 b9 be 69 c1 2e bd
       -0.5115907 -0.23221934 -0.36135155 -0.04266492
000150 63 3a 1e 3e a3 1b 73 be e8 28 3a 3e 39 9b 4f bd
       0.1545196 -0.23741011 0.18179667 -0.05068514
000160 46 f6 8e bb 81 62 bc 3d c2 51 9b 3e 13 b9 5d be
       -0.004362854 0.09198476 0.30335814 -0.21652631
000170 8e 63 7f be 3f 3c 8d 3e 74 d3 c9 3d 0b a4 ca bd
       -0.24940321 0.27585027 0.098547846 -0.0989457
000180 70 6c 85 3e 1c d6 3b 3e 3d ad dd 3d 7c 19 80 3e
       0.26059294 0.18343395 0.10824058 0.25019443
000190 ba 53 57 be bb a2 e1 bd ee 41 c4 3d d8 ff e3 bd
       -0.21028033 -0.110173665 0.095828876 -0.11132783
0001a0 23 b0 cb 3c 54 d8 ad bc 8d 2d 3b 3d 24 cb ee bc
       0.024864262 -0.021221317 0.045697737 -0.0291496
0001b0 36 9d 45 3e 75 f2 6b 3e 29 c2 09 3c 5c 20 ea bd
       0.19298252 0.23041709 0.008408108 -0.11431953
0001c0 1b b7 90 3d 2a a9 4a 3e 66 b3 94 3d 05 7b 94 bd
       0.070661746 0.19791093 0.0726078 -0.072500266
0001d0 4c ad 2a bc 43 cd 0d 3d 66 47 82 be 7a 03 27 be
       -0.010417294 0.03461958 -0.25445098 -0.1630992
0001e0 9b 24 c8 bd 7b 68 c3 be ce 3f bd be 6f 53 10 bc
       -0.09772607 -0.3816565 -0.36962742 -0.008808955
0001f0 d3 08 6b 3d fb 78 21 be b3 a4 7d 3e 14 ab a9 bd
       0.057381462 -0.15768807 0.24769859 -0.08284584
000200 b5 34 87 be d0 c4 f0 3d 90 34 ed bc 97 e0 89 3e
       -0.264074 0.11756289 -0.028955728 0.2692916
000210 d4 05 88 3d ca 08 57 3d 9c 30 01 3e b7 d2 d8 3e
       0.066417366 0.052498616 0.126162 0.42348263
000220 1b 8b 9a bd d9 b4 02 3e 5f f3 79 3e a5 5c 8e 3d
       -0.075460635 0.127643 0.24409245 0.06951264
000230 56 1d 34 38 79 71 bc 3e 78 0d 8c be 91 d9 6d be
       4.2942665e-05 0.36805323 -0.27354026 -0.23227526
000240 e1 33 a7 3d 52 fd 80 3d 93 22 4d bd a0 15 19 3e
       0.08164192 0.06298317 -0.0500818 0.14949656
000250 db fe 2d be df b1 5c be 99 5d c8 bd b5 4a 81 be
       -0.16991751 -0.21552227 -0.09783477 -0.2525231
000260 23 3f 81 3d 13 c5 b8 3c 7c 4c bc bd 28 c2 a1 3e
       0.063108705 0.02255491 -0.09194276 0.31593442
000270 d4 49 ed bd 5a b1 10 be fd 65 23 3e 5b 02 37 be
       -0.11586347 -0.14130154 0.15956874 -0.17871992
000280 31 2b c5 bd 92 8c 1f bd 8a d5 28 be 9f 18 da 3d
       -0.09627379 -0.038952418 -0.16487709 0.10649227
000290 de f7 86 3d a3 81 43 be 52 24 1b bd fe 92 03 be
       0.06590246 -0.19092421 -0.037876435 -0.12849042
0002a0 f1 e7 e8 3d 88 13 83 3e ba 09 32 be f0 11 92 be
       0.11372364 0.2560084 -0.17386523 -0.2852931
0002b0 73 36 df 3d 4d 07 e8 3d f7 5b f5 bc ec af 2b bd
       0.10899057 0.113295175 -0.029951079 -0.04191582
0002c0 7d c8 27 3e 2f 56 14 3e 5f d9 6a 3e 62 3a d4 3d
       0.16385074 0.14486001 0.22934483 0.10362698
0002d0 ae 78 8d be 5a a6 6a be cf 3c 86 be ea f1 84 be
       -0.27631134 -0.2291502 -0.26218268 -0.25965816
0002e0 ec de c1 3c 0e 90 af bd 61 09 a3 bd 30 e5 05 3e
       0.023665868 -0.08572398 -0.07960773 0.1307571
0002f0 ce f1 08 3e 47 e1 47 be 84 84 9f bd 9a 4c e3 3d
       0.13373491 -0.1951953 -0.07788947 0.11098595
000300 ab 40 19 3e 4c 89 e0 bd 53 6c 58 3d dc a2 17 3e
       0.14966075 -0.10963687 0.05283768 0.1480822
000310 af 29 1b bd 92 18 73 be 83 0f 05 3d 11 67 14 bd
       -0.03788155 -0.23739842 0.032485496 -0.036231104
000320 ec ae 5c 3e 23 0a 0c 3e 8c ea 6b 3c 5a cd 74 3e
       0.21551102 0.13675742 0.014399182 0.2390646
000330 dc ed 84 3e 93 84 07 3e 6a a8 2a be 01 26 b5 be
       0.25962722 0.13234167 -0.16665807 -0.35380557
000340 23 82 68 be 3b 11 50 3e 25 ce 58 be fa 8a 2e bd
       -0.22705893 0.20319073 -0.21172388 -0.042613007
000350 dd b1 82 bd 04 76 88 3e 63 bb ba 3c fb 02 ac bb
       -0.06381581 0.2665254 0.022794431 -0.0052493787
000360 b2 20 d7 bb 32 f9 bb 3d 83 e2 84 bb 4a 50 0d be
       -0.006565177 0.091783896 -0.0040553226 -0.13800159
000370 21 e0 cf 3d 87 c7 f1 bd 1a a9 7b 3e f3 e9 04 3e
       0.10150171 -0.11805635 0.24576226 0.1297987
000380 7b d4 27 bd e5 76 4f be e2 e7 37 3d ee 51 80 be
       -0.04097412 -0.20260198 0.044898875 -0.25062507
000390 85 d6 5e be 42 a7 b6 3d 58 e8 80 be f5 bd 5a 3e
       -0.2176152 0.08918621 -0.25177264 0.21361525
0003a0 2a 5f 91 3d fa ba 7a 3d 73 8d 42 bd 52 a1 0f be
       0.07098229 0.06121347 -0.047498178 -0.14026383
0003b0 08 aa 7d 3c 30 fd b0 3d 41 56 7f 3b a9 14 17 be
       0.015482433 0.08642042 0.0038961323 -0.14753975
0003c0 89 0e b6 3e 02 2d 69 3e 29 cd 4c be b0 7b 0d 3e
       0.35557964 0.22771075 -0.20000137 0.13816714
0003d0 69 97 91 bd 38 95 7e 3d 3d 29 8a be 29 d7 d7 bd
       -0.07108957 0.062154025 -0.26984587 -0.105390854
0003e0 e2 3e da 3d 63 d3 4b 3d ed d9 d8 3d 13 b4 47 3e
       0.10656525 0.04976214 0.10588441 0.19502287
0003f0 05 12 c0 bc e8 52 23 bd a3 c6 91 3c 0f 44 b4 be
       -0.023446092 -0.039873987 0.017794913 -0.35208175

cnn1.0.bias f4 [16]
000000 91 7e 25 bd 11 eb 0c 3d 3f 4a 82 3e d4 5d d7 bd
       -0.040403906 0.034403864 0.2544727 -0.10515943
000010 21 71 e7 3d 8f eb 4d 3e 78 8f a9 3c 18 3b 28 bc
       0.113008745 0.2010939 0.020698294 -0.010267995
000020 2b d4 f7 3d f6 19 16 bd 5c 95 0a be a5 f1 b5 bd
       0.12101015 -0.036645852 -0.13533539 -0.08883981
000030 54 dc e6 bd 9a 61 7c 3e 3f 08 1e be e5 60 93 3d
       -0.11272493 0.24646607 -0.15432833 0.071962155

cnn1.1.weight f4 [16]
000000 01 b1 44 3f 10 e6 24 3f 0a dd 39 3f e0 e6 9a 3f
       0.76832587 0.6441355 0.72602904 1.2101707
000010 68 86 47 3f c5 d6 7d 3f cd 46 60 3f 66 52 1b 3f
       0.7793946 0.9915584 0.87608033 0.60672605
000020 08 a7 8b 3f 4a a7 9d 3f f3 9b 8c 3f 85 0b 8a 3f
       1.0910349 1.2316678 1.0985092 1.0784765
000030 a9 99 75 3f a5 3d 3d 3f 3b 6a 6c 3f 44 6d 92 3f
       0.9593759 0.7392219 0.92349595 1.1439595

cnn1.1.bias f4 [16]
000000 bd ff 91 3e d4 21 00 3f a6 ed 4c bf 9d 2d 8c bd
       0.28515425 0.5005162 -0.8005012 -0.068446375
000010 b6 6b ba 3e e5 00 19 3f e8 59 db be 9c d6 c0 3e
       0.36410302 0.5976699 -0.4284203 0.37663734
000020 1c e0 b9 be e8 e3 1e be a9 fc 5f bd 94 88 b1 be
       -0.36303794 -0.15516627 -0.054684315 -0.34674513
000030 3f 75 d7 3d 6f d2 db 3e ec 78 28 be e9 73 d6 3c
       0.1052041 0.42933986 -0.16452378 0.026178317

cnn1.1.running_mean f4 [16]
000000 09 61 bd bb 96 ce 89 3e a8 78 8a be f1 93 5a bd
       -0.0057793898 0.26915425 -0.27045178 -0.053363744
000010 ab cd cf bd da 49 92 3e 9c 1b 9f be 43 36 36 3e
       -0.1014665 0.2857197 -0.31075752 0.17794137
000020 86 95 cc 3d 99 85 19 bb a1 02 a4 bb d2 67 7c bd
       0.09989457 -0.0023425578 -0.005005196 -0.06162245
000030 d8 b7 c9 3e 1d 6e 4a 3d fb 0e ac be a3 67 e6 3d
       0.39398074 0.04942142 -0.3360518 0.11250236

cnn1.1.running_var f4 [16]
000000 95 6e 9c 3b 5d 0a 42 3c 6a 66 c3 3c 56 92 6f 3c
       0.0047739246 0.011843291 0.023852546 0.014622292
000010 b1 15 e1 3b 75 9f 60 3c 94 21 b7 3c e7 49 ad 3b
       0.006869041 0.0137098925 0.022354878 0.005288351
000020 a4 8c 66 3c d0 cd 69 3c e2 88 89 3c eb 13 76 3c
       0.014071617 0.014270261 0.016788904 0.015019397
000030 d5 a1 fa 3b d2 fc fa 3b 7e 02 5b 3c 65 87 17 3c
       0.0076486864 0.007659533 0.013367293 0.009248589

cnn2.0.weight f4 [16, 16, 3, 3]
000000 72 f8 30 3d f4 11 a8 bd f3 4a 0d be cf 04 14 be
       0.043205686 -0.08206549 -0.13798122 -0.1445496
000010 5b 83 8a 3c d2 2c 9a bd 11 c7 17 3e d4 33 8d be
       0.016908338 -0.0752808 0.14822032 -0.27578604
000020 05 6a 86 3c 74 03 28 3e f3 13 77 3e 14 3c 95 3e
       0.016407976 0.16407567 0.24128704 0.29147398
000030 62 33 0a be 5b a6 55 3e d2 26 11 3e 30 a0 6b be
       -0.13496163 0.20864241 0.14174965 -0.23010325
000040 57 70 78 3d 4e 40 ca bb 77 ee 30 3e b7 b0 dc 3d
       0.06065401 -0.0061722165 0.17278467 0.10775893
000050 e1 9f 07 bd 70 92 3f 3e ad 94 96 bd ca fe c9 3c
       -0.033111457 0.18708205 -0.073525764 0.024657626
000060 10 ca 3b 3e 10 29 96 bd 21 52 bc 3c ae a1 05 bd
       0.183388 -0.07332051 0.02298838 -0.032624893
000070 86 8d 12 be f7 a3 99 3d 64 bc b6 3d bf f3 3d bd
       -0.143118 0.07501977 0.089226514 -0.046375033
000080 c2 f7 ae bc 5c 90 47 3e d2 eb 8f 3d ca 1f 89 3e
       -0.021358375 0.19488662 0.07027401 0.26782066
000090 e0 38 09 39 a2 64 e0 bd 1e ae 0d be 24 99 84 3d
       0.00013086526 -0.10956694 -0.13835952 0.06474522
0000a0 32 e6 f1 3b 23 2e 78 bc b5 42 35 3d 57 44 2c 3d
       0.0073821777 -0.015147719 0.04425307 0.04205736
0000b0 a4 df 63 3d d5 98 c6 bd 69 26 21 3e 42 c5 7f 3e
       0.055633202 -0.09697119 0.15737309 0.24977592
0000c0 d8 fd c5 bc 8e a2 34 3e 7e 45 ad 3e ca 26 2f bd
       -0.024168894 0.17640135 0.3384208 -0.0427616
0000d0 b7 cb 19 3c b5 03 8c 3e d1 0c 0b 3d b2 eb bb bd
       0.009386948 0.27346578 0.03394777 -0.09175815
0000e0 1c 35 32 3c 20 7e 78 3d 60 3f 03 3e 9e bf d2 3c
       0.01087692 0.060667157 0.12817144 0.025726136
0000f0 c3 4d 88 bd 35 38 6e 3d 5e 7e 47 be 28 9b 7e 3d
       -0.06655457 0.058159072 -0.19481799 0.062159687
000100 80 c5 a1 bb 04 30 43 be 94 ed 74 3e 8c ea e7 3c
       -0.004936874 -0.19061285 0.23918754 0.028310083
000110 85 ef 68 be a3 7a 59 be c0 42 2a be 6e c1 4e be
       -0.2274762 -0.21238188 -0.16627026 -0.20190975
000120 24 b8 ae be fc cd 28 3c da f0 03 bd 4d 16 a4 be
       -0.34124863 0.010303017 -0.032212116 -0.32048264
000130 03 e9 ce bd cf 23 85 3b b1 61 1f bd d6 41 98 3c
       -0.10103037 0.0040631066 -0.038911525 0.01858608
000140 c7 d5 fd 3c e7 65 28 bd bf 67 f8 bd aa d9 d8 bd
       0.030985726 -0.041112807 -0.12129163 -0.10588391
000150 73 44 fc 3c 29 68 04 bd 70 85 1a 3e 69 4f 99 3d
       0.030794358 -0.032325897 0.15089965 0.074858494
000160 ad ab 2a 3e 7f 3e b2 bd 6d 4b 02 be b4 36 3a be
       0.16667052 -0.087033264 -0.12724085 -0.1818493
000170 2b 8f 80 be f3 3c 53 3d 81 43 bb 3d e4 46 3f bd
       -0.25109228 0.051571798 0.09143735 -0.046698466
000180 f9 95 00 3e 2e 7c 3a 3e 99 ec 22 3d eb 48 90 3c
       0.1255721 0.18211433 0.03977642 0.017612895
000190 9a 1f c2 bd 2a a4 4d be 44 4e 6c bd 1e 42 3b be
       -0.09478684 -0.20082155 -0.057691827 -0.1828694
0001a0 f1 60 1b 3c d1 98 f3 bd ce fe 91 bd 30 cb a9 bd
       0.009483562 -0.11894382 -0.07128678 -0.08290708
0001b0 d2 2f f8 bd 1c d4 bd bc 88 dd 61 3d 61 fb 54 be
       -0.12118496 -0.02317243 0.05514291 -0.20799018
0001c0 71 a9 5b bd 4c 0c 34 3d 61 2a 78 be b4 0e cc bd
       -0.05362839 0.04395704 -0.24234916 -0.09963742
0001d0 d0 7a f2 3d 0e 52 27 be 52 36 3a 3d 02 51 e0 3d
       0.11839831 -0.16339895 0.04546196 0.10952951
0001e0 9d ec b8 bd e1 5f 27 bd 01 06 92 3d fc 88 0d bd
       -0.090295054 -0.04086292 0.071300514 -0.034554467
0001f0 de c8 fd 3d 1f f2 4b 3e c5 4b 06 bd 28 b1 63 3d
       0.12391828 0.1991658 -0.032787103 0.05558887
000200 7a a8 f9 bd ad ef 13 be 08 19 ce 3d db fd c2 bd
       -0.121903375 -0.14446898 0.10063368 -0.09521075
000210 37 4c 22 3d 4c 39 cc 3d d1 b2 43 be 1e bd ce 3d
       0.039623465 0.09971866 -0.19111182 0.10094665
000220 c5 7a 35 3e 91 bc 5f be c2 b5 a4 3d 17 59 1d be
       0.17722614 -0.21849276 0.0804248 -0.15366016
000230 4c 5c 84 bd ba 32 8c be d2 e0 41 be 46 af c2 bc
       -0.06462917 -0.2738245 -0.18933418 -0.023765218
000240 8f 79 5f bc 6f 00 05 ba 98 91 f7 3d 66 f6 d8 bd
       -0.013639822 -0.0005073612 0.12088317 -0.10593872
000250 37 1d 9a 3c bc 95 2d be 3c 3c 90 be 92 c1 ff bd
       0.018812759 -0.1695165 -0.28170955 -0.124880925
000260 7f 71 98 be 57 e5 52 3e 59 b8 85 3e 04 96 e6 3d
       -0.2977409 0.20595299 0.2611721 0.11259082
000270 8d 8c 78 3c 53 4a 36 3e 63 de cd bd 0a 70 88 be
       0.015170229 0.1780179 -0.100521825 -0.2664798
000280 14 6d c6 bd 0b 22 1d be ff e7 95 3d ee de 3f 3e
       -0.09688774 -0.15345018 0.0731964 0.18737385
000290 a7 53 3c 3e 7c 65 47 be ed 9f 6b bb 15 cb b2 3d
       0.18391286 -0.19472307 -0.0035953477 0.08730141
0002a0 df 15 33 bd 24 d4 c4 bd ec 15 fd 3c ca 7f 6c 3e
       -0.04372203 -0.09610775 0.030894242 0.23095623
0002b0 71 f3 cb 3d ca f9 0a be 1c 9f 23 3e a1 ec 9d 3d
       0.09958542 -0.1357185 0.15978664 0.07711149
0002c0 28 28 73 be fa 64 02 3e 8e 6e e8 3d 81 8f 72 bd
       -0.23745787 0.12733832 0.11349212 -0.059218887
0002d0 76 a6 6b 3d 66 57 9a 3d 1a d6 96 bc 85 60 1e 3e
       0.057531796 0.07536201 -0.018412638 0.15466507
0002e0 26 8c c4 3d e1 f5 e1 3c 97 86 15 3e 5c 1a 50 3e
       0.09597044 0.027583065 0.14602123 0.20322555
0002f0 27 32 72 3d 80 26 86 bd 25 f8 00 3e 12 0b e1 bc
       0.05912986 -0.06550312 0.1259466 -0.027471099
000300 21 6d 10 be e4 3a 2a 3e 18 dc 07 3e c5 5a 82 bd
       -0.1410413 0.16624027 0.13267553 -0.06364969
000310 9f f7 b3 3d e4 68 cb bc d1 9c ab 3d 5e a4 03 be
       0.08787464 -0.02483029 0.0837952 -0.1285567
000320 fc 9c 8e be 69 be 55 bc df c7 91 3c 6d 81 36 3d
       -0.27854145 -0.013045886 0.017795501 0.044557024
000330 c8 b2 b3 be 77 01 0a be cd 05 39 be 97 07 63 be
       -0.35097337 -0.13477121 -0.18068619 -0.22170864
000340 92 cb 4a bd 47 09 1f be 2a 77 97 bb d3 da a6 3d
       -0.049510546 -0.15530883 -0.0046223598 0.08147206
000350 56 ff 0d 3e 97 78 18 be 8d 0a 38 bd 6c b6 d4 3d
       0.13866934 -0.14889751 -0.044931937 0.10386357
000360 56 fd 06 be 77 e6 bb 3c b5 07 1b be 2c 9d 64 bd
       -0.13182577 0.022937043 -0.15139659 -0.055813953
000370 a6 74 c7 bd 35 73 38 bd dc ba e4 bd a2 92 49 3c
       -0.09739046 -0.045031745 -0.11168453 0.012303026
000380 2a 44 bc 3d 47 70 97 3d 93 f3 38 be ae 33 b5 bd
       0.09192689 0.07394462 -0.18061666 -0.08847748
000390 cc a6 07 3e 13 36 a4 bd 52 09 ad bc 8a de 95 3e
       0.13247222 -0.08018126 -0.021122608 0.29271346
0003a0 63 25 20 3e bb cb 01 3e 59 02 a8 be 0b e9 db bd
       0.15639262 0.12675373 -0.3281429 -0.10737809
0003b0 53 92 71 3d 3a 1d 80 be 3f a6 fc 3b 9b 55 ca 3d
       0.058977436 -0.25022298 0.0077102478 0.09879609
0003c0 e4 ea 78 be 27 24 a0 bd 7d 3a 93 bc 0a 0c 8e be
       -0.24308354 -0.078193955 -0.017972225 -0.2774356
0003d0 70 8c 38 be 35 d0 a8 be 62 9f b0 3c 68 8c ba 3d
       -0.18022323 -0.3297135 0.021560375 0.091088116
0003e0 bc 05 b0 3c ea e1 1e 3e 6c 73 5c 3e 8b 10 88 3d
       0.02148711 0.15515867 0.21528405 0.0664378
0003f0 66 04 19 3d 3f 8f 07 3e ba 25 9b 3d 1f 50 4e bd
       0.03735771 0.13238238 0.07575555 -0.05036938

cnn2.0.bias f4 [16]
000000 ba 36 13 bd 86 7a 63 3d e3 24 eb 3d c3 44 f8 bc
       -0.035940863 0.05553677 0.11481645 -0.030306226
000010 3d 62 67 bc 48 1d 3f 3b f6 b6 95 3c 8c 0b c5 3d
       -0.014122543 0.002916174 0.01827572 0.09621343
000020 b3 bc 09 3c 8f ba 4f 3d e1 21 22 3d 78 af f9 3c
       0.008406806 0.050715026 0.03958309 0.030479178
000030 a6 a7 79 bb 84 63 2b 3d 6f 12 ce 3d f4 55 a9 bd
       -0.003809431 0.041842952 0.1006211 -0.082683474

cnn2.1.weight f4 [16]
000000 1d d2 18 40 c7 c6 ef 3f 95 0b 2b 40 e8 34 25 40
       2.3878243 1.8732537 2.672582 2.5813541
000010 27 5a e5 3f 82 c8 64 40 0e 03 54 40 fe c1 f6 3f
       1.7918137 3.574738 3.3126864 1.9277952
000020 22 53 cf 3f e3 e9 4c 40 39 61 18 40 fb 43 13 40
       1.6197245 3.2017753 2.380934 2.3010242
000030 29 b8 2c 40 79 25 33 40 a1 8b 07 40 08 6f 4e 40
       2.6987402 2.7991621 2.1178973 3.2255268

cnn2.1.bias f4 [16]
000000 66 0d f2 bd d1 37 1d bc 59 64 62 be 64 e5 5c be
       -0.11818962 -0.009595827 -0.22108592 -0.2157188
000010 d6 44 34 be 9a 5a c3 3e ac 1e 6a be 40 2b 30 be
       -0.17604384 0.3815506 -0.22863263 -0.17203999
000020 74 11 1a be 25 da 3a be ca 6e b1 be 67 02 72 3e
       -0.1504572 -0.18247278 -0.34654838 0.23633729
000030 d5 e5 d4 3e 99 8e 14 be 92 4f 5e bd 2c a8 9a be
       0.41581598 -0.14507522 -0.054275103 -0.3020643

cnn2.1.running_mean f4 [16]
000000 91 b5 8b 3e db 54 0a 3f 89 98 02 3f de 5c 37 bf
       0.27286962 0.5403573 0.51014 -0.7162608
000010 ae 8a 41 bf f0 6a d9 3e f7 a6 11 3e cb de 63 be
       -0.75602233 0.424644 0.14223848 -0.22252958
000020 aa b6 a9 bf ab 60 ca 3b 5a 36 d9 3e f3 1b 0d bf
       -1.325887 0.0061760745 0.4242428 -0.5512077
000030 38 00 93 3e c6 c5 71 3e ef 24 96 bd b8 9b eb 3e
       0.28711104 0.23610601 -0.07331263 0.4601724

cnn2.1.running_var f4 [16]
000000 cb 0a 65 3e 27 fc 64 3e 6b fe 87 3e b9 3e d0 3e
       0.22367398 0.22361813 0.26561293 0.40672854
000010 20 26 4f 3e e6 ac fd 3e 67 43 12 3f f6 9e 6e 3e
       0.20229387 0.49545974 0.571341 0.23302826
000020 e3 be 7e 3e 71 0c 9f 3e 32 52 82 3e cc b7 3a 3f
       0.24877505 0.3106418 0.25453335 0.729367
000030 46 ee 46 3f de 71 a2 3e 85 c6 12 3f 9f 19 99 3e
       0.77707326 0.317275 0.57334167 0.2990236

output.0.weight f4 [1, 16, 3, 3]
000000 5c 02 19 3e 75 1c 3d 3e 4e ed d9 3f 39 ac 07 bd
       0.14942306 0.18467887 1.7025545 -0.03312323
000010 64 75 e9 3e 25 eb 63 3f 21 7c 81 3e 95 ec c2 3c
       0.45597374 0.8903068 0.25290015 0.023794452
000020 78 b7 8f 3f 23 08 16 3f 54 98 6f 3e 41 1c e7 3e
       1.1227865 0.58606166 0.23397952 0.45138744
000030 eb 76 3a 3f a7 2f ce 3e e5 1a 4f 3e 58 21 77 3f
       0.72837704 0.4027073 0.20225103 0.96535254
000040 ee 27 e3 3e 9e 8a 9a bc c1 cb ae bc 0d 69 1e 3f
       0.443664 -0.018864926 -0.021337392 0.61879045
000050 b7 bb 11 40 eb 55 3a 3e 2b 1f a0 3f f1 40 20 3f
       2.2770822 0.18196838 1.2509512 0.6259909
000060 fa 80 37 3d da f0 9e bd 2a 33 f0 be 47 ab 27 3f
       0.044800736 -0.077607825 -0.46914035 0.65495723
000070 8d 4b 84 3f e6 b3 74 3f 18 00 2a 3f 8b e2 51 3f
       1.0335556 0.95587003 0.66406393 0.819863
000080 5a 78 61 3f 5f 74 05 3f 64 a8 37 3f e1 61 2f 3f
       0.88074267 0.52130693 0.7174132 0.68508726
000090 cf ca 3b 3f 37 a9 82 3e d9 b7 77 3f 8e cf 7c 3e
       0.73356336 0.25519726 0.96764904 0.24688551
0000a0 ab 04 94 bc be 2b d0 3d a7 fd 50 3f 38 1c 0f 3f
       -0.018068632 0.10164593 0.8163704 0.55902433
0000b0 b5 88 ec 3e 6a 0b 55 bf 54 c1 35 bd e0 4b 75 bf
       0.4619805 -0.8322054 -0.044373825 -0.958189
0000c0 77 61 53 bf da f7 95 3f 3b f6 fb be ed cf b3 3d
       -0.82570595 1.1716263 -0.49211296 0.08779893
0000d0 e4 27 c5 3e 13 fe ef bd 4a 70 25 3e 4e ba 11 3f
       0.38506997 -0.11718383 0.16156116 0.56924903
0000e0 e8 09 21 40 f4 e1 85 be 64 c4 1f be f3 68 df 3f
       2.5162296 -0.2614895 -0.15602261 1.7453903
0000f0 0f 10 82 be 55 60 2c bf 96 0a 94 3e 9d d2 e1 3e
       -0.25402877 -0.6733449 0.28914326 0.44105998
000100 b0 69 80 3f 7b 2c 16 3f ac b6 e2 3e c6 b4 10 3f
       1.0032253 0.5866162 0.44279993 0.5652584
000110 29 23 a1 3e 96 dd ff 3d 89 a3 33 3e e0 1b 7c 3e
       0.31472138 0.12493436 0.17542852 0.24620008
000120 38 ab 70 3e 1d d3 b4 3d 53 2e 15 3f a3 f5 d5 3e
       0.23502815 0.08829329 0.5827381 0.41788968
000130 fb e4 51 3e d9 96 db 3e 0b 8f 30 3f 57 94 ee 3e
       0.20497505 0.42888525 0.68968266 0.4659755
000140 2e af fe 3e c9 52 3d 3f 34 9e 85 3f 88 2c b3 3f
       0.49743026 0.73954445 1.0438905 1.3997965
000150 57 a2 21 3f 3e a2 da 3e e6 a6 cd 3f d8 cf 79 3f
       0.63138336 0.42701906 1.6066558 0.9758277
000160 04 c9 88 3f 4d 6f 2e 3f af b2 36 bd c8 08 21 be
       1.0686345 0.6813858 -0.044604 -0.15726006
000170 7b 8b 2a 3e 3f 9a 4e 3e b7 89 ad 3e b6 9f 32 3e
       0.1665477 0.20176028 0.3389413 0.17443737
000180 7a ff d6 3f 8b f9 f4 3f 45 72 9c 3f dd 0a 95 bf
       1.6796715 1.9138654 1.2222372 -1.164394
000190 b3 d2 45 bf e7 d8 4a bf f7 30 8c bf 93 a0 3b bf
       -0.77274626 -0.79237217 -1.0952443 -0.7329189
0001a0 bb 66 42 bf 2f 45 ae bf 9e 74 64 bf 87 15 71 bf
       -0.75938004 -1.3614863 -0.89240444 -0.94173473
0001b0 50 18 da bf 56 b0 99 bf de 25 ab bf 7c 43 ac bf
       -1.703867 -1.2006938 -1.3370931 -1.3458095
0001c0 77 04 9d be 64 57 8a bf c1 4a c1 bf ab bd 68 bf
       -0.3066747 -1.080792 -1.5100938 -0.9091441
0001d0 ab 1a b3 bf 2e 21 17 3f 90 76 81 3f 60 97 ce 3e
       -1.3992513 0.59035003 1.0114307 0.40349865
0001e0 70 66 d9 3f 3a 10 ad 3f ab d8 95 3f e9 cc 91 3f
       1.6984386 1.3520577 1.1706747 1.1390659
0001f0 45 e4 af 3f 23 0d 53 bd 8b f8 55 3f cc a9 fb 3e
       1.3741537 -0.0515262 0.8358237 0.49152982
000200 e3 70 93 3d 33 d9 60 3f c9 6f c9 3e 9d 06 8f 3d
       0.07199266 0.8783142 0.39343098 0.06983683
000210 0f 80 a2 3f 20 06 16 3f 62 5d 93 3e 76 86 b7 3f
       1.269533 0.58603096 0.28782183 1.4337909
000220 07 3f 83 3f 27 fa 0b 40 2a 53 8d 3f b1 97 2c 3f
       1.025361 2.187143 1.1041005 0.6741896
000230 1c 9a 8c 3f 15 13 9a 3f 5e 91 43 3f a6 6f 8b 3f
       1.098453 1.2037073 0.7639369 1.0893447
