pretrain/2017/net1-500-dice.pkl (torch, 366687 bytes, 49 tensors)

cnn1.0.weight f4 [16, 3, 1, 1]
-0.06496502 -0.19102265 -0.3724952 0.00053281995 0.5460194 -0.33675778 -0.22269061 0.34112304
0.4339335 -0.33421 0.35052842 -0.46892557 -0.5145916 0.24180324 0.4721319 0.36473888
-0.42925388 0.037873145 -0.5643286 0.37791505 0.21431601 -0.15732916 -0.36540252 -0.13245457
0.14434569 -0.3512695 0.3609499 0.053090584 0.18994538 -0.54210347 0.16920719 -0.14356335
0.0011589259 0.22080822 -0.004197143 0.15449125 -0.29429796 0.5072892 -0.3428218 0.12500116
-0.3739059 -0.47998214 0.010498776 0.20491663 -0.3892011 -0.04585667 -1.0516065 -0.011847823
00000000: 610c 85bd 719b 43be b1b7 bebe f1ac 0b3a
00000010: edc7 0b3f 846b acbe 0209 64be aea7 ae3e
00000020: 882c de3e 931d abbe 7678 b33e 0317 f0be
00000030: 46bc 03bf 459b 773e 46bb f13e 0ebf ba3e
00000040: 2ac7 dbbe df20 1b3d d777 10bf 157e c13e
00000050: a875 5b3e e51a 21be 0a16 bbbe 2ca2 07be
00000060: 5bcf 133e 99d9 b3be 6dce b83e 8375 593d
00000070: 0b81 423e 4bc7 0abf a644 2d3e 4502 13be
00000080: 1ae7 973a 8d1b 623e 3088 89bb f432 1e3e
00000090: 39ae 96be b4dd 013f 5786 afbe 4e00 003e
000000a0: 9870 bfbe 38c0 f5be 0f03 2c3c aad5 513e
000000b0: 5e45 c7be 34d4 3bbd 0b9b 86bf 5f1d 42bc

cnn1.0.bias f4 [16]
0.08187032 -0.53915644 -0.10326722 0.24704307 -0.48844522 -0.09639031 -0.011516144 -0.48362622
-0.44189075 0.10059131 0.028827848 -0.16687873 -0.26215395 -0.19991054 0.1900949 0.55716854
00000000: a0ab a73d 2806 0abf c47d d3bd dcf8 7c3e
00000010: 7e15 fabe 4868 c5bd 35ae 3cbc db9d f7be
00000020: 813f e2be d102 ce3d 6128 ec3c 42e2 2abe
00000030: 0b39 86be 59b5 4cbe 3da8 423e 99a2 0e3f

cnn1.1.weight f4 [16]
0.9816242 0.8944397 0.79641056 0.9711867 0.83127236 0.98104686 0.95082164 0.968249
1.0656805 0.9302779 1.0336297 0.75880826 1.009696 0.8755383 0.9633432 0.9938872
00000000: b94b 7b3f 00fa 643f 90e1 4b3f b19f 783f
00000010: 44ce 543f e325 7b3f 0c69 733f 2bdf 773f
00000020: 3868 883f b126 6e3f fa4d 843f 4241 423f
00000030: b83d 813f 4723 603f a99d 763f 646f 7e3f

cnn1.1.bias f4 [16]
-0.113655545 -0.03357707 0.4206521 0.13754083 0.31135887 0.43795818 -0.028353 -0.103551775
-0.108353905 -0.17544428 0.39716882 0.61921984 0.30115822 -0.2504648 0.3299436 0.1878709
00000000: 3dc4 e8bd 1c88 09bd b65f d73e 81d7 0c3e
00000010: 6e6a 9f3e 0e3c e03e 8d44 e8bc f412 d4bd
00000020: a7e8 ddbd aaa7 33be b659 cb3e 3185 1e3f
00000030: 6931 9a3e ec3c 80be 5eee a83e 3b61 403e

cnn1.1.running_mean f4 [16]
-0.35566428 -0.34898567 0.2556692 -0.06398135 -0.41340777 -0.10025738 -0.04224795 -0.9697116
-0.35416391 -0.06727632 0.058008082 0.1078125 -0.3416944 -0.6917752 0.09870735 -0.2746952
00000000: a119 b6be 40ae b2be 13e7 823e a708 83bd
00000010: 2faa d3be be53 cdbd 300c 2dbd 053f 78bf
00000020: f954 b5be 2bc8 89bd e299 6d3d cdcc dc3d
00000030: 92f2 aebe 2e18 31bf 1427 ca3d d9a4 8cbe

cnn1.1.running_var f4 [16]
0.011640943 0.0016343002 0.010772153 0.005060374 0.0033076513 0.0003357769 0.0009778829 0.012029249
0.0007004726 0.0033550276 3.0256926e-05 0.0034523876 0.00038390871 0.01720962 0.0011872051 0.036831297
00000000: a7b9 3e3c 0436 d63a af7d 303c 7ed1 a53b
00000010: 2ec5 583b 360b b039 4e2c 803a 5416 453c
00000020: ec9f 373a 06e0 5b3b 41d0 fd37 7441 623b
00000030: 5b47 c939 30fb 8c3c fe9b 9b3a 6adc 163d

cnn1.3.weight f4 [16, 16, 1, 1]
-0.008982241 0.12305642 -0.15111662 -0.025418283 0.054061912 0.12116918 0.13754506 -0.2733997
0.2869069 -0.17916982 -0.14619003 -0.049600832 0.07999467 -0.12788759 0.029120259 0.17097843
0.20317817 -0.012324153 -0.22872786 -0.13585597 0.099074155 -0.20490159 -0.049848165 0.09880576
-0.081944965 -0.15187348 0.12405326 -0.20438462 -0.32809147 0.022331214 -0.15988414 0.2538504
0.037119262 -0.05837385 -0.1081172 0.13963717 -0.2321074 0.27681795 0.026146 0.16868985
0.12786765 -0.27307096 -0.123016894 0.2048179 0.10332121 -0.021213843 -0.20786041 -0.17053379
0.23325571 -0.14066423 0.20627424 -0.034863647 -0.12203951 -0.26279584 -0.06557696 0.008768825
0.13723707 0.21133944 0.36602786 -0.103851326 0.07714656 0.029974695 -0.050246984 -0.18447596
-0.020976117 0.008160631 -0.119732566 0.054134313 0.3641677 0.05274481 0.16660374 -0.23082882
0.35019016 0.25191104 0.01597218 -0.12944682 0.18971108 0.041280724 -0.027623866 -0.24652112
-0.06878554 -0.15162477 0.32923192 -0.20654239 -0.07165135 0.018133348 -0.02332442 0.11732252
0.016142623 -0.091457665 0.18958522 0.13672237 0.13352196 -0.1436449 0.24982432 0.05234132
0.034847643 -0.27384958 0.2594002 0.052910123 -0.16162929 0.11205252 0.0766592 0.13151215
0.13396174 -0.02236891 -0.30509764 0.056559414 0.04772565 0.20786832 -0.034194298 0.06464963
0.23793773 -0.19866711 0.18371834 0.19151199 0.1056505 0.25109303 -0.3189973 -0.023937078
-0.0033475587 -0.24074478 -0.186254 0.19306324 0.11197603 -0.097020485 0.0039807726 -0.073497646
0.12262165 0.09665364 0.14779273 0.19500326 0.009202112 -0.14725569 -0.09454213 -0.15589042
-0.069492415 0.19663312 0.43613356 0.12420379 -0.018448247 -0.0764506 -0.04566793 -0.070071414
0.07667526 -0.11731834 -0.008368941 -0.052444655 -0.07422797 0.22629243 -0.16341831 -0.023230974
0.18227579 -0.16593008 -0.15874846 0.26717377 0.16311038 0.032475375 -0.15504856 -0.012477053
0.13254327 -0.0806858 0.35582414 -0.06020902 -0.18168588 0.08845553 -0.29596275 0.06985601
-0.08065213 -0.009427983 0.011562965 0.074219264 -0.17823501 0.045450654 -0.17026424 0.16696641
0.2823811 0.056765597 0.12429156 -0.073118806 0.043039568 0.18656434 -0.28311664 -0.119402185
0.10839667 -0.18987314 -0.30397907 -0.06680971 0.060890794 0.26964256 0.050957493 0.028084211
0.07520505 0.24283549 0.08452951 0.13622792 -0.17092334 0.1439346 0.0530127 -0.00020199295
0.18264602 -0.06969719 0.22361729 0.47313508 0.0212708 0.34622124 0.10938436 -0.017493166
-0.120764986 0.17366017 0.05550424 0.17826569 0.12960611 -0.14230649 -0.07851393 0.22425273
0.1660388 -0.14162701 0.20202702 -0.31474528 -0.12672153 -0.15019402 -0.030851552 0.17118199
0.15113443 0.17706572 0.052651238 0.27569142 -0.101906985 -0.1990539 -0.16574432 0.061344385
0.2288469 -0.1908994 0.025568185 -0.32665983 -0.33497006 -0.03990531 0.13593481 -0.062402602
-0.15303494 -0.045437887 -0.15585704 0.017976256 0.02343851 -0.13053082 -0.06713645 -0.17622332
0.0326565 0.08241857 0.25087005 0.31214696 0.10733634 -0.059018414 0.116184294 -0.12771906
00000000: 402a 13bc 0105 fc3d 51be 1abe 013a d0bc
00000010: 0670 5d3d 8c27 f83d 9dd8 0c3e 0cfb 8bbe
00000020: 76e5 923e 4b78 37be d7b2 15be 3e2a 4bbd
00000030: 3fd4 a33d f7f4 02be 9c8d ee3c f814 2f3e
00000040: f00d 503e 3feb 49bc a337 6abe d41d 0bbe
00000050: 64e7 ca3d b9d1 51be 972d 4cbd ad5a ca3d
00000060: c3d2 a7bd b984 1bbe a30f fe3d 344a 51be
00000070: 9bfb a7be f3ef b63c abb8 23be aef8 813e
00000080: 5e0a 183d 6b19 6fbd 8d6c ddbd 0cfd 0e3e
00000090: 90ad 6dbe 15bb 8d3e 2330 d63c 08bd 2c3e
000000a0: bdef 023e f5cf 8bbe 48f0 fbbd c9bb 513e
000000b0: 129a d33d a7c8 adbc 5cd9 54be 69a0 2ebe
000000c0: 96da 6e3e 490a 10be 8e39 533e 2fcd 0ebd
000000d0: daef f9bd 2d8d 86be 374d 86bd 1eab 0f3c
000000e0: e087 0c3e 5e69 583e 0168 bb3e 01b0 d4bd
000000f0: 04ff 9d3d 7e8d f53c c8cf 4dbd 44e7 3cbe
00000100: 1bd6 abbc 2bb4 053c 5936 f5bd f1bb 5d3d
00000110: 3074 ba3e f10a 583d 2c9a 2a3e 645e 6cbe
00000120: 204c b33e 7cfa 803e 17d8 823c b58d 04be
00000130: 9f43 423e fa15 293d 724b e2bc 0870 7cbe
00000140: 6fdf 8cbd 8643 1bbe 1691 a83e d97f 53be
00000150: f1bd 92bd 638c 943c db12 bfbc ca46 f03d
00000160: 893d 843c 284e bbbd a122 423e f300 0c3e
00000170: fbb9 083e a617 13be f2d1 7f3e da63 563d
00000180: 67bc 0e3d 0336 8cbe 1ad0 843e 49b8 583d
00000190: 2682 25be cb7b e53d 80ff 9c3d 1fab 063e
000001a0: 442d 093e 013f b7bc c235 9cbe d8aa 673d
000001b0: f97b 433d 6fdb 543e 520f 0cbd 0667 843d
000001c0: f3a5 733e 646f 4bbe a920 3c3e b81b 443e
000001d0: 4a5f d83d 448f 803e 9d53 a3be b117 c4bc
000001e0: b762 5bbb cd85 76be 5eb9 3ebe 5fb2 453e
000001f0: b053 e53d adb2 c6bd 2471 823b ef85 96bd
00000200: 0f21 fb3d 58f2 c53d fa56 173e efae 473e
00000210: 75c4 163c 32ca 16be 4e9f c1bd bda1 1fbe
00000220: 0a52 8ebd 315a 493e e64c df3e 8f5e fe3d
00000230: c720 97bc 2292 9cbd 4c0e 3bbd 9a81 8fbd
00000240: eb07 9d3d 9944 f0bd e21d 09bc 35d0 56bd
00000250: d504 98bd 34b9 673e 2157 27be e24e bebc
00000260: 81a6 3a3e 93e9 29be f58e 22be 00cb 883e
00000270: 6806 273e e604 053d 0dc5 1ebe 8e6c 4cbc
00000280: 6cb9 073e 993e a5bd 952e b63e bc9d 76bd
00000290: dd0b 3abe 2c28 b53d 6e88 97be ab10 8f3d
000002a0: f22c a5bd d477 1abc 9772 3d3c 4500 983d
000002b0: 3d83 36be 772a 3a3d c059 2ebe 3ef9 2a3e
000002c0: 4194 903e 0b83 683d 938c fe3d 50bf 95bd
000002d0: 424a 303d b90a 3f3e aaf4 90be 2289 f4bd
000002e0: 13ff dd3d 1b6e 42be 25a3 9bbe 87d3 88bd
000002f0: a068 793d 970e 8a3e ceb8 503d dc10 e63c
00000300: 1b05 9a3d dea9 783e cf1d ad3d 557f 0b3e
00000310: 8706 2fbe 9763 133e d823 593d 12ce 53b9
00000320: 8f07 3b3e 66bd 8ebd eefb 643e c33e f23e
00000330: 1a40 ae3c e943 b13e e804 e03d d44d 8fbc
00000340: a253 f7bd f9d3 313e 6a58 633d 488b 363e
00000350: 77b7 043e cbb8 11be e9cb a0bd 82a2 653e
00000360: 1306 2a3e ac06 11be 2ce0 4e3e 4b26 a1be
00000370: 4ac3 01be 76cc 19be 65bc fcbc 554a 2f3e
00000380: fcc2 1a3e b750 353e d3a8 573d 6d27 8d3e
00000390: 9cb4 d0bd c9d4 4bbe e1b8 29be 4044 7b3d
000003a0: d756 6a3e 227b 43be 5f74 d13c f53f a7be
000003b0: 3281 abbe c073 23bd 7f32 0b3e df99 7fbd
000003c0: 31b5 1cbe 141d 3abd fd98 1fbe f142 933c
000003d0: 1e02 c03c dfa9 05be d67e 89bd e373 34be
000003e0: d2c2 053d 11cb a83d 0a72 803e bad1 9f3e
000003f0: 28d3 db3d 4bbd 71bd 08f2 ed3d c9c8 02be

cnn1.3.bias f4 [16]
0.20253265 -0.12005745 -0.006849416 -0.112600945 0.15707675 0.113537766 -0.16520211 -0.042276356
-0.21120305 0.13092668 0.090174526 0.19091979 0.1550669 0.20285605 0.0024054013 -0.1800757
00000000: b864 4f3e aee0 f5bd 1171 e0bb 539b e6bd
00000010: bad8 203e 7d86 e83d be2a 29be f929 2dbd
00000020: 9d45 58be a511 063e 6cad b83d 7a80 433e
00000030: dcc9 1e3e 7fb9 4f3e f0a3 1d3b c465 38be

cnn1.4.weight f4 [16]
2.2710917 1.8202518 1.6296958 1.937564 1.7211285 2.0347846 1.4562604 1.346918
2.02728 2.3459706 1.8508008 1.3958356 1.686597 1.5132687 1.8880918 1.0898659
00000000: 9159 1140 03fe e83f df99 d03f 1902 f83f
00000010: f04d dc3f e939 0240 be66 ba3f cf67 ac3f
00000020: f5be 0140 6224 1640 0ae7 ec3f beaa b23f
00000030: 69e2 d73f cab2 c13f feac f13f ba80 8b3f

cnn1.4.bias f4 [16]
0.69331735 0.3650237 0.080884226 0.8058627 0.75770414 0.43144882 0.028425403 0.005432344
0.48828834 0.6024331 0.4900952 0.14595158 0.4221494 0.16239625 0.42385468 -0.18958947
00000000: 3f7d 313f 63e4 ba3e a1a6 a53d 054d 4e3f
00000010: e6f8 413f dce6 dc3e 64dc e83c ce01 b23b
00000020: ee00 fa3e 0e39 1a3f c2ed fa3e 5574 153e
00000030: f723 d83e 344b 263e 7b03 d93e be23 42be

cnn1.4.running_mean f4 [16]
0.24411534 -0.61180675 0.0028952756 -0.041862715 0.40943262 0.53962255 -0.0012316144 0.22584492
0.14121594 0.25525743 0.09578203 0.25377497 1.0621723 0.21680172 -0.2945025 -0.032466527
00000000: 5ff9 793e 5e9f 1cbf aabe 3d3b 3d78 2bbd
00000010: 27a1 d13e b424 0a3f 1f6e a1ba e443 673e
00000020: e99a 103e 1ab1 823e 5e29 c43d cbee 813e
00000030: 43f5 873f 4501 5e3e 08c9 96be 9ffb 04bd

cnn1.4.running_var f4 [16]
0.05520461 0.0487269 0.008092639 0.026969682 0.12770148 0.022515545 0.11796201 0.028280366
0.069989294 0.014125 0.043752417 0.061260536 0.14669368 0.013972187 0.013939434 0.09182676
00000000: 3b1e 623d dc95 473d fd96 043c 86ef dc3c
00000010: 2dc4 023e 8572 b83c 1196 f13d 3aac e73c
00000020: 8c56 8f3d 8b6c 673c bc35 333d 54ec 7a3d
00000030: de36 163e 9aeb 643c 3962 643c ab0f bc3d

cnn2.0.weight f4 [16, 3, 3, 3]
0.12436243 0.30850413 0.10170479 0.020239076 -0.14938976 0.1846542 0.049650636 0.17020462
0.29318938 0.05250672 -0.08706961 0.014167076 0.12583107 -0.29988483 -0.08944917 0.1285377
-0.12866035 0.060398243 0.05375079 0.13634446 -0.1808915 0.12933491 -0.21025333 -0.10980556
-0.2165611 0.069203116 -0.08644164 0.12175462 0.24849325 0.0036531566 -0.062017847 0.021473462
-0.04117524 0.06986691 -0.2370754 0.009015301 0.06538896 0.25375107 0.08547524 0.09203039
0.06596915 -0.07017234 -0.26731074 -0.4216202 -0.025020376 -0.00798346 0.17415102 -0.003361822
-0.110408776 -0.020257913 0.13113396 0.068844445 -0.030874195 -0.06386787 0.17745379 0.18997386
0.28896728 -0.00037217795 -0.16748436 0.08648693 -0.28069633 -0.018622858 -0.034106858 0.0690772
-0.068496995 0.29669997 -0.14778794 0.06792754 0.07842559 -0.1821713 -0.112146206 -0.09027716
0.09034883 -0.024959443 0.063463725 -0.15362649 -0.19876093 0.23120195 -0.05271523 -0.16450438
0.068682596 0.12268445 -0.14879705 -0.023770036 0.0016773673 -0.05932888 -0.007945532 -0.0026483652
0.11648591 0.112825684 0.1845921 -0.18314362 -0.17758422 0.035254773 -0.12825629 -0.22546975
0.13226844 -0.058945883 -0.12796661 -0.079047985 0.17500077 0.23982121 -0.1462232 -0.15831356
0.14903024 -0.008614042 0.02081146 0.17857896 0.07377961 0.09206284 0.141817 0.15206842
0.0228987 0.21081176 0.23146383 0.23533791 0.06454443 0.024398794 -0.25708517 -0.30087996
-0.16595674 -0.09516361 -0.03445395 0.10244406 -0.11962963 0.079487436 0.114931576 -0.0806504
-0.18120138 -0.05958727 -0.051185105 -0.08944031 0.037772298 -0.24088179 0.053139236 0.15550965
-0.06697446 0.1594448 -0.010611826 -0.1904083 0.168834 0.113583125 -0.044559047 -0.10381148
-0.015015035 -0.20218927 0.062218923 -0.014020467 -0.018207848 0.055629853 0.033786144 -0.2699713
0.022778846 0.16824467 -0.22263302 -0.098931104 0.17754535 -0.3206378 0.23082843 0.16063757
-0.031313315 0.16970123 -0.06346044 0.04177944 -0.10295608 0.2021948 0.089068875 -0.09137209
-0.17155005 -0.109013475 -0.0623813 0.09036905 0.23520128 0.22955114 0.048801538 0.12398675
0.06494595 0.17989583 0.09779394 0.07784954 -0.040347237 -0.17574537 -0.17861937 0.022234594
-0.022117417 -0.103859805 0.11861457 -0.006399286 -0.056388274 0.22539447 0.1897603 -0.055759728
0.14438745 0.16335198 -0.13194704 -0.0003866162 -0.1311214 -0.034808755 -0.060401868 0.0010922342
-0.04893154 0.18310405 0.14767045 -0.06758792 -0.04956149 -0.2196856 -0.2175056 0.096644334
-0.031165846 0.06913646 0.1791572 0.15015195 -0.048778072 -0.076310724 -0.14695108 -0.2183895
0.2451484 -0.029157398 -0.13366179 -0.0843294 -0.09540402 -0.22290444 -0.0948929 -0.03960345
-0.068624094 0.078870684 -0.045903046 -0.16924343 0.20818071 0.22103454 0.2255426 -0.17361864
0.24287362 0.22178832 0.008281382 0.14466643 -0.05876631 -0.14211163 0.00014896861 -0.19695562
-0.124548554 -0.1450279 0.010263742 -0.14654072 0.024421126 -0.16993639 0.22486103 0.14239252
0.09271255 -0.23193079 0.03261026 -0.25045207 0.0057188566 0.13886513 0.13525498 -0.1596913
00000000: bbb1 fe3d 41f4 9d3e 9a4a d03d 6bcc a53c
00000010: a1f9 18be fe15 3d3e 775e 4b3d 1f4a 2e3e
00000020: eb1c 963e 4911 573d 8d51 b2bd 061d 683c
00000030: dcd9 003e 818a 99be 2031 b7bd 639f 033e
00000040: 8abf 03be 2664 773d ca29 5c3d e29d 0b3e
00000050: 9f3b 39be 5f70 043e a64c 57be bde1 e0bd
00000060: 31c2 5dbe 5dba 8d3d 5108 b1bd 7c5a f93d
00000070: 0475 7e3e cc69 6f3b 6d06 7ebd 1de9 af3c
00000080: 5ea7 28bd 6216 8f3d e5c3 72be eab4 133c
00000090: a6ea 853d a9eb 813e a50d af3d 6e7a bc3d
000000a0: d51a 873d 84b6 8fbd f4dc 88be 9ade d7be
000000b0: 88f7 ccbc 0fcd 02bc a554 323e 0452 5cbb
000000c0: ff1d e2bd ecf3 a5bc fb47 063e 51fe 8c3d
000000d0: e1eb fcbc 28cd 82bd 72b6 353e 8288 423e
000000e0: 85f3 933e e120 c3b9 0581 2bbe 0f20 b13d
000000f0: 6eb7 8fbe f78e 98bc a2b3 0bbd 5978 8d3d
00000100: 2748 8cbd 0fe9 973e b955 17be 981d 8b3d
00000110: 999d a03d 1d8b 3abe e9ac e5bd 3be3 b8bd
00000120: cf08 b93d bf77 ccbc 45f9 813d 4350 1dbe
00000130: fc87 4bbe 34c0 6c3e edeb 57bd d673 28be
00000140: 76a9 8c3d fc41 fb3d 415e 18be 61b9 c2bc
00000150: 1bdb db3a d702 73bd fa2d 02bc 3290 2dbb
00000160: 2a90 ee3d 2711 e73d b605 3d3e 008a 3bbe
00000170: a3d8 35be 4f67 103d 9e55 03be 8be1 66be
00000180: 6171 073e 3d71 71bd ae09 03be e9e3 a1bd
00000190: 6733 333e b193 753e 89bb 15be f31c 22be
000001a0: 629b 183e e921 0dbc cc7c aa3c 67dd 363e
000001b0: c419 973d 718b bc3d 7a38 113e d3b7 1b3e
000001c0: 0e96 bb3c 0adf 573e db04 6d3e 6cfc 703e
000001d0: df2f 843d fbdf c73c aba0 83be f00c 9abe
000001e0: 90f0 29be 24e5 c2bd 961f 0dbd 31ce d13d
000001f0: 6100 f5bd 4fca a23d 3f61 eb3d 092c a5bd
00000200: db8c 39be c811 74bd 79a7 51bd 7b2c b7bd
00000210: 20b7 1a3d b7a9 76be 87a8 593d ec3d 1f3e
00000220: e829 89bd 7f45 233e 39dd 2dbc 65fa 42be
00000230: d2e2 2c3e 459e e83d 8c83 36bd 1d9b d4bd
00000240: 9f01 76bc b40a 4fbe 45d9 7e3d 1ab6 65bc
00000250: a028 95bc 21dc 633d 5763 0a3d ae39 8abe
00000260: b49a ba3c 5548 2c3e e9f9 63be 649c cabd
00000270: 73ce 353e a32a a4be 4a5e 6c3e 2d7e 243e
00000280: 6442 00bd 29c6 2d3e 8cf7 81bd eb20 2b3d
00000290: a3da d2bd 270c 4f3e be69 b63d 4a21 bbbd
000002a0: d1aa 2fbe 7542 dfbd 8983 7fbd 6913 b93d
000002b0: 9bd8 703e 740f 6b3e 1fe4 473d c4ec fd3d
000002c0: 6202 853d 9d36 383e 3048 c83d 946f 9f3d
000002d0: 2543 25bd 98f6 33be ffe7 36be 5325 b63c
000002e0: 962f b5bc 73b4 d4bd 32ec f23d 1ab1 d1bb
000002f0: 64f7 66bd cfcd 663e 8650 423e 5064 64bd
00000300: 4eda 133e be45 273e 201d 07be bfb2 cab9
00000310: b044 06be a093 0ebd f367 77bd 4c29 8f3a
00000320: 706c 48bd a17f 3b3e ec36 173e 896b 8abd
00000330: fd00 4bbd 43f5 60be cab9 5ebe 77ed c53d
00000340: 844f ffbc 6b97 8d3d fc74 373e 6fc1 193e
00000350: 84cb 47bd cc48 9cbd 587a 16be 7fa1 5fbe
00000360: 2f08 7b3e 7fdb eebc a3de 08be e4b4 acbd
00000370: 2f63 c3bd 1041 64be 3557 c2bd 3a37 22bd
00000380: ca8a 8cbd f486 a13d d504 3cbd 264e 2dbe
00000390: 532d 553e e156 623e a4f4 663e 16c9 31be
000003a0: ddb3 783e 7a1c 633e a2ae 073c 7023 143e
000003b0: f1b4 70bd b685 11be 7534 1c39 bcae 49be
000003c0: 5013 ffbd 3282 14be 4129 283c c50e 16be
000003d0: d00e c83c ce03 2ebe f841 663e 58cf 113e
000003e0: 14e0 bd3d 447f 6dbe 5692 053d 413b 80be
000003f0: 3f65 bb3b a932 0e3e 4880 0a3e 1e86 23be

cnn2.0.bias f4 [16]
0.1302765 0.15936331 -0.109120704 0.11101925 -0.088029474 -0.055247527 -0.036162063 0.08719587
0.16762525 0.15589035 0.09806616 0.17097287 -0.13043927 0.123018205 0.07534932 0.18365821
00000000: 3467 053e 2330 233e ad7a dfbd 0f5e e33d
00000010: cc48 b4bd 3b4b 62bd ac1e 14bd c093 b23d
00000020: f4a5 2b3e b8a1 1f3e e9d6 c83d 8313 2f3e
00000030: df91 05be f8f0 fb3d bf50 9a3d e610 3c3e

cnn2.1.weight f4 [16]
0.7813177 1.2301008 1.067589 0.9655192 0.8128065 1.0919672 0.9088143 1.291759
0.8771978 0.9958644 0.7648569 1.0596687 1.0310713 0.8155309 1.1733327 1.0562874
00000000: 7004 483f f173 9d3f c2a6 883f 442c 773f
00000010: 1614 503f 95c5 8b3f 0ea8 683f 5c58 a53f
00000020: 0990 603f f8f0 7e3f a9cd 433f 39a3 873f
00000030: 25fa 833f a2c6 503f c42f 963f 6d34 873f

cnn2.1.bias f4 [16]
0.1279733 -0.33165678 0.15178677 0.08773093 0.19273692 -0.06072908 -0.20215183 -0.1727761
-0.12919085 -0.49317136 -0.5454769 -0.27336943 -0.28297985 0.0031978786 -0.19189663 0.05843053
00000000: 6f0b 033e ebce a9be fe6d 1b3e 46ac b33d
00000010: d45c 453e 0ebf 78bd e400 4fbe 38ec 30be
00000020: 9b4a 04be f580 fcbe 60a4 0bbf 14f7 8bbe
00000030: bce2 90be 8093 513b 8d80 44be da54 6f3d

cnn2.1.running_mean f4 [16]
0.5682437 0.19018638 -0.07744669 0.02633378 -0.0063538044 -0.024196869 0.31910223 0.12212743
0.02862269 0.32261807 -0.0757614 0.17196293 -0.01752189 0.0011350241 0.085736156 0.22759716
00000000: 6b78 113f 38c0 423e 5f9c 9ebd f0b9 d73c
00000010: 9333 d0bb 8338 c6bc 5e61 a33e f21d fa3d
00000020: 227a ea3c 322e a53e cb28 9bbd 0d17 303e
00000030: 118a 8fbc 17c5 943a 7096 af3d 3b0f 693e

cnn2.1.running_var f4 [16]
0.0080453865 0.0111485105 0.019853655 0.0017906973 0.008253661 0.005004861 0.008470277 0.014821613
0.0022086378 0.0078497855 0.0058439607 0.010044257 0.0046647983 0.0022883285 0.004395573 0.0051835496
00000000: ccd0 033c 3ea8 363c 22a4 a23c d5b5 ea3a
00000010: 5d3a 073c d1ff a33b ebc6 0a3c 5ad6 723c
00000020: cbbe 103b 639c 003c b27e bf3b ab90 243c
00000030: 2adb 983b c8f7 153b bd08 903b c4da a93b

cnn2.3.weight f4 [16, 16, 3, 3]
-0.05666411 0.06302531 0.14545296 -0.10211625 -0.063555785 0.16893522 0.044407874 0.065330595
0.11852462 0.022842608 -0.11471669 -0.15467328 -0.094030954 0.023322506 0.11973221 0.010036019
0.19304925 -0.07357465 0.24767493 0.12807117 -0.03369674 -0.132137 -0.22374834 0.024681587
-0.111049704 -0.01271363 0.008312841 -0.022614222 -0.07724206 -0.23322266 -0.03248236 -0.17277159
-0.10616526 -0.12170735 0.019873627 0.0026007602 0.047303803 0.20665692 -0.06494571 0.10634571
-0.0149766905 -0.014428598 0.006196492 0.08666445 0.0713764 -0.048212104 0.059748597 0.09894947
0.11398098 0.041316614 0.020054614 -0.0048113093 -0.1486189 -0.028569916 -0.026108839 -0.022663124
-0.007489975 -0.16194804 -0.016362919 0.092050195 -0.09843112 0.07925158 -0.060313255 -0.0838293
-0.11513966 0.020827036 0.019705717 0.20926142 0.06704884 0.1236586 0.118264996 -0.039639328
0.11132323 0.015302365 0.1395747 0.10994641 -0.009213688 0.009020641 0.12104871 -0.063604735
-0.13656138 -0.029555228 -0.011892997 0.028744025 -0.09881842 -0.11579565 0.08558043 -0.23220368
0.032058302 -0.18245725 0.020077711 -0.040210366 -0.020797823 -0.058030333 -0.029836858 -0.031459924
0.16744609 0.06599519 0.11274736 0.07835068 0.26643944 0.015822394 0.17231704 0.18991582
0.02327681 -0.066509046 -0.047612756 -0.0031655168 -0.066023335 0.007722773 -0.033739664 -0.11855739
-0.075060956 -0.093232445 0.012759217 -0.081426986 0.10915211 0.07168968 0.03042617 0.00967828
-0.19416788 -0.04165085 0.0050003584 -0.08266342 -0.010283421 0.009447483 -0.1284299 0.0516036
-0.09158614 -0.037344106 -0.016292894 0.14904499 -0.15115891 0.07290226 0.035917956 -0.17616647
-0.09278128 -0.04726947 -0.0859316 0.012973955 -0.0006070155 -0.10349699 0.0182941 -0.05762184
-0.033775363 0.075814545 0.07122262 0.04426823 0.061876137 0.031512517 -0.007714537 0.025950367
0.0951323 0.24850622 -0.13213357 -0.22337791 0.46762538 -0.10237731 -0.28767097 0.3089706
0.03455053 -0.13058738 0.19601162 0.1503837 -0.11543683 0.08674208 -0.14963734 -0.05264673
-0.0051800283 -0.09616355 -0.08220365 -0.026809799 -0.017111443 -0.018786492 -0.15190579 0.02445302
0.037882134 -0.096015655 -0.002001164 0.03597953 0.03954702 0.056351386 0.019738426 -0.011237566
-0.015441846 -0.19342338 0.04850976 0.018803354 -0.07954953 -0.063583925 0.09795503 0.014525834
-0.111403525 -0.07235766 0.14389867 -0.1143897 0.1644065 -0.020221384 0.0022512972 0.10537492
-0.024824971 -0.1420123 0.006330634 0.0098200375 0.039309245 -0.07430042 -0.062150184 -0.0030932499
-0.30492175 -0.05579439 0.018865969 -0.1583123 -0.02441151 0.10681122 -0.065512784 0.07418736
-0.09894795 -0.08797056 0.0777953 -0.038075835 0.10367359 -0.053260628 0.1777933 0.030912077
-0.089017205 0.21681365 -0.13010061 -0.107574664 0.19932573 0.004497363 0.012260455 -0.07963289
-0.1512366 0.109140396 -0.023427268 -0.08472355 -0.121614724 0.006785625 -0.1301886 -0.18471298
0.0702155 -0.032761116 0.071090475 0.11105035 -0.024101542 0.0899717 0.30664265 -0.10066463
-0.028956106 0.113173395 -0.15119104 -0.2504668 -0.19490495 0.08072658 -0.06644588 -0.105546676
00000000: a018 68bd 6a13 813d 9ff1 143e 5322 d1bd
00000010: 8929 82bd 5bfd 2c3e 08e5 353d 0ccc 853d
00000020: 09bd f23d 6c20 bb3c 95f0 eabd ac62 1ebe
00000030: 4d93 c0bd d70e bf3c 2936 f53d 1d6e 243c
00000040: b4ae 453e 4eae 96bd 7f9e 7d3e 1725 033e
00000050: 9805 0abd ec4e 07be 491e 65be 0a31 ca3c
00000060: 076e e3bd d44c 50bc 9532 083c 7641 b9bc
00000070: 1631 9ebd ecd1 6ebe 390c 05bd 09eb 30be
00000080: 2c6d d9bd b441 f9bd 04ce a23c 8471 2a3b
00000090: a2c1 413d df9d 533e 4202 85bd c8cb d93d
000000a0: cb60 75bc ed65 6cbc f10b cb3b 227d b13d
000000b0: ca2d 923d 0e7a 45bd f2ba 743d 05a6 ca3d
000000c0: dc6e e93d 9c3b 293d 9349 a43c 30a8 9dbb
000000d0: 8e2f 18be 750b eabc 34e2 d5bc 04a8 b9bc
000000e0: 776e f5bb b5d5 25be 870b 86bc d084 bc3d
000000f0: 4196 c9bd a74e a23d 080b 77bd b2ae abbd
00000100: 58ce ebbd 769d aa3c e26d a13c a048 563e
00000110: e750 893d b840 fd3d eb34 f23d d95c 22bd
00000120: 6ffd e33d c5b6 7a3c acec 0e3e 952b e13d
00000130: 02f5 16bc 50cb 133c 63e8 f73d 3343 82bd
00000140: bfd6 0bbe ce1d f2bc d8da 42bc 9778 eb3c
00000150: 5061 cabd 4526 edbd cb44 af3d cdc6 6dbe
00000160: 914f 033d 13d6 3abe 037a a43c a0b3 24bd
00000170: 3260 aabc 37b1 6dbd 6d6c f4bc 1fdc 00bd
00000180: fd76 2b3e 7c28 873d 16e8 e63d 5276 a03d
00000190: c06a 883e f79d 813c e173 303e 4b79 423e
000001a0: 02af be3c e535 88bd 9805 43bd 8f74 4fbb
000001b0: 3e37 87bd 510f fd3b 9a32 0abd 38ce f2bd
000001c0: 8fb9 99bd a7f0 bebd 090c 513c 31c3 a6bd
000001d0: 248b df3d 0ad2 923d 4e40 f93c a691 1e3c
000001e0: f2d3 46be 159a 2abd 0cda a33b 704b a9bd
000001f0: cb7b 28bc 9ec9 1a3c 2183 03be 4c5e 533d
00000200: 8491 bbbd 22f6 18bd ad78 85bc 409f 183e
00000210: 67c9 1abe c84d 953d b51e 133d fc64 34be
00000220: 1d04 bebd a29d 41bd e8fc afbd b690 543c
00000230: 1f20 1fba 3bf6 d3bd 82dd 953c e104 6cbd
00000240: 0958 0abd a844 9b3d 2add 913d 9b52 353d
00000250: d571 7d3d 4513 013d 3aca fcbb dd95 d43c
00000260: b9d4 c23d 6a78 7e3e 064e 07be 2ebd 64be
00000270: 986c ef3e 32ab d1bd 9c49 93be 6531 9e3e
00000280: db84 0d3d b3b8 05be 45b7 483e 2ffe 193e
00000290: 256a ecbd d5a5 b13d 883a 19be 19a4 57bd
000002a0: 3abd a9bb 65f1 c4bd 635a a8bd 39a0 dbbc
000002b0: 4c2d 8cbc 21e6 99bc 318d 1bbe b351 c83c
000002c0: 4c2a 1b3d dba3 c4bd f625 03bb 465f 133d
000002d0: 0efc 213d b6d0 663d 7bb2 a13c c51d 38bc
000002e0: ccff 7cbc c710 46be 2cb2 463d 7e09 9a3c
000002f0: ddea a2bd 4a38 82bd a69c c83d c3fd 6d3c
00000300: 8827 e4bd 4130 94bd 2c5a 133e 2645 eabd
00000310: 2d5a 283e 51a7 a5bc 808a 133b cece d73d
00000320: bd5d cbbc ac6b 11be 3571 cf3b 39e4 203c
00000330: bb02 213d d22a 98bd 3191 7ebd 1fb8 4abb
00000340: b41e 9cbe a988 64bd ce8c 9a3c 9f1c 22be
00000350: a6fa c7bc d7bf da3d 912b 86bd 8bef 973d
00000360: 39a5 cabd e929 b4bd 2453 9f3d 68f5 1bbd
00000370: d252 d43d d127 5abd 720f 363e 533b fd3c
00000380: a74e b6bd 6604 5e3e 1839 05be 1b50 dcbd
00000390: 0b1c 4c3e 9e5e 933b 13e0 483c 9216 a3bd
000003a0: c4dd 1abe 0085 df3d 8bea bfbc 8a83 adbd
000003b0: 2411 f9bd f359 de3b 2950 05be 6625 3dbe
000003c0: 25cd 8f3d 8530 06bd e297 913d 5e6e e33d
000003d0: 9970 c5bc 1543 b83d 4400 9d3e 4229 cebd
000003e0: 5b35 edbc 74c7 e73d d3d1 1abe 2f3d 80be
000003f0: 2a95 47be fa53 a53d c714 88bd db28 d8bd

cnn2.3.bias f4 [16]
-0.03583589 -0.057206377 0.028628731 0.04138638 0.07428926 -0.015837876 0.04571066 -0.0897053
0.06445949 0.07640992 -0.02970166 0.011368827 0.02216563 0.028020756 -0.056611516 0.01912612
00000000: a7c8 12bd 3c51 6abd cd86 ea3c c484 293d
00000010: f824 983d 6fbe 81bc 1a3b 3b3d 6ab7 b7bd
00000020: 5603 843d ce7c 9c3d e550 f3bc 5144 3a3c
00000030: b294 b53c c98b e53c 7ae1 67bd 61ae 9c3c

cnn2.4.weight f4 [16]
2.2968721 3.8066912 2.5343745 2.1346846 1.7249516 1.979586 2.2063088 2.2654943
2.2977881 3.1854537 2.3046076 1.9446598 2.3027706 2.5024014 1.9159192 2.3630748
00000000: f4ff 1240 d4a0 7340 3133 2240 ac9e 0840
00000010: 37cb dc3f 1363 fd3f 2a34 0d40 dcfd 1040
00000020: f60e 1340 79de 4b40 b17e 1340 9dea f83f
00000030: 9860 1340 5827 2040 d73c f53f 9e3c 1740

cnn2.4.bias f4 [16]
-0.24783912 0.09143591 0.27340436 0.18356916 0.124654196 -0.11593916 0.1988431 -0.075121336
0.20731181 -0.56913906 0.19616519 0.19672821 0.0059905555 0.5211431 0.26854655 0.18920399
00000000: 8ac9 7dbe c042 bb3d a8fb 8b3e 8ef9 3b3e
00000010: b34a ff3d 8371 edbd 879d 4b3e 37d9 99bd
00000020: 8c49 543e 19b3 11bf 87df 483e 1f73 493e
00000030: 6c4c c43b a269 053f ef7e 893e b1be 413e

cnn2.4.running_mean f4 [16]
-0.107581995 -0.15555805 0.15958762 -0.1353388 0.31479397 -0.18044113 0.09596268 0.12636332
-0.15241036 -0.22341985 -0.38468134 0.12463601 0.023278842 -0.2363726 0.18279989 -0.095968254
00000000: f353 dcbd 9c4a 1fbe f06a 233e 4196 0abe
00000010: ad2c a13e 8fc5 38be 1588 c43d 6365 013e
00000020: 7611 1cbe 2cc8 64be f4f4 c4be 2a41 ff3d
00000030: 45b3 be3c a90b 72be e52f 3b3e 018b c4bd

cnn2.4.running_var f4 [16]
0.17858428 0.43512645 0.12607166 0.18518722 0.23628137 0.10195624 0.21001361 0.0763258
0.19978361 0.28870174 0.23634022 0.24547225 0.17791523 0.15303126 0.20058492 0.23045397
00000000: ccde 363e e5c8 de3e ee18 013e b8a1 3d3e
00000010: bef3 713e 6fce d03d cf0d 573e b350 9c3d
00000020: 1394 4c3e b7d0 933e 2c03 723e 145d 7b3e
00000030: 692f 363e 3ab4 1c3e 2266 4d3e 20fc 6b3e

cnn3.0.weight f4 [16, 3, 7, 7]
0.15033394 -0.021443084 0.10999059 0.0522889 -0.07672089 0.038756423 -0.057936244 0.042957272
-0.024825795 -0.13592823 -0.18086423 -0.09232403 0.030557226 0.0645942 0.02659872 -0.2079242
0.0086089745 0.024898069 0.03769211 0.1498506 0.02939848 -0.05166796 -0.05509293 0.16872554
0.25691622 0.13917457 0.036924735 0.064258985 0.026031237 -0.19611217 0.1573853 0.048061293
-0.0023197925 0.0039192997 -0.014779442 0.0135196075 0.034334082 0.22263463 0.17337982 0.012588648
0.055153828 0.071436256 -0.005211205 -0.18302605 0.042511284 -0.051116046 -0.03954236 -0.070355706
0.049296934 0.09650972 0.0068185623 -0.035917107 0.04757966 -0.08249955 -0.10869101 0.03685075
-0.048967205 -0.10552422 -0.07067866 -0.17752646 -0.1064403 0.02653363 -0.04004844 -0.049182337
-0.1623229 -0.021898294 0.07676966 0.13115773 0.06493511 -0.03547844 -0.03405665 -0.20524858
0.06980773 0.30193466 0.2162639 0.012248151 -0.005244285 -0.1682812 -0.16077878 0.13379407
0.08769372 -0.09686495 -0.029272024 -0.121062554 -0.0025245408 0.090202376 0.19511229 0.091306716
-0.061778266 -0.08957051 -0.08015222 -0.081319526 -0.026637955 -0.026855363 -0.088393554 -0.107410505
-0.15086149 -0.06371193 0.023536364 0.013666001 0.0005946361 0.003941597 -0.101445906 -0.015191023
-0.1072474 0.0127949035 -0.11440725 -0.065800294 -0.18103608 -0.06919824 0.002945331 0.055108145
0.02487404 -0.12723587 -0.09512476 -0.021090904 0.12596606 0.0067598647 0.047904555 -0.06736553
-0.12696746 0.07040115 0.1911215 0.18104063 -0.01430366 0.048608672 0.020480672 -0.08467522
0.18049529 0.15524048 0.06225105 0.042881228 -0.07619207 0.04931679 -0.042439256 0.12286683
0.09939764 -0.008652196 0.062322725 -0.018931 -0.06734018 -0.08922475 0.04022924 -0.043002777
-0.049444284 0.032784443 0.021009976 -0.1246543 -0.1251552 0.009771387 0.25557196 0.21627876
-0.08474931 -0.13156356 -0.05100173 -0.019551354 0.08576638 0.3347887 0.096117035 -0.0423157
-0.056388885 0.09782479 0.065587774 0.09275313 0.19821188 0.08250193 -0.0010454541 -0.039115135
0.074058205 0.05505759 0.16027889 0.1365777 -0.03204271 -0.046407454 0.055008452 -0.048742846
0.004179545 -0.0502162 -0.08241474 -0.037709005 0.013345949 0.097128056 0.0086174905 -0.010961132
-0.116290376 -0.088497676 -0.012317219 0.005583464 0.1087436 -0.08252571 0.016830252 0.049615335
0.1641305 0.14462562 0.06569384 -0.050114315 -0.05426293 -0.11006201 -0.012162677 0.065673865
0.17374836 -0.07201188 -0.20127335 0.006989974 -0.033524178 -0.06611016 0.2290589 0.09264872
-0.019335588 -0.025083326 0.042977024 0.046441976 0.1407748 0.20966089 0.027511127 -0.07136196
-0.10851863 -0.016384283 0.08379146 0.04439566 0.089608975 -0.12023026 -0.15439309 0.0027374167
-0.059389904 0.0530758 -0.016335722 -0.14102866 -0.1812885 -0.07522659 -0.048940994 -0.075832345
-0.071536824 -0.10153611 -0.08018981 -0.13455038 -0.057737067 -0.04325602 0.020495882 -0.07685099
-0.072928175 0.0025394224 -0.025880672 0.014622514 0.0027759038 0.08706831 0.07814889 0.018807106
0.1513938 0.0555948 -0.035069045 -0.08406426 0.027000327 0.113597326 -0.044660736 0.16161272
00000000: 24f1 193e 68a9 afbc bf42 e13d e32c 563d
00000010: d81f 9dbd 0ebf 1e3d 8e4e 6dbd f7f3 2f3d
00000020: 775f cbbc c530 0bbe 7934 39be 6214 bdbd
00000030: 2653 fa3c f749 843d 8fe5 d93c 15ea 54be
00000040: a80c 0d3c 09f7 cb3c 0b63 1a3d 7072 193e
00000050: 15d5 f03c c8a1 53bd 20a9 61bd 63c6 2c3e
00000060: 868a 833e c783 0e3e 643e 173d 379a 833d
00000070: 763f d53c a1d1 48be 9d29 213e ebdb 443d
00000080: a907 18bb 786d 803b 7925 72bc 5881 5d3c
00000090: e5a1 0c3d 55fa 633e 7b8a 313e 9e40 4e3c
000000a0: fbe8 613d 2c4d 923d c2c2 aabb 2e6b 3bbe
000000b0: 5020 2e3d 0f5f 51bd 2bf7 21bd a716 90bd
000000c0: 95eb 493d e3a6 c53d 3f6e df3b d11d 13bd
000000d0: e4e2 423d 86f5 a8bd 6499 debd d0f0 163d
000000e0: d691 48bd 151d d8bd f9bf 90bd 7fc9 35be
000000f0: 5ffd d9bd 0e5d d93c d509 24bd 6b73 49bd
00000100: f937 26be 0d64 b3bc 6939 9d3d 364e 063e
00000110: b3fc 843d d751 11bd fc7e 0bbd af2c 52be
00000120: 5bf7 8e3d 2e97 9a3e 4974 5d3e 78ac 483c
00000130: 40d8 abbb e851 2cbe 31a3 24be 5001 093e
00000140: c498 b33d 2261 c6bd e2cb efbc a5ef f7bd
00000150: c472 25bb 06bc b83d 84cb 473e 04ff ba3d
00000160: 350b 7dbd be70 b7bd d926 a4bd da8a a6bd
00000170: d737 dabc c7ff dbbc ae07 b5bd 0afa dbbd
00000180: 6f7b 1abe 667b 82bd 55cf c03c 5de7 5f3c
00000190: 5ae1 1b3a 8328 813b dfc2 cfbd c5e3 78bc
000001a0: 86a4 dbbd b7a1 513c 594e eabd 4ec2 86bd
000001b0: 8661 39be cfb7 8dbd 7406 413b 14b9 613d
000001c0: a5c4 cb3c 1f4a 02be c5d0 c2bd d5c6 acbc
000001d0: 3ffd 003e db81 dd3b 9137 443d f0f6 89bd
000001e0: c203 02be 7a2e 903d 5bb5 433e b762 393e
000001f0: e659 6abc e319 473d 15c7 a73c 346a adbd
00000200: c2d3 383e 5cf7 1e3e f5fa 7e3d 3aa4 2f3d
00000210: 970a 9cbd 6700 4a3d c9d4 2dbd 9ba1 fb3d
00000220: fd90 cb3d f1c1 0dbc 1d46 7f3d 2f15 9bbc
00000230: a6e9 89bd 77bb b6bd 6ac7 243d ae23 30bd
00000240: 1786 4abd fb48 063d 1d1d ac3c c14a ffbd
00000250: af28 00be 2b18 203c 54da 823e 2e78 5d3e
00000260: 0c91 adbd 99b8 06be 31e7 50bd 292a a0bc
00000270: 49a6 af3d 6d69 ab3e 02d9 c43d 3a53 2dbd
00000280: 08f8 66bd 5d58 c83d e252 863d 5af5 bd3d
00000290: 0ef8 4a3e c6f6 a83d 9e07 89ba 3137 20bd
000002a0: d4ab 973d 1184 613d 2620 243e 06db 0b3e
000002b0: 373f 03bd be15 3ebd 8b50 613d 94a6 47bd
000002c0: 91f4 883b 81af 4dbd 0fc9 a8bd c274 1abd
000002d0: f8a8 5a3c 13eb c63d 6030 0d3c 5296 33bc
000002e0: a629 eebd 453e b5bd 29ce 49bc 7ef5 b63b
000002f0: f7b4 de3d 3d03 a9bd 99df 893c 7339 4b3d
00000300: d311 283e bd18 143e 7e8a 863d ab44 4dbd
00000310: ce42 5ebd 3168 e1bd f745 47bc 0580 863d
00000320: 17eb 313e f77a 93bd 9a1a 4ebe 270c e53b
00000330: a650 09bd c364 87bd 6b8e 6a3e 9dbe bd3d
00000340: ab65 9ebc 8c7b cdbc ad08 303d f139 3e3d
00000350: 4527 103e 58b1 563e 045f e13c 3826 92bd
00000360: 043f debd 5538 86bc db9a ab3d 39d8 353d
00000370: e984 b73d 483b f6bd 3919 1ebe 3b66 333b
00000380: d442 73bd 0366 593d 7ed2 85bc d169 10be
00000390: b1a3 39be 6610 9abd 5a76 48bd fd4d 9bbd
000003a0: e681 92bd 2af2 cfbd 8e3a a4bd 93c7 09be
000003b0: b47d 6cbd 392d 31bd fbe6 a73c 0d64 9dbd
000003c0: 5e5b 95bd 706c 263b b403 d4bc 4593 6f3c
000003d0: f0eb 353b df50 b23d 860c a03d 5c11 9a3c
000003e0: fa06 1b3e 5fb7 633d 8fa4 0fbd e229 acbd
000003f0: ca2f dd3c b7a5 e83d 2dee 36bd ce7d 253e

cnn3.0.bias f4 [16]
-0.044225506 -0.010338396 -0.020489652 0.010609457 -0.030325165 0.07757839 -0.008066418 -0.017838148
0.005860158 0.0667864 -0.026081316 0.031010821 -0.027086474 0.03979863 -0.0013210697 0.07734998
00000000: ce25 35bd 6062 29bc ead9 a7bc 4ad3 2d3c
00000010: 7b6c f8bc 6be1 9e3d 0229 04bc 4f21 92bc
00000020: 9106 c03b 4fc7 883d 7ca8 d5bc 680a fe3c
00000030: 74e4 ddbc e303 233d be27 adba ab69 9e3d

cnn3.1.weight f4 [16]
1.1205922 1.0864415 1.3788357 0.87061006 1.1793861 0.82375306 0.79768133 0.8301963
0.93204516 0.93862295 1.05605 0.94929266 1.2948227 0.8218873 0.8704159 1.0776476
00000000: 916f 8f3f 8410 8b3f b07d b03f 4de0 5e3f
00000010: 20f6 963f 7be1 523f d834 4c3f bf87 543f
00000020: 839a 6e3f 9849 703f a52c 873f d804 733f
00000030: c0bc a53f 3567 523f 94d3 5e3f 5bf0 893f

cnn3.1.bias f4 [16]
-0.030520339 -0.15365733 -0.10436416 -0.08193831 -0.52059674 0.2670039 -0.30632442 -0.00867178
0.19333114 -0.42032918 -0.21529403 0.07670012 -0.08398002 -0.03798966 -0.22401454 -0.29508033
00000000: ca05 fabc 5958 1dbe e0bc d5bd 46cf a7bd
00000010: d445 05bf bcb4 883e 8ed6 9cbe 1514 0ebc
00000020: 99f8 453e 6335 d7be 0a76 5cbe f414 9d3d
00000030: b7fd abbd 0c9b 1bbd 1164 65be c514 97be

cnn3.1.running_mean f4 [16]
0.047722463 0.33331412 0.05635461 0.9404315 -0.1263706 0.43222436 -1.7264754 -0.23869684
0.2908553 1.2106982 -0.03327492 0.29957142 -0.05642934 -0.3729941 -0.4925675 -0.062490214
00000000: a178 433d 26a8 aa3e 17d4 663d 1ec0 703f
00000010: 4b67 01be 834c dd3e 25fd dcbf f26c 74be
00000020: fcea 943e 29f8 9a3f 484b 08bd 6d61 993e
00000030: 7422 67bd 15f9 bebe cf31 fcbe bdf5 7fbd

cnn3.1.running_var f4 [16]
0.05688072 0.09824309 0.055298507 0.03768727 0.059666604 0.040472545 0.31421822 0.34939936
0.050213203 0.03226972 0.08491959 0.03922621 0.06579603 0.24199626 0.072777 0.08732942
00000000: c2fb 683d ac33 c93d b080 623d f85d 1a3d
00000010: f864 743d 8ac6 253d 36e1 a03e 79e4 b23e
00000020: 5cac 4d3d 412d 043d 52ea ad3d aaab 203d
00000030: 12c0 863d decd 773e 1c0c 953d c4d9 b23d

cnn3.3.weight f4 [16, 16, 7, 7]
0.066601574 -0.029976413 0.06726913 0.041098565 0.005961696 -0.25922012 -0.121774055 0.02333824
-0.01365222 0.058473136 0.14003767 -0.010862913 -0.16330002 -0.08373238 -0.056543298 -0.098648146
0.07788861 -0.20295346 -0.07348251 -0.25785097 -0.10067332 -0.005803951 -0.014034799 -0.08120416
-0.15460747 -0.11211618 -0.053207766 -0.016835636 -0.027089493 -0.042515215 -0.10193897 -0.25371766
-0.045361828 0.03046371 0.08060561 -0.08771482 -0.098000854 -0.027439028 -0.15290521 -0.10133851
0.054863468 0.039513197 0.008305478 -0.0020560278 0.03831539 -0.068057165 -0.038425133 0.07513097
-0.044941567 -0.008524411 -0.032209247 -0.031994265 0.009190625 -0.11569782 -0.008092734 -0.10657945
0.05244176 -0.1572213 -0.032137975 0.041195937 -0.015464515 0.08629207 -0.0030842214 0.023450453
-0.11584558 -0.16046101 -0.01482308 0.07620941 -0.014063594 0.022455135 0.062406067 -0.009758713
-0.005054199 0.13178204 0.16163965 0.04916057 0.026052792 -0.03931835 -0.16142234 -0.006249032
0.1732962 0.13203262 0.056531027 0.13158202 0.0021959804 -0.08878659 -0.04227998 0.25349617
-0.037541024 -0.01734529 0.0063988534 0.032737352 -0.018057901 0.046928193 0.15450822 -0.028164737
-0.019120056 0.12995908 -0.06662342 -0.12981074 -0.20636375 -0.29660806 -0.16278835 -0.04581305
-0.06220434 -0.0904669 -0.2709002 -0.38185376 -0.11537983 0.13548309 0.09266907 -0.07897923
0.086939596 0.018138811 -0.2952919 0.017539306 0.085760616 -0.055908408 -0.025171489 0.19926107
0.19490384 -0.031789742 -0.015774652 -0.06530446 -0.08935853 -0.03294799 0.089326404 0.006474347
0.035134647 -0.013475347 -0.06486517 -0.032405514 -0.014685903 0.0064567826 0.04692222 0.12285467
0.03842308 0.02206264 -0.0070247636 -0.09870395 -0.005150188 0.011683222 0.06077198 0.058405478
0.08044111 -0.038711775 -0.07536441 -0.069982894 -0.0058840234 -0.057465028 -0.09965301 -0.002727607
-0.019326223 0.08204096 -0.018364785 0.06147496 -0.062864594 -0.06762837 0.0133233825 -0.027318636
0.039939046 -0.016409652 0.025179163 -0.08066788 -0.058568884 0.0010096931 -0.015136902 0.044412836
-0.027552744 0.009210814 -0.036088787 -0.06145933 0.0032966572 0.040778823 0.05511873 0.005921418
-0.015356463 0.032518275 0.008759003 0.027467297 0.08536998 0.073383205 0.017210042 0.0006741441
0.0071858857 -0.019809268 0.06732124 0.0846022 0.11673743 0.083552785 0.07100284 0.04382122
0.017255345 0.049105335 0.10935021 0.12171721 -0.16630852 0.03478815 0.029648522 -0.00011379955
-0.09837005 -0.19437982 -0.10462326 -0.1049944 -0.1624954 -0.010788804 0.121205024 0.09449893
-0.02281273 -0.12397511 -0.1731466 -0.33855855 -0.23835468 0.10236113 0.107991405 -0.12520191
-0.06963509 -0.23371923 -0.2801287 0.02537909 0.1555065 -0.03556657 0.021463936 -0.11709685
-0.28908 -0.008749312 0.17188554 -0.08497455 0.030055085 -0.040930804 -0.124512404 -0.29336932
-0.26729155 -0.07905894 0.006664443 -0.031219548 -0.15519351 0.073453456 0.12111111 0.09252583
0.09823839 0.0016730075 -0.18832481 -0.18456158 0.09280826 0.030088324 0.036440026 0.042833596
0.009056376 0.013683486 -0.039767437 -0.08399072 -0.050268333 0.007341052 -0.033258986 -0.09134319
00000000: 6866 883d 1891 f5bc 66c4 893d f856 283d
00000010: 555a c33b 80b8 84be ad64 f9bd d62f bf3c
00000020: 90ad 5fbc 8781 6f3d 0966 0f3e 5cfa 31bc
00000030: 1f38 27be e27b abbd f299 67bd 0a08 cabd
00000040: 1084 9f3d 08d3 4fbe 007e 96bd 0b05 84be
00000050: d02d cebd 122f bebb 37f2 65bc 5e4e a6bd
00000060: 6c51 1ebe 2b9d e5bd 63f0 59bd e3ea 89bc
00000070: c9ea ddbc 6f24 2ebd 61c5 d0bd 48e7 81be
00000080: 53cd 39bd 088f f93c 8e14 a53d d4a3 b3bd
00000090: acb4 c8bd d0c7 e0bc 2f93 1cbe 918a cfbd
000000a0: 84b8 603d 97d8 213d b313 083c 6cbe 06bb
000000b0: 99f0 1c3d 8e61 8bbd ac63 1dbd 44de 993d
000000c0: a614 38bd f9a9 0bbc d8ed 03bd 6b0c 03bd
000000d0: 4694 163c fbf2 ecbd 6397 04bc 5446 dabd
000000e0: 2ccd 563d 9ffe 20be 1ca3 03bd 12bd 283d
000000f0: e15e 7dbc e6b9 b03d a620 4abb 2a1b c03c
00000100: 7340 edbd e44f 24be 81dc 72bc ae13 9c3d
00000110: fd6a 66bc d5f3 b73c 819d 7f3d 02e3 1fbc
00000120: b29d a5bb dff1 063e dd84 253e 985c 493d
00000130: aa6c d53c 470c 21bd e64b 25be aec4 ccbb
00000140: 8f74 313e 8f33 073e 148d 673d 70bd 063e
00000150: 70ea 0f3b bed5 b5bd c62d 2dbd 40ca 813e
00000160: 9ec4 19bd b617 8ebc 79ad d13b 9a17 063d
00000170: 2aee 93bc c737 403d 6737 1e3e bcb9 e6bc
00000180: aaa1 9cbc fe13 053e dc71 88bd 1bed 04be
00000190: 0551 53be 03dd 97be fdb1 26be 77a6 3bbd
000001a0: fac9 7ebd b646 b9bd 6eb3 8abe 5682 c3be
000001b0: 434c ecbd 14bc 0a3e 48c9 bd3d ddbf a1bd
000001c0: 630d b23d d897 943c 8030 97be 97ae 8f3c
000001d0: 43a3 af3d 3700 65bd 7034 cebc 180b 4c3e
000001e0: df94 473e f635 02bd d839 81bc 58be 85bd
000001f0: 9b01 b7bd 79f4 06bd c3f0 b63d c226 d43b
00000200: 59e9 0f3d b4c7 5cbc 08d8 84bd a5bb 04bd
00000210: 249d 70bc 6b93 d33b 8431 403d 3b9b fb3d
00000220: 8561 1d3d b6bc b43c fd2f e6bb 4c25 cabd
00000230: e9c2 a8bb fc6a 3f3c 0aec 783d 953a 6f3d
00000240: 4fbe a43d 3d90 1ebd a858 9abd 3153 8fbd
00000250: c4ce c0bb 7360 6bbd e116 ccbd a7c1 32bb
00000260: 0752 9ebc 1705 a83d bf71 96bc 2bcd 7b3d
00000270: 27bf 80bd be80 8abd 514a 5a3c 55cb dfbc
00000280: 2097 233d 896d 86bc 8844 ce3c 3435 a5bd
00000290: ede5 6fbd ae57 843a c500 78bc 3cea 353d
000002a0: 4bb6 e1bc f4e8 163c d6d1 13bd c7bc 7bbd
000002b0: bb0c 583b b207 273d 2dc4 613d 7408 c23b
000002c0: ad99 7bbc e231 053d ec81 0f3c 1903 e13c
000002d0: 75d6 ae3d ef49 963d 13fc 8c3c 0bb9 303a
000002e0: 9477 eb3b 0c47 a2bc b8df 893d eb43 ad3d
000002f0: 0914 ef3d b91d ab3d f069 913d e17d 333d
00000300: 155b 8d3c ad22 493d 01f3 df3d df46 f93d
00000310: c84c 2abe 057e 0e3d 75e1 f23c aba7 eeb8
00000320: 3d76 c9bd 810b 47be b844 d6bd 4e07 d7bd
00000330: 3265 26be 86c3 30bc 573a f83d a888 c13d
00000340: c3e1 babc aae6 fdbd 584d 31be 8c57 adbe
00000350: 4013 74be b6a2 d13d 992a dd3d ee34 00be
00000360: d89c 8ebd 1854 6fbe 076d 8fbe cfe7 cf3c
00000370: 193d 1f3e 40ae 11bd 23d5 af3c 79d0 efbd
00000380: 4b02 94be 4659 0fbc c302 303e 2307 aebd
00000390: 1536 f63c 0fa7 27bd 5c00 ffbd 8134 96be
000003a0: 70da 88be a7e9 a1bd 6661 da3b 23c0 ffbc
000003b0: 0ceb 1ebe c46e 963d 1a09 f83d 2f7e bd3d
000003c0: 3631 c93d d148 db3a 38d8 40be b6fd 3cbe
000003d0: 4212 be3d ca7b f63c 2342 153d 4872 2f3d
000003e0: 3261 143c b330 603c 2ee3 22bd 5403 acbd
000003f0: 2be6 4dbd 358d f03b 933a 08bd 2312 bbbd

cnn3.3.bias f4 [16]
-0.008125193 0.024416253 0.04045249 -0.023864776 -0.028649364 -0.001966013 0.027484689 -0.03969567
0.001371125 0.003099916 -0.021004153 -0.033122573 -0.0071416325 -0.031201242 -0.00021432879 -0.0042494503
00000000: 881f 05bc 9804 c83c 83b1 253d 1080 c3bc
00000010: 12b2 eabc 3ad8 00bb 9227 e13c ed97 22bd
00000020: 52b7 b33a f627 4b3b e710 acbc 89ab 07bd
00000030: 5b04 eabb bf99 ffbc 72bd 60b9 f93e 8bbb

cnn3.4.weight f4 [16]
3.338961 4.2145443 2.0900664 2.442367 3.2423613 2.6827419 2.3826058 2.3318253
2.6917462 2.677333 2.273675 2.2721984 4.0227323 2.7347126 2.7152026 4.292618
00000000: 89b1 5540 8cdd 8640 a6c3 0540 be4f 1c40
00000010: d982 4f40 0bb2 2b40 9d7c 1840 a03c 1540
00000020: 9245 2c40 6d59 2b40 e483 1140 b36b 1140
00000030: 39ba 8040 8805 2f40 e1c5 2d40 205d 8940

cnn3.4.bias f4 [16]
0.14192128 0.38231483 0.09793828 0.12795778 0.1534748 0.0043620616 0.08332786 0.026698528
0.21921873 0.016727328 0.2655588 0.15198085 0.11778859 0.0579367 0.08604327 0.68580794
00000000: d053 113e c5be c33e dd93 c83d 5d07 033e
00000010: 7f28 1d3e a0ef 8e3b cca7 aa3d dfb6 da3c
00000020: e07a 603e c007 893c 53f7 873e dea0 1b3e
00000030: 253b f13d 084f 6d3d 7437 b03d 1c91 2f3f

cnn3.4.running_mean f4 [16]
-0.40317202 -1.2181696 1.1349907 -0.6879038 0.79093254 -0.8209251 -0.8080623 0.9214467
-0.4809177 -0.10157928 1.5715634 -0.56004685 -1.013928 -0.08925952 -0.6756665 0.7645057
00000000: 906c cebe fbec 9bbf 6047 913f 771a 30bf
00000010: 8e7a 4a3f 2628 52bf 2cdd 4ebf eee3 6b3f
00000020: d83a f6be cc08 d0bd fd28 c93f 3b5f 0fbf
00000030: 65c8 81bf b2cd b6bd 7bf8 2cbf a5b6 433f

cnn3.4.running_var f4 [16]
2.4379523 3.4519615 1.5158648 0.82984203 1.6847532 2.1134396 1.7862102 1.285851
1.8098524 1.3104616 1.8488432 1.2466027 2.6740153 1.3577704 2.7618515 2.761066
00000000: 6907 1c40 f0ec 5c40 dc07 c23f 8770 543f
00000010: fea5 d73f 9842 0740 89a2 e43f c496 a43f
00000020: 3ea9 e73f 35bd a73f e5a6 ec3f ad90 9f3f
00000030: 1123 2b40 6ccb ad3f 2dc2 3040 4eb5 3040

cnn4.0.weight f4 [16, 3, 15, 15]
-0.014534723 -0.008201452 -0.007249173 0.083672866 0.08243427 -0.06148289 -0.018456468 0.013837571
0.080280185 0.07016449 0.04553035 0.15771951 0.06748272 0.08754713 0.14849104 0.026227409
0.032631848 0.007453666 0.07166035 0.038793653 -0.060251124 -0.040206753 -0.0129456185 0.02688803
0.026397502 0.028731208 0.08501886 0.07705006 0.08940407 0.07266772 -0.0034000224 0.0462497
0.0928977 0.100549884 0.02719845 -0.02566236 -0.0505132 -0.0245442 0.031873155 0.06401879
0.027519606 0.04368657 0.02044962 -0.00014553001 0.0940144 0.04427007 0.09252654 0.06836788
0.069016345 0.0069027916 -0.08919055 -0.027181558 0.013039543 0.0693456 0.052232347 0.024671942
0.023814306 0.0064573674 -0.005552043 0.082215466 0.028979983 0.0834826 0.036765877 0.07271047
-0.031468745 -0.093686335 -0.04108578 0.031962056 0.08880135 -0.0006806206 -0.033722386 0.02488188
0.0049491143 0.0019281235 0.08494988 0.015445758 0.04586521 0.0014517406 0.030305397 -0.041290764
-0.101195075 0.0026282824 0.027052023 0.10435162 0.073449 0.0067365756 0.061234698 -0.017384948
-0.021976821 0.058978625 0.017402114 0.034783565 -0.048231833 -0.086889096 -0.12329555 -0.11837022
-0.070114985 0.0031630457 0.08730314 0.07570285 0.039687622 0.096045196 0.079050116 0.05448948
0.074517965 -0.010272042 0.019393915 -0.06383019 -0.07718552 -0.14771979 -0.11456697 -0.08126128
-0.0035344898 0.10459832 0.11099626 0.07624642 0.16709478 0.119441256 0.08949553 0.09865941
0.05924062 0.00034274257 -0.11630763 -0.16298106 -0.19221872 -0.22248644 -0.089498974 -0.020319264
0.062057182 0.1126755 0.13330293 0.17640217 0.05094704 0.06818812 0.09893459 0.021918343
-0.0010459309 -0.051224686 -0.17588523 -0.19711912 -0.24079336 -0.17641854 -0.057887208 0.059189383
0.09330678 0.071806096 0.14893605 0.07596659 0.023403954 0.01782865 0.032523468 0.038415343
-0.07580904 -0.114963986 -0.1806887 -0.2921857 -0.19078854 -0.057942286 0.075851016 0.13059333
0.06701408 0.1083897 0.05923112 0.046495542 0.020763284 0.0046930313 -0.028395595 -0.018747734
-0.043974955 -0.11552638 -0.17958388 -0.17520107 -0.05583066 0.062476438 0.11330578 0.055450235
0.12341817 0.09719662 0.062384658 0.069553345 0.017193198 0.025514143 0.02334726 0.10999325
0.0134271 -0.12503256 -0.051179834 -0.054276224 0.09002065 0.13312595 0.13711992 0.17737482
0.0677252 0.055089694 0.078649186 0.043325264 -0.0075749457 0.028928157 0.109757856 0.050630808
0.003015288 0.015937343 -0.0067327195 0.090729356 0.12763377 0.11158187 0.162091 0.08689794
0.08525573 0.09285447 0.040798966 0.015594368 0.04124378 0.11100842 0.13542932 0.07056502
0.04720119 0.056643024 0.13198309 0.11464871 0.15627918 0.17623587 0.065838724 0.002842833
0.08438138 -0.12079167 -0.08243218 -0.05439575 0.017309586 -0.025652397 -0.10278923 -0.007938859
-0.001481095 0.06827093 0.0049287667 0.007964852 0.014148503 0.016526742 0.022675052 0.045587987
-0.059922665 -0.010230073 0.012317069 0.014553464 0.004356296 -0.07121889 -0.011877991 -0.019578159
0.054570366 -0.007843641 -0.0064000282 0.00023391635 -0.009689181 -0.061826833 0.06397674 -0.055117536
00000000: 0c23 6ebc 625f 06bc 788a edbb ae5c ab3d
00000010: 4cd3 a83d 7cd5 7bbd 0532 97bc fbb6 623c
00000020: f069 a43d 66b2 8f3d 087e 3a3d 3981 213e
00000030: 6134 8a3d e94b b33d 090e 183e ddda d63c
00000040: f9a8 053d e23d f43b a9c2 923d 18e6 1e3d
00000050: e2c9 76bd d6af 24bd dc19 54bc 4944 dc3c
00000060: 933f d83c b65d eb3c 5e1e ae3d 6ccc 9d3d
00000070: 7b19 b73d d0d2 943d e9d2 5ebb 5370 3d3d
00000080: 2641 be3d 19ed cd3d 49cf de3c df39 d2bc
00000090: eee6 4ebd eb10 c9bc 6d8d 023d 491c 833d
000000a0: cc70 e13c b0f0 323d f685 a73c 6a99 18b9
000000b0: 9f8a c03d 8854 353d 8e7e bd3d 7604 8c3d
000000c0: 7158 8d3d d030 e23b 89a9 b6bd dcab debc
000000d0: cfa3 553c 1105 8e3d 96f1 553d d01c ca3c
000000e0: 3816 c33c 5398 d33b eaed b5bb 9560 a83d
000000f0: 6e67 ed3c edf8 aa3d d197 163d 3ae9 943d
00000100: 5fe5 00bd 9fde bfbd 9049 28bd a5ea 023d
00000110: 7bdd b53d ad6b 32ba 7c20 0abd 16d5 cb3c
00000120: 2e2c a23b 17b9 fc3a 34fa ad3d 3410 7d3c
00000130: 29dd 3b3d 5548 be3a 0643 f83c 8120 29bd
00000140: 5d3f cfbd 433f 2c3b 349c dd3c 4db6 d53d
00000150: 6e6c 963d 7ebe dc3b 3cd1 7a3d e16a 8ebc
00000160: bc08 b4bc 9293 713d e18e 8e3c 3679 0e3d
00000170: be8e 45bd e9f2 b1bd 6182 fcbd 166c f2bd
00000180: 7298 8fbd 1a4b 4f3b fdcb b23d 190a 9b3d
00000190: 7d8f 223d 58b3 c43d 07e5 a13d 5c30 5f3d
000001a0: e09c 983d 114c 28bc fddf 9e3c 67b9 82bd
000001b0: 7113 9ebd db43 17be 16a2 eabd 506c a6bd
000001c0: e6a2 67bb a537 d63d 0252 e33d 1527 9c3d
000001d0: e51a 2b3e 9e9d f43d 6f49 b73d f20d ca3d
000001e0: 4ba6 723d 21b2 b339 b232 eebd 82e4 26be
000001f0: fcd4 44be 7cd3 63be 3d4b b7bd 9674 a6bc
00000200: ac2f 7e3d 6ac2 e63d 9080 083e c5a2 343e
00000210: d8ad 503d 37a6 8b3d 389e ca3d 198e b33c
00000220: 9e17 89ba fad0 51bd 421b 34be 98d9 49be
00000230: 8992 76be 10a7 34be 231b 6dbd 9170 723d
00000240: a017 bf3d 130f 933d b182 183e 5f94 9b3d
00000250: a6b9 bf3c 640d 923c 5437 053d 6859 1d3d
00000260: c541 9bbd 3d72 ebbd 7506 39be 5d99 95be
00000270: 125e 43be e454 6dbd c757 9b3d 42ba 053e
00000280: ae3e 893d 6bfb dd3d 559c 723d 1c72 3e3d
00000290: c317 aa3c 00c8 993b e19d e8bc d994 99bc
000002a0: 151f 34bd 1899 ecbd d6e4 37be e967 33be
000002b0: b1ae 64bd 4be7 7f3d dc0c e83d c91f 633d
000002c0: aac2 fc3d 060f c73d 0e87 7f3d fc71 8e3d
000002d0: c0d8 8c3c 0903 d13c c142 bf3c 2444 e13d
000002e0: 57fd 5b3c 8908 00be f2a1 51bd bf50 5ebd
000002f0: bf5c b83d 2b52 083e 2a69 0c3e bfa1 353e
00000300: 82b3 8a3d bba5 613d d312 a13d d575 313d
00000310: 4037 f8bb befa ec3c bac8 e03d 4062 4f3d
00000320: 239c 453b 088f 823c 259e dcbb 50d0 b93d
00000330: 6db2 023e 0985 e43d 2ffb 253e 8cf7 b13d
00000340: 8e9a ae3d 7c2a be3d d11c 273d 857f 7f3c
00000350: 3def 283d 6258 e33d fcad 0a3e 6584 903d
00000360: 0956 413d 8402 683d 9326 073e f1cc ea3d
00000370: a607 203e 2d77 343e 74d6 863d d34e 3a3b
00000380: 25d0 ac3d a061 f7bd 34d2 a8bd 14ce 5ebd
00000390: d5cc 8d3c fa24 d2bc 2983 d2bd fd11 02bc
000003a0: 4d21 c2ba a1d1 8b3d 7e81 a13b 037f 023c
000003b0: 1fcf 673c 1763 873c 08c1 b93c 78ba 3a3d
000003c0: 7871 75bd 099c 27bc 88cd 493c a771 6e3c
000003d0: 42bf 8e3b 36db 91bd e89b 42bc 6062 a0bc
000003e0: 2d85 5f3d 9d82 00bc 54b7 d1bb 7147 7539
000003f0: 5fbf 1ebc 223e 7dbd 3d06 833d edc2 61bd
