pretrain/2017/net1-500-mse.pkl (torch, 366627 bytes, 49 tensors)

cnn1.0.weight f4 [16, 3, 1, 1]
-0.43854445 0.65620553 -0.41382954 -0.19574678 -0.14893597 0.2516622 0.25029296 0.42466906
0.51511544 -0.018671371 0.37848336 0.2286152 -0.49364913 0.42557204 -0.009235112 0.52210987
0.5255583 -0.508777 -0.12997483 0.33706746 0.09061476 -0.024287032 0.018565007 -0.80614585
-0.27182585 0.3788539 -0.12560229 -0.25302863 -0.02302419 0.39300135 -0.23510498 0.18671891
0.10197564 -0.5528835 0.21919681 0.38313472 0.63085335 0.16289817 -0.24985696 0.046493642
-0.28830343 0.1318512 -0.41939694 -0.54245764 0.0888253 0.14671856 0.12989704 -0.2999243
00000000: e688 e0be 16fd 273f 77e1 d3be d871 48be
00000010: ac82 18be ded9 803e 6626 803e 396e d93e
00000020: 9bde 033f b4f4 98bc 92c8 c13e 1a1a 6a3e
00000030: 94bf fcbe 94e4 d93e de4e 17bc fea8 053f
00000040: fd8a 063f 363f 02bf 1f18 05be 1b94 ac3e
00000050: 3b94 b93d 99f5 c6bc a415 983c 935f 4ebf
00000060: c22c 8bbe 23f9 c13e e39d 00be f88c 81be
00000070: 3a9d bcbc 7937 c93e 5cbf 70be 3e33 3f3e
00000080: 9bd8 d03d c689 0dbf 2175 603e 3c2a c43e
00000090: 9b7f 213f c7ce 263e 81da 7fbe 1e70 3e3d
000000a0: 829c 93be 0004 073e 32bb d6be 81de 0abf
000000b0: 0aea b53d 643d 163e bb03 053e ae8f 99be

cnn1.0.bias f4 [16]
0.07860633 -0.037502177 0.16690992 -0.007910047 0.22392236 0.2903015 0.61257493 -0.4973737
0.013885474 -0.15727076 -0.1335085 0.20275334 -0.53679097 -0.25007448 -0.43943214 0.013361354
00000000: 5bfc a03d e29b 19bd 6fea 2a3e 2499 01bc
00000010: e74b 653e 66a2 943e b6d1 1c3f c4a7 febe
00000020: e67f 633c 960b 21be 74b6 08be 929e 4f3e
00000030: 226b 09bf c309 80be 40fd e0be 95e9 5a3c

cnn1.1.weight f4 [16]
1.0861361 1.0310777 0.8484278 0.8814905 0.97996277 0.9686059 1.0078373 0.87654084
0.9957726 0.8098128 0.9504489 0.9086315 1.0124135 1.1443565 0.8837355 0.84361076
00000000: 8206 8b3f 5bfa 833f 9032 593f 5da9 613f
00000010: d7de 7a3f 8ef6 773f d000 813f fb64 603f
00000020: f4ea 7e3f e44f 4f3f 9e50 733f 139c 683f
00000030: c496 813f 467a 923f 7d3c 623f e0f6 573f

cnn1.1.bias f4 [16]
0.050155506 0.13445154 -0.11582423 0.28202552 0.04448894 0.10704975 -0.008743505 -0.14110653
-0.0770258 0.4169682 -0.4156638 -0.51859426 0.108036004 0.27863944 -0.5051174 -0.39164743
00000000: dc6f 4d3d aaad 093e 4135 edbd a665 903e
00000010: 093a 363d e63c db3d eb40 0fbc 3b7e 10be
00000020: b4bf 9dbd db7c d53e e3d1 d4be 98c2 04bf
00000030: fb41 dd3d d4a9 8e3e 604f 01bf 0386 c8be

cnn1.1.running_mean f4 [16]
-0.046090078 -0.14094223 0.96780884 0.3814708 0.13845095 0.7542398 0.8042612 -0.9884347
-0.004167754 -0.13106589 -0.12139635 0.16300707 -0.08836628 -0.3376181 -1.0892783 0.03670775
00000000: f3c8 3cbd 2953 10be 52c2 773f 2450 c33e
00000010: 16c6 0d3e dc15 413f 10e4 4d3f 0e0a 7dbf
00000020: a891 88bb 2336 06be a69e f8bd 53eb 263e
00000030: 61f9 b4bd 48dc acbe 796d 8bbf de5a 163d

cnn1.1.running_var f4 [16]
0.0006748738 0.00039652063 0.04133274 0.011030528 0.00032540382 0.008100559 0.0032673972 0.021008808
0.00010167964 0.001284701 0.00040208639 0.0016475419 0.007141638 0.000490452 0.020827953 0.00033477027
00000000: 04ea 303a 19e4 cf39 854c 293d 63b9 343c
00000010: f69a aa39 35b8 043c d421 563b aa1a ac3c
00000020: d73c d538 6a63 a83a 1fcf d239 55f2 d73a
00000030: 6704 ea3b ad91 003a 629f aa3c 1b84 af39

cnn1.3.weight f4 [16, 16, 1, 1]
0.09416148 0.15115683 0.06610276 -0.2243661 -0.4542568 0.063763805 -0.12157741 0.1291986
0.01552119 0.013764115 0.24029161 0.33501822 -0.095583 -0.17273626 -0.11371891 0.014048366
-0.04475946 0.081361346 -0.04116336 -0.0056199078 -0.0742374 -0.0069977096 -0.29719788 -0.3879823
-0.12967023 0.1566507 0.09949085 0.2962187 0.057056483 -0.04930409 -0.299886 -0.33333868
-0.37509385 -0.045058593 0.12587033 -0.21178463 0.20758997 0.04549261 0.10550533 -0.056689426
-0.13915485 -0.039316297 -0.12770368 -0.19468626 -0.08253252 0.20890132 0.19671386 -0.043389447
-0.261715 -0.11609273 -0.063042276 0.03611938 0.08903981 -0.20793831 0.100220665 0.16994895
-0.0040802034 -0.058221377 0.13336092 -0.20503558 -0.2191926 -0.12600978 -0.0063360375 0.1155664
0.049032122 -0.27434862 -0.18763708 0.012348407 0.17265749 -0.049104612 0.2239215 -0.050673302
-0.01557619 0.10783986 0.00835254 -0.3342333 0.034519617 0.20931478 0.105585195 0.1853194
0.28642818 -0.15228002 0.13033882 0.23998417 -0.12912735 0.2567367 0.06424348 -0.038090784
-0.18905757 -0.044806 -0.042838614 0.22202295 0.06318298 -0.06964945 0.10046653 -0.0009544925
0.006285946 -0.18458988 -0.24026175 0.115596645 -0.011687237 0.27722248 -0.13233078 0.21579574
-0.12717003 -0.08009929 0.20619611 0.09333445 -0.076330714 -0.24150388 0.2519076 0.043373454
0.15993957 -0.23625125 -0.028330695 0.08362338 -0.025366252 0.07105377 -0.19948657 -0.029672321
-0.13620561 -0.16280146 0.07793433 0.20675112 -0.1023851 -0.20943211 0.14608498 -0.40901795
0.038818274 0.2231915 -0.15855512 -0.13586876 -0.055068936 0.014663531 -0.034106653 0.0089876065
-0.14706933 -0.29106382 0.11105895 0.11323647 0.29046908 -0.2533996 -0.030862264 -0.21848264
0.29998046 0.023592604 0.13107914 0.24924433 -0.1933261 -0.30525634 -0.017299306 0.13150947
-0.15735132 -0.05012267 0.045921028 0.04070797 -0.08634221 -0.10959471 0.23606415 -0.015491418
0.15487573 0.06081278 0.09830408 -0.15758455 -0.32898214 0.19332609 -0.18741478 -0.06000914
-0.015015877 0.066182405 0.07509804 0.15631104 -0.14143722 -0.064169236 0.19755992 0.0036253403
0.0044678072 0.29232734 -0.01620523 0.009048065 -0.049993705 0.066735916 0.08922814 0.0049021076
-0.3153971 0.19344105 0.18553543 -0.015790496 -0.0730311 0.015851477 0.0038067226 0.15570518
-0.16985963 -0.101362534 -0.088775486 -0.12109448 0.067719854 0.07321212 -0.21359594 0.010396757
0.038574193 -0.2643625 -0.08928938 0.2593684 0.18787539 0.09585128 -0.43643332 -0.0390158
0.24091642 -0.21509664 -0.012499159 0.15059347 -0.08026449 0.021792823 0.27123645 0.12097299
-0.07516622 -0.009243146 0.12664998 0.120609716 0.22605963 0.022952352 0.11912496 0.08870044
0.23279221 -0.047932945 0.004213601 0.09428435 -0.19660647 -0.24927048 0.21594761 -0.004167731
-0.055331834 0.0016361851 0.15259998 -0.12479771 -0.009067523 -0.005153227 0.35708737 -0.010473065
-0.1990807 0.08007079 -0.17208993 -0.22393225 -0.1453508 -0.15408966 -0.12498452 -0.09754524
-0.16114078 0.17143232 0.13841806 0.096260116 0.28463113 -0.18257026 0.02454258 -0.11108545
00000000: bcd7 c03d dbc8 1a3e e260 873d 3ac0 65be
00000010: 5994 e8be 9996 823d 94fd f8bd a34c 043e
00000020: 974c 7e3c e282 613c 010f 763e 8287 ab3e
00000030: 05c1 c3bd c6e1 30be 76e5 e8bd 1e2b 663c
00000040: b255 37bd c7a0 a63d e99a 28bd 3427 b8bb
00000050: c709 98bd 0b4d e5bb 522a 98be 9ea5 c6be
00000060: 46c8 04be 0b69 203e dcc1 cb3d faa9 973e
00000070: 0fb4 693d 16f3 49bd a88a 99be 5eab aabe
00000080: 4d0c c0be 5c8f 38bd 27e4 003e 12de 58be
00000090: 7792 543e 7656 3a3d 2e13 d83d 2c33 68bd
000000a0: 9c7e 0ebe 200a 21bd c1c4 02be d65b 47be
000000b0: cf06 a9bd 3aea 553e 5c6f 493e 22b9 31bd
000000c0: 82ff 85be 06c2 edbd 4f1c 81bd eaf1 133d
000000d0: 815a b63d c8ed 54be 7e40 cd3d 1907 2e3e
000000e0: 3ab3 85bb 8a79 6ebd c48f 083e d9f4 51be
000000f0: 0674 60be b508 01be 899e cfbb 14ae ec3d
00000100: e8d5 483d 6c77 8cbe ef23 40be f950 4a3c
00000110: 20cd 303e eb21 49bd ad4b 653e cf8e 4fbd
00000120: 4733 7fbc 25db dc3d 18d9 083c a120 abbe
00000130: 7164 0d3d 9d56 563e 0d3d d83d 5ec4 3d3e
00000140: b7a6 923e 4bef 1bbe 8a77 053e 69be 753e
00000150: f639 04be fe72 833e 1692 833d 1505 1cbd
00000160: 4f98 41be 7f86 37bd 8b77 2fbd fc59 633e
00000170: 1466 813d 5fa4 8ebd 65c1 cd3d e836 7aba
00000180: 56fa cd3b 2105 3dbe 2d07 76be efbd ec3d
00000190: d37b 3fbc 1bf0 8d3e b881 07be 8ff9 5c3e
000001a0: dc38 02be 190b a4bd 1325 533e 2226 bf3d
000001b0: 4753 9cbd cb4c 77be 08fa 803e 5da8 313d
000001c0: 33c7 233e d9eb 71be c615 e8bc bc42 ab3d
000001d0: e3cc cfbc a484 913d 3546 4cbe 5e13 f3bc
000001e0: 7c79 0bbe 6db5 26be 099c 9f3d 91b6 533e
000001f0: 48af d1bd 5f75 56be 4d97 153e cd6a d1be
00000200: e9ff 1e3d 508c 643e 465c 22be 2e21 0bbe
00000210: f78f 61bd 4f3f 703c 6bb3 0bbd c140 133c
00000220: 5899 16be 5106 95be e072 e33d 86e8 e73d
00000230: 5db8 943e 98bd 81be dcd2 fcbc eab9 5fbe
00000240: 0a97 993e 4745 c13c 9c39 063e e839 7f3e
00000250: 47f7 45be 8f4a 9cbe 46b7 8dbc 6baa 063e
00000260: b420 21be 6e4d 4dbd b017 3c3d 66bd 263d
00000270: 2fd4 b0bd 3173 e0bd cdba 713e b7cf 7dbc
00000280: be97 1e3e d216 793d a653 c93d d85d 21be
00000290: 5970 a8be 46f7 453e a9e9 3fbe 25cc 75bd
000002a0: 2705 76bc a48a 873d 00cd 993d 0010 203e
000002b0: ebd4 10be 296b 83bd 264d 4a3e 1e97 6d3b
000002c0: af66 923b eeab 953e d5c0 84bc 563e 143c
000002d0: 33c6 4cbd d7ac 883d 3ebd b63d dca1 a03b
000002e0: bb7b a1be 6915 463e 00fd 3d3e 125b 81bc
000002f0: 5491 95bd f5da 813c 357a 793b 2e71 1f3e
00000300: afef 2dbe 2997 cfbd eccf b5bd 6200 f8bd
00000310: b5b0 8a3d 3cf0 953d e5b8 5abe 2957 2a3c
00000320: f9ff 1d3d 865a 87be 5add b6bd efcb 843e
00000330: 6862 403e ad4d c43d 3074 dfbe 08cf 1fbd
00000340: cbb2 763e 4b42 5cbe 46c9 4cbc 2d35 1a3e
00000350: b561 a4bd dd86 b23c 81df 8a3e b0c0 f73d
00000360: bff0 99bd 9070 17bc 88b0 013e 3a02 f73d
00000370: 2d7c 673e 9206 bc3c c9f7 f33d 94a8 b53d
00000380: 1561 6e3e 5655 44bd 3f12 8a3b 2718 c13d
00000390: 3553 49be c340 7fbe 5f21 5d3e 7691 88bb
000003a0: a2a3 62bd 4375 d63a 2b43 1c3e f195 ffbd
000003b0: f38f 14bc 67dc a8bb 28d4 b63e 3897 2bbc
000003c0: d0db 4bbe 28fc a33d 5838 30be 7f4e 65be
000003d0: d7d6 14be aec9 1dbe e2f7 ffbd ccc5 c7bd
000003e0: 1702 25be f48b 2f3e 77bd 0d3e 0624 c53d
000003f0: 2cbb 913e b3f3 3abe 850d c93c c580 e3bd

cnn1.3.bias f4 [16]
0.48290375 0.17492726 0.17058793 0.104064584 0.23406775 -0.058013536 0.19929689 0.15881763
-0.76092553 0.15377614 -0.36681762 0.09578987 -0.0188016 0.05324289 -0.1145596 -0.14466037
00000000: 293f f73e 2220 333e 9aae 2e3e d01f d53d
00000010: 75af 6f3e 9a9f 6dbd 7c14 4c3e 17a1 223e
00000020: 04cc 42bf 7e77 1d3e 85cf bbbe 7b2d c43d
00000030: d005 9abc 3715 5a3d 399e eabd d921 14be

cnn1.4.weight f4 [16]
1.3435822 1.1529679 1.2492328 1.2632605 1.0128688 1.4491491 1.4190165 1.2087362
1.2742579 1.116484 1.2189894 1.0857317 1.1502274 1.35838 1.1718827 0.95596915
00000000: 80fa ab3f 7494 933f dce6 9f3f 85b2 a13f
00000010: afa5 813f b87d b93f 55a2 b53f deb7 9a3f
00000020: e21a a33f f3e8 8e3f d807 9c3f 42f9 8a3f
00000030: a73a 933f 65df ad3f 4100 963f 65ba 743f

cnn1.4.bias f4 [16]
-0.13617182 -0.046049897 0.22910945 -0.021877164 -0.11003252 0.18682908 0.06134407 -0.25600687
-0.11836498 0.038098503 0.090203986 -0.19039112 -0.13924736 0.24778976 -0.0071145166 -0.2722769
00000000: a070 0bbe d19e 3cbd ab9b 6a3e bd37 b3bc
00000010: bb58 e1bd 1f50 3f3e eb43 7b3d 5513 83be
00000020: 5769 f2bd 2d0d 1c3d debc b83d e4f5 42be
00000030: dc96 0ebe 99bc 7d3e e420 e9bb e167 8bbe

cnn1.4.running_mean f4 [16]
0.28142688 -0.086133905 0.029518792 -0.20679566 0.40750697 0.17228708 0.07859123 -0.21170244
-1.0353987 0.15942338 -0.46246585 0.31401187 -0.30745155 0.42051268 -0.03444172 -0.4698246
00000000: 2f17 903e f966 b0bd 65d1 f13c 3ec2 53be
00000010: c1a4 d03e 066c 303e 70f4 a03d 86c8 58be
00000020: f287 84bf e23f 233e 53c8 ecbe 2ac6 a03e
00000030: 4a6a 9dbe 704d d73e c312 0dbd da8c f0be

cnn1.4.running_var f4 [16]
0.03875654 0.20537457 0.05778811 0.05834507 0.026233733 0.11743147 0.032677416 0.041642953
0.024074066 0.070125505 0.021194354 0.073675364 0.07906833 0.11644824 0.04195657 0.11952883
00000000: 2dbf 1e3d b64d 523e 3ab3 6c3d 3dfb 6e3d
00000010: 20e8 d63c e97f f03d c1d8 053d cd91 2a3d
00000020: fa36 c53c f69d 8f3d c89f ad3c 1ce3 963d
00000030: 94ee a13d 6a7c ee3d a7da 2b3d 88cb f43d

cnn2.0.weight f4 [16, 3, 3, 3]
-0.11497662 -0.12174343 0.033246294 -0.043988496 -0.012963012 -0.010370877 -0.0719707 -0.08430191
-0.19115333 0.26861665 0.17985052 0.048040964 -0.0730699 -0.2069503 -0.05298443 0.27734092
0.07470005 -0.13369375 0.13074419 -0.065251075 0.18189512 0.07540853 -0.24728508 -0.13007882
0.14687009 0.15635224 -0.01919381 -0.09980416 -0.038133956 -0.22025725 -0.090861484 0.0723335
0.17465925 0.12607992 -0.027836015 -0.010777278 -0.124523245 0.057102878 -0.0032112035 -0.27348828
0.011678129 0.1466588 -0.12601542 -0.01707353 -0.14746669 -0.022744391 -0.19840473 0.05269055
0.18955699 0.19293177 0.2034961 0.1386053 0.2534066 -0.13131958 0.18063203 0.062705226
0.019587109 -0.012495016 0.09978775 -0.012596388 0.072236024 -0.2223357 0.05425548 -0.08370111
0.18141279 -0.0150009 0.1615124 -0.13566229 0.044769987 -0.23136246 -0.19859542 -0.09960667
0.11905826 0.16662 0.1510359 0.17801096 0.02162119 -0.1406789 -0.07537961 -0.24145666
-0.0137285 -0.09338479 0.17246081 0.05842663 0.29224828 0.0028431555 0.30100164 -0.19915535
0.019766703 -0.09852826 -0.13028844 -0.07264961 0.09740519 -0.04200067 0.046534587 0.038512517
-0.48289385 -0.11402157 -0.114223875 -0.08831215 -0.07863408 0.0551248 0.084174395 0.32588252
-0.006292964 -0.33437586 -0.1288684 0.051907606 0.077197 0.11448619 -0.12614547 0.06321163
0.05538489 -0.22507414 0.10981115 -0.12314633 -0.22406141 -0.07230036 -0.017873177 -0.18986274
0.18613504 -0.017241912 0.068646364 -0.06873305 0.10269217 0.2043985 -0.17001578 -0.068602026
-0.11894787 -0.05859641 0.2328579 0.18745624 -0.2846955 -0.015522059 -0.036105834 0.15312484
-0.2003367 -0.25716463 -0.0976989 -0.10929832 0.112748094 -0.16962239 -0.06926891 0.055534504
0.20965317 0.17705476 -0.14593908 -0.06570956 0.15249895 -0.02492898 0.02548602 0.1119511
0.22373742 -0.0016453109 0.032228112 0.07248955 -0.19541241 0.0035999543 -0.09093125 -0.14483374
0.18614973 0.0082303025 0.06412225 -0.12534837 0.1691896 -0.06702494 -0.15835355 0.0055229603
-0.04822012 -0.06849128 0.15437713 0.11832242 0.14301555 0.11639598 -0.09250699 -0.1717781
-0.0538991 0.100211546 -0.11593554 0.23180306 0.13929254 -0.040680196 0.20914373 -0.049533505
-0.09646192 -0.09630457 -0.18881513 -0.107986465 0.00051389076 -0.112976305 -0.12245502 -0.16165692
0.29351798 0.18223007 0.2867541 -0.17002684 -0.07769659 0.12689807 -0.022359634 -0.0017827429
-0.23589458 0.19363868 -0.0050012018 0.1745042 -0.21878254 -0.09887378 -0.13399617 -0.08344752
0.03167908 -0.06293056 0.13500251 0.074890725 0.20598191 -0.031307597 -0.14203005 -0.08575008
0.010192477 -0.15242931 -0.16634542 0.14380366 -0.014205201 0.24844909 0.09486521 0.04155031
0.17194282 -0.019436754 0.049233105 -0.14082958 -0.058806233 -0.016960554 0.16535759 -0.11400746
0.025892546 0.18899707 -0.066263415 -0.30167732 -0.16146408 -0.1628294 -0.1314694 0.11415724
0.10212456 0.17026642 0.028945668 -0.2165596 -0.11604353 0.052338872 -0.09222331 0.16185439
0.22086775 0.12623496 -0.0608916 -0.060281586 -0.4191246 -0.027274415 -0.045063183 0.12336552
00000000: dd78 ebbd 9f54 f9bd 442d 083d 482d 34bd
00000010: d062 54bc 9cea 29bc 6065 93bd 7ba6 acbd
00000020: b3bd 43be 1f88 893e bc2a 383e 9ac6 443d
00000030: aca5 95bd c8ea 53be 3406 59bd a1ff 8d3e
00000040: 57fc 983d 04e7 08be cee1 053e 5ba2 85bd
00000050: b742 3a3e ca6f 9a3d 4d38 7dbe 6233 05be
00000060: 1d65 163e cd1a 203e 563c 9dbc 2066 ccbd
00000070: 5a32 1cbd 1e8b 61be 9615 babd 9623 943d
00000080: e0d9 323e 181b 013e 5b08 e4bc 2e93 30bc
00000090: 0b06 ffbd b5e4 693d 0e73 52bb a806 8cbe
000000a0: a055 3f3c b92d 163e 300a 01be cadd 8bbc
000000b0: 8201 17be 7252 babc 9c2a 4bbe 0cd2 573d
000000c0: 3a1b 423e e88f 453e 4861 503e 8cee 0d3e
000000d0: 83be 813e a478 06be 9af7 383e 996b 803d
000000e0: 2575 a03c e5b7 4cbc 855d cc3d 1561 4ebc
000000f0: 7bf0 933d f8ab 63be ff3a 5e3d 7d6b abbd
00000100: 46c4 393e 56c6 75bc 8263 253e 0eeb 0abe
00000110: bc60 373d 48ea 6cbe 995c 4bbe 95fe cbbd
00000120: d1d4 f33d 6f9e 2a3e 28a9 1a3e 8148 363e
00000130: ec1e b13c 210e 10be a060 9abd 6a40 77be
00000140: 81ed 60bc 8640 bfbd 9199 303e c350 6f3d
00000150: 91a1 953e 3c54 3a3b e31c 9a3e 61ef 4bbe
00000160: c8ed a13c 2fc9 c9bd 556a 05be 52c9 94bd
00000170: 5f7c c73d e508 2cbd 0d9b 3e3d 4dbf 1d3d
00000180: dd3d f7be 2484 e9bd 35ee e9bd 00dd b4bd
00000190: e80a a1bd 8bca 613d a063 ac3d 13da a63e
000001a0: 3535 cebb 5033 abbe 14f6 03be 129d 543d
000001b0: 7619 9e3d bc77 ea3d 472c 01be 1975 813d
000001c0: 44db 623d d679 66be abe4 e03d 2534 fcbd
000001d0: 5b70 65be 3612 94bd c56a 92bc 616b 42be
000001e0: 2f9a 3e3e e93e 8dbc 7796 8c3d eac3 8cbd
000001f0: 4650 d23d d74d 513e 9e18 2ebe 387f 8cbd
00000200: f19a f3bd ca02 70bd 4d72 6e3e 87f4 3f3e
00000210: 9cc3 91be 3c50 7ebc b6e3 13bd c2cc 1c3e
00000220: 1025 4dbe 15ab 83be 5c16 c8bd ccd7 dfbd
00000230: 79e8 e63d 7eb1 2dbe dcdc 8dbd 2678 633d
00000240: 52af 563e d84d 353e 0e71 15be bc92 86bd
00000250: af28 1c3e dc37 ccbc 0fc8 d03c 9e46 e53d
00000260: 6c1b 653e 79a7 d7ba a001 043d 6775 943d
00000270: 311a 48be 36ed 6b3b 2a3a babd 4c4f 14be
00000280: 099e 3e3e 64d8 063c 8752 833d 535b 00be
00000290: 0a40 2d3e 5f44 89bd 6f27 22be f3f9 b43b
000002a0: 7682 45bd 2845 8cbd 0a15 1e3e 0653 f23d
000002b0: ab72 123e 0461 ee3d 4e74 bdbd 99e6 2fbe
000002c0: 4dc5 5cbd b63b cd3d 9d6f edbd c85d 6d3e
000002d0: b4a2 0e3e 47a0 26bd c629 563e a5e3 4abd
000002e0: d48d c5bd 553b c5bd c158 41be 0228 ddbd
000002f0: a0b6 063a 1f60 e7bd b3c9 fabd 6489 25be
00000300: fd47 963e 859a 3a3e 6fd1 923e 841b 2ebe
00000310: 641f 9fbd 91f1 013e 8d2b b7bc edaa e9ba
00000320: 598e 71be 3849 463e 1fe1 a3bb 3bb1 323e
00000330: 8808 60be 567e cabd 4b36 09be 89e6 aabd
00000340: ecc1 013d bde1 80bd 193e 0a3e 4f60 993d
00000350: ecec 523e 653c 00bd 5370 11be bd9d afbd
00000360: 59fe 263c 6e16 1cbe 7456 2abe 4441 133e
00000370: eebc 68bc 7069 7e3e b148 c23d a830 2a3d
00000380: c711 303e d439 9fbc a7a8 493d a135 10be
00000390: cede 70bd dcf0 8abc 8053 293e be7c e9bd
000003a0: 9b1c d43c 7388 413e 1db5 87bd 7375 9abe
000003b0: d756 25be c0bc 26be ea9f 06be 45cb e93d
000003c0: ae26 d13d 525a 2e3e 771f ed3c cdc1 5dbe
000003d0: 3ba8 edbd 4961 563d 93df bcbd 28bd 253e
000003e0: 282b 623e bd43 013e 7869 79bd d3e9 76bd
000003f0: 8097 d6be 986e dfbc 2c94 38bd 10a7 fc3d

cnn2.0.bias f4 [16]
0.068342604 -0.19160412 -0.027086644 -0.11583284 0.12543721 0.2264059 0.12834848 -0.018421575
-0.0464039 -0.10503345 -0.16740493 0.08586721 0.14989771 0.036122777 -0.024307951 -0.08118039
00000000: 35f7 8b3d df33 44be cfe4 ddbc c539 edbd
00000010: 9d72 003e f3d6 673e c96d 033e d8e8 96bc
00000020: 0412 3ebd c71b d7bd 336c 2bbe 26db af3d
00000030: c97e 193e 7af5 133d 7821 c7bc e841 a6bd

cnn2.1.weight f4 [16]
0.8402278 0.8089946 1.2171351 0.7984264 0.8346752 0.8476513 1.1640447 1.1090059
1.0867733 1.1561892 1.035855 0.9281597 0.9595128 0.91159075 0.9273004 1.1480156
00000000: 2b19 573f 451a 4f3f 15cb 9b3f ac65 4c3f
00000010: 46ad 553f adff 583f 6bff 943f e8f3 8d3f
00000020: 631b 8b3f 02fe 933f e696 843f e09b 6d3f
00000030: a2a2 753f 035e 693f 8f63 6d3f 2df2 923f

cnn2.1.bias f4 [16]
0.19450009 0.3187935 -0.1512454 -0.4909049 -0.4233131 0.1384675 -0.047275588 -0.20053782
-0.12410208 -0.075244054 0.20166913 -0.08371708 -0.18025035 0.15739825 -0.24058314 0.0074601737
00000000: 082b 473e e738 a33e 13e0 1abe e357 fbbe
00000010: 7fbc d8be 6dca 0d3e 0ca4 41bd c959 4dbe
00000020: 3b29 febd 8e19 9abd 5a82 4e3e dc73 abbd
00000030: 8c93 38be 022d 213e 6d5b 76be 7974 f43b

cnn2.1.running_mean f4 [16]
-0.0041262917 -0.2011287 -0.0071904827 -0.3708718 -0.1426132 0.16829374 0.11785882 -0.042028043
0.052503 -0.09408668 0.0053774817 0.6090012 0.7661087 0.09462998 0.14819075 -0.058939904
00000000: d835 87bb aff4 4dbe 249e ebbb e9e2 bdbe
00000010: 3209 12be 3255 2c3e f75f f13d 9925 2cbd
00000020: 630d 573d 84b0 c0bd 9635 b03b 81e7 1b3f
00000030: b31f 443f 5dcd c13d 51bf 173e f86a 71bd

cnn2.1.running_var f4 [16]
0.00465322 0.0039966153 0.008720269 0.02257402 0.0064020166 0.0013672329 0.0060189376 0.0060962066
0.009496079 0.008826504 0.0071200132 0.010667886 0.017855303 0.004154125 0.0019097148 0.0067504956
00000000: 0a7a 983b 0af6 823b 76df 0e3c 27ed b83c
00000010: 02c8 d13b b934 b33a 823a c53b b0c2 c73b
00000020: 7195 1b3c 0b9d 103c 004f e93b 5bc8 2e3c
00000030: 4945 923c 541f 883b 654f fa3a 4333 dd3b

cnn2.3.weight f4 [16, 16, 3, 3]
0.002932957 -0.07393616 -0.18152979 0.020436674 -0.19070177 0.05031507 -0.027816663 0.029516762
-0.065242454 -0.06732367 0.091683336 -0.032986376 0.050048828 0.0077829626 -0.06533622 0.0242528
-0.028284034 0.030606663 0.14859387 -0.324037 -0.0074556996 -0.11896136 -0.052478246 -0.023899069
0.0461662 0.17249936 -0.054389894 0.12258796 -0.061542984 -0.19135538 0.036443483 -0.10732671
-0.22235513 0.14323632 0.05011898 -0.032584757 0.10573916 0.021226583 0.03686622 -0.0021098775
-0.10122866 -0.010606887 -0.08658526 -0.022550173 0.05855601 -0.20278665 -0.22380923 -0.04950403
-0.173982 -0.00742817 -0.049515255 -0.059865303 -0.07736714 -0.11854696 0.08151134 -0.017149534
-0.1387641 -0.19509928 -0.08258063 0.03861113 -0.09229807 0.121707305 0.013596693 0.09672683
-0.08994776 -0.10426476 0.13227518 0.053171866 0.0988079 -0.09648497 -0.12504363 -0.06691744
0.11532061 0.19623445 0.16462752 0.02796931 0.012395335 -0.079149656 -0.03574669 0.075237796
0.06140615 -0.08415688 -0.119821966 0.04162305 -0.08961886 -0.0077939346 -0.077247426 -0.005439161
0.08636469 -0.127236 -0.124906965 -0.047344614 0.19023615 -0.051603187 0.19014373 -0.058762096
-0.0038970024 0.02057125 -0.01901137 0.012943532 0.03531018 0.13950019 0.025838533 0.033311207
0.06989633 0.06404359 -0.030916452 0.019431608 -0.105135925 -0.114671625 -0.19049323 -0.044051524
-0.09344274 -0.02839942 0.11302773 0.026418572 -0.04956601 0.10704992 0.00012962217 0.08640261
0.03707979 0.088446446 -0.088656776 -0.02259544 0.111013725 0.047017798 -0.067220844 0.03251449
0.02163897 -0.047499012 0.009063654 0.028680105 -0.13270769 -0.0913994 -0.06283408 -0.12533394
-0.08336862 -0.026225897 -0.064110465 -0.07349453 -0.04709012 -0.20100422 0.072993316 0.007017589
0.07120802 -0.103648804 -0.21301465 0.017337512 0.059482392 -0.030245487 -0.15363547 -0.10077635
-0.040084064 0.011065414 -0.13181305 -0.0050822054 -0.01680847 -0.04293562 -0.062298395 0.07541849
0.27434126 -0.04518166 -0.16331317 -0.20000404 0.14045526 -0.027127089 -0.03233233 -0.037670743
0.17470273 0.13145368 -0.07238622 -0.04600992 0.041195784 0.023526022 0.010080412 -0.12492342
0.019549804 0.23064667 0.13774918 0.038257066 -0.0005799268 0.031209249 0.145755 -0.0718282
0.017917478 0.0006436764 0.030314304 -0.041453395 0.022161823 0.0025547142 0.06921945 -0.067412846
0.03495892 0.07927985 0.03316234 -0.01317737 -0.13623077 -0.0026983628 -0.081580125 0.16687143
-0.04897006 0.036820564 0.22989322 0.020586243 0.13015509 0.06062951 -0.092969336 -0.06762384
-0.12901904 -0.074337654 0.028402219 0.12516443 -0.0058817375 -0.22541872 -0.23079644 -0.16803463
-0.122388385 0.12203971 0.14150056 -0.16700281 0.047776375 0.02926641 -0.19173399 0.0072425446
-0.023655297 -0.06723099 0.007258648 0.036043968 -0.09781197 -0.13216998 -0.10182387 -0.11178236
-0.24730048 -0.18070449 -0.09941974 -0.0021991897 0.11784644 -0.028484717 -0.051294528 0.12675744
-0.034420673 -0.13647659 -0.02016119 0.022421911 -0.0041296054 0.11330916 0.029700676 0.084890336
-0.054664005 0.028396932 0.11563543 -0.0484684 -0.06350914 0.05330824 -0.017558778 0.0644962
00000000: da36 403b d76b 97bd f2e2 39be d06a a73c
00000010: 5347 43be 2d17 4e3d c5df e3bc 23cd f13c
00000020: d69d 85bd fee0 89bd 79c4 bb3d b91c 07bd
00000030: 0000 4d3d 3908 ff3b ffce 85bd cfad c63c
00000040: ebb3 e7bc d3ba fa3c fe28 183e 2de8 a5be
00000050: f14e f4bb 03a2 f3bd 6ef3 56bd fbc7 c3bc
00000060: c518 3d3d aca3 303e f0c7 5ebd 650f fb3d
00000070: 7f14 7cbd aaf2 43be c345 153d 1bce dbbd
00000080: 10b1 63be 8bac 123e 8f49 4d3d 9877 05bd
00000090: c68d d83d 5fe3 ad3c 0901 173d df45 0abb
000000a0: f950 cfbd 82c8 2dbc 9d53 b1bd 24bb b8bc
000000b0: 6dd8 6f3d 4ea7 4fbe 3f2e 65be bdc4 4abd
000000c0: 5628 32be 0268 f3bb 82d0 4abd 5235 75bd
000000d0: aa72 9ebd c0c8 f2bd 6bef a63d 2e7d 8cbc
000000e0: 2d18 0ebe 1bc8 47be 0920 a9bd b426 1e3d
000000f0: c506 bdbd ae41 f93d aac4 5e3c b718 c63d
00000100: 8836 b8bd c388 d5bd 2573 073e beca 593d
00000110: cc5b ca3d e999 c5bd 700b 00be 030c 89bd
00000120: 362d ec3d aff1 483e 1e94 283e e51f e53c
00000130: ce15 4b3c 3719 a2bd 1f6b 12bd 4616 9a3d
00000140: 0485 7b3d 715a acbd 3865 f5bd ee7c 2a3d
00000150: 188a b7bd 4364 ffbb e633 9ebd fd3a b2bb
00000160: f8df b03d 274a 02be 39cf ffbd 6dec 41bd
00000170: 44cd 423e dd5d 53bd 0ab5 423e 86b0 70bd
00000180: da64 7fbb 0a85 a83c bcbd 9bbc 1c11 543c
00000190: 68a1 103d 23d9 0e3e 55ab d33c 5571 083d
000001a0: cf25 8f3d 4929 833d 8044 fdbc 092f 9f3c
000001b0: 8151 d7bd f5d8 eabd a810 43be 5f6f 34bd
000001c0: e85e bfbd e7a5 e8bc 157b e73d c36b d83c
000001d0: ba05 4bbd fd3c db3d 30eb 0739 daf3 b03d
000001e0: fae0 173d 6923 b53d af91 b5bd 121a b9bc
000001f0: 2a5b e33d bc95 403d 15ab 89bd ea2d 053d
00000200: 3644 b13c 538e 42bd b87f 143c 8af2 ea3c
00000210: 86e4 07be 9c2f bbbd 27af 80bd 8a57 00be
00000220: 2bbd aabd b1d7 d6bc 594c 83bd 4d84 96bd
00000230: 92e1 40bd 0dd4 4dbe 857d 953d cef3 e53b
00000240: 83d5 913d d345 d4bd 8320 5abe 6607 8e3c
00000250: cfa3 733d 62c5 f7bc 9e52 1dbe d563 cebd
00000260: 302f 24bd b64b 353c 00fa 06be a188 a6bb
00000270: ebb1 89bc 43dd 2fbd 9a2c 7fbd 0275 9a3d
00000280: 7576 8c3e 6810 39bd 913b 27be dccd 4cbe
00000290: 81d3 0f3e a139 debc e86e 04bd a34c 1abd
000002a0: 46e5 323e cb9b 063e 3a3f 94bd e674 3cbd
000002b0: e9bc 283d a5b9 c03c 5028 253c dad7 ffbd
000002c0: e926 a03c a42e 6c3e 1f0e 0d3e 71b3 1c3d
000002d0: 3b06 18ba 8aaa ff3c cc40 153e aa1a 93bd
000002e0: adc7 923c 64bc 283a b455 f83c 09cb 29bd
000002f0: b68c b53c fe6c 273b edc2 8d3d bf0f 8abd
00000300: 1631 0f3d 795d a23d 3cd5 073d e5e5 57bc
00000310: 1480 0bbe 04d7 30bb 7b13 a7bd 58e0 2a3e
00000320: d494 48bd 29d1 163d 2169 6b3e 7ba4 a83c
00000330: 6047 053e a656 783d b566 bebd 5e7e 8abd
00000340: 911d 04be 573e 98bd c5ab e83c 1b2b 003e
00000350: 97bb c0bb 2ad4 66be e755 6cbe 4511 2cbe
00000360: c3a6 fabd f5ef f93d 86e5 103e c902 2bbe
00000370: 29b1 433d 1cc0 ef3c ea55 44be de52 ed3b
00000380: c1c8 c1bc 67b0 89bd f4d9 ed3b d7a2 133d
00000390: a451 c8bd 9157 07be 0889 d0bd 26ee e4bd
000003a0: 563c 7dbe 990a 39be 949c cbbd 4820 10bb
000003b0: 7959 f13d c858 e9bc 361a 52bd b4cc 013e
000003c0: b1fc 0cbd 85c0 0bbe 1429 a5bc 28ae b73c
000003d0: a451 87bb a20e e83d d54e f33c fcda ad3d
000003e0: 5de7 5fbd afa0 e83c 45d2 ec3d cd86 46bd
000003f0: 1411 82bd be59 5a3d 6dd7 8fbc 9516 843d

cnn2.3.bias f4 [16]
0.22348739 0.20732383 0.11070093 0.30270728 -0.14968772 -0.12938087 0.10009467 0.335492
0.27948636 0.21387722 0.19083185 0.20327154 -0.2518527 0.049106322 -0.12621602 0.24467035
00000000: e1d9 643e b34c 543e 2bb7 e23d 73fc 9a3e
00000010: bd47 19be 6b7c 04be 6ffe cc3d 9cc5 ab3e
00000020: d618 8f3e a102 5b3e 6d69 433e 6a26 503e
00000030: d6f2 80be b623 493d c63e 01be dd8a 7a3e

cnn2.4.weight f4 [16]
1.7600482 1.5810146 1.3880502 1.5483891 1.4989531 1.3716296 1.8480608 1.4546299
1.4384301 1.6769817 2.099636 1.7032026 1.5820018 1.314253 1.6272409 1.7657679
00000000: 4249 e13f b05e ca3f a1ab b13f 9d31 c63f
00000010: b2dd bf3f 8f91 af3f 428d ec3f 5031 ba3f
00000020: 7a1e b83f 56a7 d63f 7060 0640 8b02 da3f
00000030: 097f ca3f 7139 a83f 6e49 d03f af04 e23f

cnn2.4.bias f4 [16]
-0.021701764 -0.08845174 0.058177933 0.080860876 -0.043733682 0.04547187 0.333061 0.17220172
-0.0089693805 0.33862013 0.22899508 0.040088326 -0.097112425 -0.11615117 -0.016479826 0.018703077
00000000: e6c7 b1bc 3026 b5bd fc4b 6e3d 639a a53d
00000010: 1722 33bd b640 3a3d f986 aa3e a655 303e
00000020: 4ff4 12bc 9e5f ad3e b07d 6a3e a833 243d
00000030: e1e2 c6bd aae0 edbd b300 87bc 3237 993c

cnn2.4.running_mean f4 [16]
-0.376414 0.08766327 -0.42572117 0.241823 -0.4960473 -0.560199 0.11692189 0.20407932
-0.13035917 0.39517578 0.2964872 0.28677318 -0.50604945 0.2339073 -0.6887823 -0.23402758
00000000: 56b9 c0be cd88 b33d 20f8 d9be 73a0 773e
00000010: e9f9 fdbe 3469 0fbf be74 ef3d 2bfa 503e
00000020: e07c 05be 7b54 ca3e 2ccd 973e efd3 923e
00000030: 758c 01bf 6585 6f3e 0954 30bf eda4 6fbe

cnn2.4.running_var f4 [16]
0.44800648 0.17210451 0.19101308 0.16399503 0.4077715 0.3701203 0.34089124 0.22428955
0.16475148 0.2914447 0.6039511 0.227195 0.5015108 0.47177958 0.61303633 0.3948885
00000000: 1b61 e53e 2a3c 303e ef98 433e 50ee 273e
00000010: 6dc7 d03e 6880 bd3e 4c89 ae3e 29ac 653e
00000020: 9db4 283e 3d38 953e 8a9c 1a3f cea5 683e
00000030: 0363 003f 188d f13e f3ef 1c3f d32e ca3e

cnn3.0.weight f4 [16, 3, 7, 7]
-0.0033485203 0.018449876 0.10658243 0.17937714 0.092786625 0.15149003 0.059751336 0.04811605
0.08580745 0.13716754 0.23193498 0.18381909 0.16201028 0.08983957 0.15392923 0.19111572
0.087174 0.15921222 0.089562915 0.14942198 0.0756898 0.21018726 0.13844596 0.10100667
0.2421654 0.17212829 0.18521649 0.15077999 0.0718836 0.17370601 0.15588519 0.09487138
0.068268396 0.10313182 0.0837306 0.044608522 0.12492768 0.108069606 0.24239706 0.06630977
-0.019663304 0.103036754 -0.053771384 0.03951884 0.029947469 0.13571534 0.14080429 -0.0058658645
-0.01925747 -0.12030933 -0.036362372 -0.06677333 -0.029077552 -0.11254825 -0.1413373 -0.1485871
-0.16689652 -0.11954568 -0.11473469 0.030610412 -0.09435625 -0.06175686 -0.13482498 0.013460708
-0.109276116 -0.1458583 0.02994204 -0.0805028 -0.0920525 -0.10013052 -0.12940767 -0.044235952
-0.056845833 -0.087019935 -0.05816606 0.009754606 -0.06631198 -0.023591453 -0.1565334 -0.12753196
-0.12079282 -0.12918165 -0.1344873 -0.13038638 -0.14454567 -0.054522227 0.03092572 -0.053988647
-0.07073007 -0.18777221 -0.05869678 -0.089980185 -0.09491702 -0.05385537 -0.0721486 -0.1071362
-0.10986696 -0.0138482945 0.0133762555 0.071477115 -0.071409315 0.045083422 -0.013209759 -0.007639695
-0.027132003 -0.002083453 -0.03487063 -0.088415354 0.057922844 0.020742662 -0.021976843 -0.090592384
-0.022011764 -0.004947003 -0.047578797 -0.04108626 0.07677418 0.016717082 0.072027564 0.05894253
0.04001786 -0.1153152 -0.058275342 -0.060673423 0.009304806 0.019366542 0.0049405918 -0.08093777
-0.07831386 0.059009124 0.07340406 -0.0130843185 -0.030702567 0.02070586 0.03279336 0.07135866
-0.028329665 -0.06764146 -0.018585715 0.002136838 0.013581675 -0.0026550733 0.07659122 0.12816978
0.035126913 -0.07109153 0.10003704 0.0047801714 0.16282825 0.12272968 0.0071118255 0.021769037
0.056745566 -0.016725559 0.01857997 0.16119212 0.06802063 0.014423585 0.005432096 -0.0057344013
0.004386211 0.027462605 0.07703743 -0.05057703 -0.10134067 -0.13061646 0.005936619 -0.023654351
0.033136692 0.17298588 -0.089240834 -0.14759466 0.08255412 0.01857253 0.13406645 -0.009229637
0.045357067 -0.000846678 -0.012722856 0.08315609 0.11618589 0.0749246 -0.005433287 -0.026675152
-0.05895824 0.12912002 0.172952 0.06573207 -0.022117855 -0.05210109 -0.023056079 0.064722456
0.097354956 0.07711073 -0.01189653 -0.1626207 -0.067604795 0.113551855 -0.07823764 -0.03968187
-0.031478353 0.02610392 -0.0936712 0.06121751 0.13372402 -0.017139379 -0.0069839004 -0.035129525
-0.07204394 0.05518718 0.06953055 0.11460986 0.0392308 -0.088481985 -0.13516684 0.059266835
0.028231544 0.09654028 0.030889878 -0.15182613 -0.088482425 0.0750963 0.16834806 0.114414796
-0.05861395 -0.09895174 -0.12584314 -0.047484174 0.14205423 0.05715453 0.05071167 -0.06849264
0.051345184 -0.038075127 0.06993198 0.18062975 0.058016703 -0.16951168 -0.08615026 -0.03327292
-0.08148251 -0.056586783 0.08070509 -0.11440637 -0.0830261 -0.0076188766 0.010636889 -0.08152129
-0.060663912 -0.05501635 0.02521527 -0.11114509 0.010657142 0.08927415 -0.08402051 -0.16011856
00000000: d972 5bbb 3224 973c e447 da3d a4ae 373e
00000010: ea06 be3d 3420 1b3e d1bd 743d 5615 453d
00000020: d1bb af3d a675 0c3e 5d80 6d3e 123b 3c3e
00000030: 06e6 253e cffd b73d a09f 1d3e d7b3 433e
00000040: 4888 b23d 8708 233e c36c b73d 1302 193e
00000050: 4103 9b3d 543b 573e c7c4 0d3e 96dc ce3d
00000060: 35fa 773e 6642 303e 64a9 3d3e 1266 1a3e
00000070: b537 933d fddf 313e 5ea0 1f3e ed4b c23d
00000080: 4dd0 8b3d c736 d33d f37a ab3d 6db7 363d
00000090: 15da ff3d 9953 dd3d ef36 783e 6bcd 873d
000000a0: f014 a1bc ef04 d33d 623f 5cbd 82de 213d
000000b0: 6554 f53c f6f8 0a3e 002f 103e 7036 c0bb
000000c0: d7c1 9dbc bd64 f6bd b6f0 14bd 75c0 88bd
000000d0: 0c34 eebc b27f e6bd baba 10be 3727 18be
000000e0: ece6 2abe 5ed4 f4bd 05fa eabd b0c2 fa3c
000000f0: d93d c1bd c3f4 7cbd 8f0f 0abe 4d8a 5c3c
00000100: 28cc dfbd e15b 15be 0249 f53c a7de a4bd
00000110: 0586 bcbd 3b11 cdbd 7283 04be c230 35bd
00000120: 2dd7 68bd 8237 b2bd 893f 6ebd c8d1 1f3c
00000130: 93ce 87bd dd42 c1bc 4b4a 20be bd97 02be
00000140: 3a62 f7bd 3248 04be 0ab7 09be 0284 05be
00000150: c803 14be b352 5fbd f057 fd3c 3323 5dbd
00000160: edda 90bd 5c47 40be 096c 70bd 8847 b8bd
00000170: db63 c2bd 7397 5cbd a5c2 93bd 396a dbbd
00000180: ee01 e1bd f5e3 62bc 1528 5b3c 9862 923d
00000190: 0c3f 92bd 65a9 383d bf6d 58bc 6856 fabb
000001a0: ef43 debc 8a8a 08bb 81d4 0ebd 1c13 b5bd
000001b0: 8140 6d3d 84ec a93c c808 b4bc 8088 b9bd
000001c0: 0452 b4bc 781a a2bb fce1 42bd 114a 28bd
000001d0: c83b 9d3d 43f2 883c 3083 933d b96d 713d
000001e0: c4e9 233d 602a ecbd 20b2 6ebd b284 78bd
000001f0: 2f73 183c 95a6 9e3c b0e4 a13b b4c2 a5bd
00000200: 0463 a0bd 8db3 713d de54 963d 9c5f 56bc
00000210: f383 fbbc 569f a93c 5552 063d 7d24 923d
00000220: 9d13 e8bc 9b87 8abd 1241 98bc 310a 0c3b
00000230: ac85 5e3c bd00 2ebb dcdb 9c3d f03e 033e
00000240: 3de1 0f3d 7098 91bd 38e0 cc3d fca2 9c3b
00000250: 73bc 263e b359 fb3d 510a e93b fb54 b23c
00000260: 0a6e 683d 0a04 89bc 0535 983c 8c0f 253e
00000270: 664e 8b3d e650 6c3c b9ff b13b a5e7 bbbb
00000280: 34ba 8f3b 42f9 e03c cdc5 9d3d dc29 4fbd
00000290: b28b cfbd 52c0 05be f887 c23b c5c6 c1bc
000002a0: 57ba 073d 3623 313e e6c3 b6bd 0e23 17be
000002b0: 2212 a93d 6b25 983c b748 093e e737 17bc
000002c0: 55c8 393d 99f3 5dba 8773 50bc bd4d aa3d
000002d0: def2 ed3d 1272 993d b709 b2bb d985 dabc
000002e0: 327e 71bd 0a38 043e 541a 313e 899e 863d
000002f0: 8130 b5bc f467 55bd 1ae0 bcbc 358d 843d
00000300: 0962 c73d 3bec 9d3d aae9 42bc 0a86 26be
00000310: 6274 8abd e08d e83d 0e3b a0bd 7589 22bd
00000320: 72ef 00bd e3d7 d53c b0d6 bfbd 36bf 7a3d
00000330: f3ee 083e e267 8cbc 34d9 e4bb fae3 0fbd
00000340: c68b 93bd f40b 623d 0866 8e3d 93b8 ea3d
00000350: 7ab0 203d 0b36 b5bd 2d69 0abe c8c1 723d
00000360: d745 e73c e9b6 c53d c50c fd3c 4f78 1bbe
00000370: 4636 b5bd 17cc 993d 6f63 2c3e 4e52 ea3d
00000380: 2e15 70bd 36a7 cabd 06dd 00be c47e 42bd
00000390: aa76 113e de1a 6a3d 0ab7 4f3d df45 8cbd
000003a0: 544f 523d aaf4 1bbd 7f38 8f3d 01f7 383e
000003b0: eca2 6d3d 7894 2dbe 8c6f b0bd 2f49 08bd
000003c0: 4de0 a6bd 8bc7 67bd b648 a53d e34d eabd
000003d0: 9709 aabd c5a7 f9bb 5946 2e3c a2f4 a6bd
000003e0: b97a 78bd d358 61bd 4190 ce3c 09a0 e3bd
000003f0: 4b9b 2e3c 5ed5 b63d f212 acbd 1ff6 23be

cnn3.0.bias f4 [16]
-0.007978271 -0.05887687 0.060719382 -0.039828558 -0.05001248 0.05091547 -0.021436444 0.031744707
0.08720892 -0.017093753 0.041373275 0.051308196 -0.03824214 0.019956196 0.08922322 -0.056404438
00000000: 4bb7 02bc df28 71bd e3b4 783d 4523 23bd
00000010: e3d9 4cbd bd8c 503d 7b9b afbc bd06 023d
00000020: 979a b23d 3308 8cbc 0677 293d 8b28 523d
00000030: caa3 1cbd 2d7b a33c aaba b63d 5708 67bd

cnn3.1.weight f4 [16]
0.87213004 0.9608971 1.307493 0.937807 0.9172587 0.8347854 1.1527095 1.0601273
1.1215205 0.56861466 0.9084393 0.92610717 1.043261 0.9893554 0.97690064 1.0560297
00000000: ea43 5f3f 5afd 753f ee5b a73f 1f14 703f
00000010: 77d1 6a3f 7fb4 553f fc8b 933f 40b2 873f
00000020: fc8d 8f3f bb90 113f 7a8f 683f 5c15 6d3f
00000030: 9489 853f 6546 7d3f 2916 7a3f fb2b 873f

cnn3.1.bias f4 [16]
-0.40655497 -0.22037643 -0.40062883 0.027113557 0.0056602983 -0.59982413 -0.1909916 0.013336087
-0.32323065 -0.1591865 0.08054759 -0.18787743 -0.04813275 -0.22716826 -0.23997635 -0.1997548
00000000: f927 d0be 5caa 61be 391f cdbe 401d de3c
00000010: 067a b93b 138e 19bf 4d93 43be 9a7f 5a3c
00000020: 7d7e a5be c901 23be 23f6 a43d f162 40be
00000030: d926 45bd cc9e 68be 5cbc 75be 868c 4cbe

cnn3.1.running_mean f4 [16]
1.1860223 0.22979939 0.047409207 -0.031238914 0.11645975 -0.60771227 0.70395255 0.07764067
0.04897214 -1.220283 0.12020718 -0.1842231 0.018407177 -0.018489815 0.92459506 0.053727757
00000000: 94cf 973f 8850 6b3e 2830 423d c0e8 ffbc
00000010: 7382 ee3d 0893 1bbf 3c36 343f 1202 9f3d
00000020: 0397 483d 3c32 9cbf 2f2f f63d fba4 3cbe
00000030: a6ca 963c f477 97bc 43b2 6c3f a311 5c3d

cnn3.1.running_var f4 [16]
0.042115368 0.04060499 0.04321286 0.035991497 0.07872644 0.10676443 0.11203337 0.17364153
0.04281973 0.3124177 0.09821483 0.062272303 0.045706037 0.08180196 0.027534729 0.12090775
00000000: 2a81 2c3d 6b51 263d f8ff 303d d26b 133d
00000010: 543b a13d 4fa7 da3d c071 e53d 16cf 313e
00000020: be63 2f3d 36f5 9f3e db24 c93d 3e11 7f3d
00000030: 4136 3b3d c987 a73d 8390 e13c 7c9e f73d

cnn3.3.weight f4 [16, 16, 7, 7]
-0.10930086 -0.11458641 -0.02589973 -0.029129138 -0.042560853 -0.038229235 0.013086475 -0.061213024
-0.04264797 -0.04201701 -0.047484443 -0.022578364 0.012799549 0.075190485 0.0075496114 0.017489726
-0.00774573 0.053652376 0.066453196 0.037805293 0.07948678 0.033319656 0.03884369 0.0659168
0.12129093 0.09390931 0.06925028 0.05304626 0.02380179 0.036682304 0.05787847 0.087408446
0.03635315 0.051836867 0.054908786 -0.017982963 -0.01728674 0.036193185 0.05459196 0.0054894006
-0.008592288 0.037449963 -0.052160576 -0.052444026 0.023873188 0.04663248 0.011821011 0.025470046
0.09203545 -0.03609117 -0.039932705 0.00059295766 0.063039444 0.0062705125 0.023151597 -0.016362024
0.08334551 0.06324231 -0.042312615 -0.045135558 -0.17256118 -0.057145864 -0.016531881 0.08027393
0.025635084 -0.1113302 -0.12505905 -0.16871774 -0.28177813 -0.096957736 0.054547034 -0.05392566
0.04277564 0.060713857 -0.053042255 0.046082143 -0.06367365 0.0409078 0.013942017 0.114400804
0.051226467 0.10722384 0.033024788 -0.040759765 -0.028564125 -0.033745956 -0.09686495 -0.008195143
-0.049397748 -0.03402918 -0.003104507 -0.06940605 -0.14468071 -0.16391459 -0.16635484 -0.15092386
-0.027096951 -0.19672336 0.01668824 0.09123507 -0.051479917 0.011085272 0.04827129 -0.07820069
-0.10304103 -0.014053308 -0.05112344 -0.18433744 0.05961234 -0.03396098 -0.21042855 0.007988056
-0.024419393 -0.16229342 -0.06590298 -0.076473966 -0.05493341 -0.14890301 0.010020166 0.03563026
-0.0775966 -0.016271267 0.057696797 0.10226771 -0.024368232 0.2736181 0.0079855705 -0.11824418
-0.026564734 0.0535747 0.0813203 0.115399346 0.022956822 -0.03557118 -0.08251065 -0.005548828
0.027297702 0.036675133 -0.0073345215 -0.1310845 0.022237564 -0.076669015 0.0013439499 -0.01907521
-0.014838501 -0.17881414 -0.005245221 -0.08239649 -0.14048758 -0.0858987 -0.12819645 -0.09196164
-0.12052821 -0.07287322 -0.10616253 -0.09507174 0.104166284 0.043152235 0.018610952 -0.11544568
-0.032027513 0.046534494 0.0040040617 0.184559 0.16291215 0.02353949 -0.036515176 0.07388146
0.19589983 0.0039424184 0.013077365 0.07305619 0.033774998 0.02892374 0.07502285 0.09139987
-0.005543884 0.018294813 0.016173165 0.0021439528 0.017839402 0.15191096 -0.067718685 -0.09024858
0.016121814 0.027534856 -0.045746326 0.09385523 0.068860516 -0.103102416 -0.033231054 0.0103858635
-0.045755208 -0.008784692 0.06580656 -0.07195696 -0.03450163 -0.005312894 -0.008670187 0.029944142
-0.09614749 -0.07176345 0.075938314 -0.025828855 0.03700915 0.06595194 0.15857656 0.037716355
0.0070776665 0.023254571 0.047254357 0.14670198 0.14830475 0.19190978 0.09772527 0.05605171
0.085266314 0.10734788 0.10072035 0.0034562934 0.11303797 0.05705423 0.039734103 -0.017649323
0.11140318 0.09864579 0.039131228 0.049731407 0.02646732 0.03536899 -0.021526419 0.04057916
0.012314329 -0.078875214 -0.05530005 0.022065569 0.04620209 -0.095327005 -0.027324298 -0.06328254
-0.07136537 -0.021670079 -0.024058916 -0.019087357 -0.09845323 -0.13925248 -0.05514367 0.0046893344
0.029468939 0.040913485 -0.028233055 -0.16065393 -0.0054608947 0.10866947 0.14758694 0.07455884
00000000: 21d9 dfbd 48ac eabd ac2b d4bc 3ba0 eebc
00000010: 4a54 2ebd 4296 1cbd a868 563c 82ba 7abd
00000020: a3af 2ebd 071a 2cbd 0c7f 42bd 43f6 b8bc
00000030: 33b5 513c 78fd 993d bb62 f73b 9d46 8f3c
00000040: e5cf fdbb 98c2 5b3d 9d18 883d b9d9 1a3d
00000050: f7c9 a23d 317a 083d 901a 1f3d 63ff 863d
00000060: 6167 f83d 8653 c03d 17d3 8d3d 0947 593d
00000070: f9fb c23c 2f40 163d f911 6d3d 3303 b33d
00000080: 0ae7 143d e552 543d 09e8 603d 0251 93bc
00000090: ec9c 8dbc 4e3f 143d d29b 5f3d 6ee0 b33b
000000a0: abc6 0cbc 2265 193d 54a6 55bd 8ccf 56bd
000000b0: b491 c33c b301 3f3d eaac 413c 8fa6 d03c
000000c0: 157d bc3d 56d4 13bd 7a90 23bd b770 1b3a
000000d0: d31a 813d df78 cd3b 6ba8 bd3c a709 86bc
000000e0: 0db1 aa3d 2f85 813d fe4f 2dbd 10e0 38bd
000000f0: e1b3 30be c811 6abd de6d 87bc a966 a43d
00000100: ab00 d23c 1701 e4bd 7b0f 00be 58c4 2cbe
00000110: 3945 90be c791 c6bd b66c 5f3d 27e1 5cbd
00000120: 8235 2f3d 18af 783d d642 59bd a1c0 3c3d
00000130: 5567 82bd f08e 273d 0f6d 643c f84a ea3d
00000140: d8d2 513d 2c98 db3d 0045 073d b6f3 26bd
00000150: 50ff e9bc 3339 0abd 2261 c6bd ec44 06bc
00000160: 4b55 4abd 2e62 0bbd fc74 4bbb c224 8ebd
00000170: 2e27 14be 3ad9 27be ec58 2abe c98b 1abe
00000180: 6dfa ddbc d971 49be c7b5 883c 74d9 ba3d
00000190: 9bdc 52bd 009f 353c 1eb8 453d af27 a0bd
000001a0: 2d07 d3bd d93f 66bc d066 51bd f4c2 3cbe
000001b0: 122c 743d ab1a 0bbd 957a 57be 56e0 023c
000001c0: 2e0b c8bc 3f30 26be 24f8 86bd 629e 9cbd
000001d0: db01 61bd 087a 18be 9f2b 243c 09f1 113d
000001e0: f7ea 9ebd 524b 85bc 7a53 6c3d bc71 d13d
000001f0: e39f c7bc ac17 8c3e e9d5 023c 012a f2bd
00000200: 499e d9bc 2571 5b3d 428b a63d 7e56 ec3d
00000210: f20f bc3c 16b3 11bd 58fb a8bd f1d2 b5bb
00000220: 6e9f df3c aa38 163d 6d56 f0bb 043b 06be
00000230: 8d2b b63c a504 9dbd 7a27 b03a 9d43 9cbc
00000240: 2f1d 73bc 0e1b 37be 1ae0 abbb 7ebf a8bd
00000250: fadb 0fbe a8eb afbd ee45 03be 6256 bcbd
00000260: 7fd7 f6bd 8e3e 95bd be6b d9bd f9b4 c2bd
00000270: 2255 d53d 66c0 303d ff75 983c c96e ecbd
00000280: 482f 03bd f49a 3e3d 8134 833b 09fd 3c3e
00000290: 71d2 263e e3d5 c03c f090 15bd 2a4f 973d
000002a0: f799 483e 672f 813b 7242 563c 7c9e 953d
000002b0: a757 0a3d 7bf1 ec3c 94a5 993d db2f bb3d
000002c0: 78a9 b5bb 01df 953c 967d 843c 8f81 0c3b
000002d0: f023 923c 8c8e 1b3e 18b0 8abd 3fd4 b8bd
000002e0: e511 843c c790 e13c 8060 3bbd 2c37 c03d
000002f0: be06 8d3d 5c27 d3bd 491d 08bd 7829 2a3c
00000300: d069 3bbd abed 0fbc 97c5 863d 2c5e 93bd
00000310: 9551 0dbd c917 aebb 660d 0ebc 6b4d f53c
00000320: fae8 c4bd b7f8 92bd 8c85 9b3d 0997 d3bc
00000330: e896 173d d011 873d e561 223e 777c 1a3d
00000340: c5eb e73b 5f80 be3c c98d 413d 0b39 163e
00000350: 33dd 173e ff83 443e 3024 c83d 7a96 653d
00000360: 1ba0 ae3d 35d9 db3d 7946 ce3d fb82 623b
00000370: 7480 e73d b2b1 693d 3ac0 223d 5095 90bc
00000380: 5a27 e43d ce06 ca3d 1148 203d 29b3 4b3d
00000390: fed1 d83c 13df 103d 2c58 b0bc 5536 263d
000003a0: 0ac2 493c 5489 a1bd 4e82 62bd dac2 b43c
000003b0: 673e 3d3d ce3a c3bd 35d7 dfbc 479a 81bd
000003c0: 0228 92bd 7385 b1bc 3417 c5bc 175d 9cbc
000003d0: d9a1 c9bd 3498 0ebe 54de 61bd fda8 993b
000003e0: d868 f13c e694 273d 0249 e7bc 7782 24be
000003f0: 4ef1 b2bb 198e de3d 0821 173e 4eb2 983d

cnn3.3.bias f4 [16]
0.05355234 0.09589103 0.07329676 0.14774139 0.07192982 -0.11644187 -0.040609144 -0.1012097
0.14986399 -0.07566928 0.0864604 0.1446435 -0.06719077 -0.03626629 -0.041881405 0.14032957
00000000: b359 5b3d 8462 c43d 9d1c 963d 8549 173e
00000010: f14f 933d 1379 eebd c655 26bd 0847 cfbd
00000020: f275 193e 7ff8 9abd 2612 b13d 6d1d 143e
00000030: 509b 89bd f68b 14bd d68b 2bbd 8eb2 0f3e

cnn3.4.weight f4 [16]
1.9729364 1.7829043 1.970202 2.3534272 1.9153287 1.6741054 1.5168859 1.5629
2.2726357 1.4085588 1.5888143 2.2247007 1.5783043 1.5464616 1.591747 3.100892
00000000: 2e89 fc3f 3536 e43f 942f fc3f 8d9e 1640
00000010: 7e29 f53f 1649 d63f 5129 c23f 1b0d c83f
00000020: dd72 1140 a84b b43f 445e cb3f 7f61 0e40
00000030: e005 ca3f 74f2 c53f 5ebe cb3f 0475 4640

cnn3.4.bias f4 [16]
-0.03588199 0.067400515 0.1533032 -0.06364051 -0.05782594 0.008443506 -0.22878876 -0.14044224
-0.20815386 -0.065521315 0.028450236 -0.055672687 -0.056668922 -0.010749987 0.046873357 0.12918223
00000000: fef8 12bd 4809 8a3d 84fb 1c3e f555 82bd
00000010: e5da 6cbd a256 0a3c 9a47 6abe 17d0 0fbe
00000020: 4926 55be 0a30 86bd 7810 e93c 0b09 64bd
00000030: ac1d 68bd b720 30bc 47fe 3f3d 5948 043e

cnn3.4.running_mean f4 [16]
-0.70475703 -0.40351543 -0.34446812 -0.5414125 -0.9445514 -0.816276 -0.3345186 -0.9693916
-0.96025604 -0.9817492 -0.25769514 -0.57665855 -0.7791855 -0.08873638 -1.8253101 -0.94255054
00000000: f56a 34bf 9399 cebe 205e b0be 029a 0abf
00000010: 1fce 71bf 77f7 50bf 0646 abbe 0c2a 78bf
00000020: 57d3 75bf ea53 7bbf 9ef0 83be e59f 13bf
00000030: b378 47bf 6bbb b5bd c3a3 e9bf fe4a 71bf

cnn3.4.running_var f4 [16]
1.8808401 1.9433625 2.3952022 2.3208907 2.379548 1.6846007 1.1643348 1.010294
3.4756262 1.9848571 2.3011575 2.920438 3.4557886 2.1607478 5.2186394 4.482254
00000000: 5ebf f03f 1ac0 f83f fe4a 1940 7989 1440
00000010: 844a 1840 ffa0 d73f ec08 953f 5051 813f
00000020: a970 5e40 cc0f fe3f 2a46 1340 75e8 3a40
00000030: a42b 5d40 b149 0a40 18ff a640 a06e 8f40

cnn4.0.weight f4 [16, 3, 15, 15]
-0.023918413 -0.016591452 -0.016986974 -0.10112228 -0.06605587 -0.011744104 0.018131988 0.0422956
-0.10621256 -0.11469226 -0.103472136 -0.1433103 -0.08932264 -0.025253339 0.14737365 -0.018271958
-0.039206237 -0.01791913 -0.10060535 -0.06821339 0.015181118 0.05549222 0.052867647 0.017997459
-0.028612154 -0.074105926 -0.031191185 -0.04063549 -0.020639967 0.09859497 -0.024589403 0.007853059
-0.029877737 -0.11898092 -0.019959848 0.047461435 0.10615345 0.06825998 0.055358615 -0.029008983
-0.036968935 -0.028530192 -0.031996567 0.0111296 0.105016366 -0.0334744 -0.019732796 -0.055261634
-0.07920106 -0.008442824 0.0776313 0.10042785 0.07700506 2.0851481e-05 0.014641367 0.0057530687
-0.020912347 0.013847679 0.0025410529 0.09285302 0.0038350173 -0.036436994 -0.05607275 -0.06431636
0.014937097 0.07900926 0.12973125 0.12121402 -0.009831345 -0.010230363 0.017940814 0.07352271
0.021782931 0.030140186 0.057789613 -0.018204479 -0.034819618 -0.006374859 -0.07847904 0.020956332
0.12544376 0.15756078 0.08545301 0.024535956 0.0042371606 0.05505514 0.023820283 0.07380194
-9.2466165e-05 -0.014561769 -0.041281313 -0.00608819 -0.032850303 -0.047044292 0.09700761 0.18117106
0.18438321 0.210843 0.06653409 0.108279265 0.0668812 0.06398185 0.030441662 0.039403602
0.027464924 -0.0021488722 -0.00448946 0.026304824 0.023430904 0.08490023 0.15508853 0.19970997
0.24351482 0.12678672 0.10717858 0.028980708 -0.006403511 0.018193651 0.006895018 0.02692075
0.015090137 0.026194792 0.024800532 0.02533124 0.08172768 0.12255926 0.18396065 0.13799372
0.046729427 0.011385526 -0.033130426 -0.07764878 -0.011974133 -0.03832218 -0.012974351 0.08120814
0.07312942 0.055110876 -0.012665383 0.02904014 0.10439826 0.060355324 0.09704941 -0.012621708
-0.0840084 -0.0966912 -0.08544981 -0.070158765 -0.05082761 0.0091117285 0.07625762 0.049203504
0.048745982 -0.064422205 -0.025484659 0.025695853 0.029459465 -0.008638963 -0.034236588 -0.059830822
-0.018610895 -0.04816292 0.030059457 0.018849138 0.016367087 0.14200431 0.1276813 0.077906504
-0.0004561217 -0.015119175 0.00022989015 0.01996506 0.08720893 0.0372347 0.060797952 0.050494798
0.0972984 0.07324045 0.088497244 0.021306073 0.054143734 0.075152054 0.056854114 -0.053254705
-0.024629876 0.013620679 0.05209458 0.059093934 0.053356454 0.12001436 0.09190303 0.1188
0.08485341 0.038013786 0.037466288 0.042091705 0.07577351 0.059076663 -0.033355016 -0.02277615
0.06819797 0.022765946 0.08418132 0.045969963 0.1105046 0.08848336 0.008103834 -0.007325845
0.016766202 -0.020082684 0.01832983 0.0543093 0.12267032 -0.009041794 0.044964116 -0.00406305
0.061604455 0.034565955 -0.014591524 -0.021546517 0.025499135 0.00725993 -0.06276446 -0.062147632
-0.05804524 -0.070969135 -0.05163717 -0.041619387 -0.09799391 -0.04080036 0.037062537 0.089550726
0.05804184 0.0043142224 -0.023406303 -0.028451895 -0.016049966 -0.0066843876 0.006756276 0.15409318
-0.045762442 -0.021625374 -0.07134097 -0.13577616 -0.051453173 0.019284895 0.08562558 0.092115104
0.03280702 0.02963415 -0.007903005 0.0065376656 -0.07188844 -0.01792517 0.08093838 -0.06538622
00000000: 8cf0 c3bc ccea 87bc 4428 8bbc 3319 cfbd
00000010: 4d48 87bd 586a 40bc 8989 943c 273e 2d3d
00000020: f885 d9bd c7e3 eabd 33e9 d3bd efbf 12be
00000030: caee b6bd 17e0 cebc 1ee9 163e 13af 95bc
00000040: b896 20bd 24cb 92bc 2e0a cebd 76b3 8bbd
00000050: 39ba 783c cf4b 633d bf8b 583d 686f 933c
00000060: 0964 eabc d9c4 97bd a884 ffbc 6671 26bd
00000070: 2615 a9bc 29ec c93d b76f c9bc 1eaa 003c
00000080: 28c2 f4bc 45ac f3bd d682 a3bc ec66 423d
00000090: fb66 d93d e3cb 8b3d b7bf 623d 3fa4 edbc
000000a0: bd6c 17bd 26b8 e9bc d50e 03bd ed58 363c
000000b0: d212 d73d 741c 09bd aca6 a1bc 065a 62bd
000000c0: 2a34 a2bd c553 0abc 29fd 9e3d 1ead cd3d
000000d0: d4b4 9d3d 37ea ae37 58e2 6f3c 3d84 bc3b
000000e0: 5f50 abbc 60e1 623c cb87 263b b929 be3d
000000f0: ea54 7b3b f53e 15bd 8aac 65bd 4cb8 83bd
00000100: baba 743c 9bcf a13d 45d8 043e 0e3f f83d
00000110: a613 21bc 419d 27bc 9df8 923c 1393 963d
00000120: 1e72 b23c 8de8 f63c cdb4 6c3d 8f21 95bc
00000130: 049f 0ebd 31e4 d0bb 9eb9 a0bd 9dac ab3c
00000140: 5474 003e 9d57 213e fd01 af3d a1ff c83c
00000150: e1d7 8a3b 8081 613d c122 c33c 7925 973d
00000160: 65ea c1b8 7c94 6ebc 9816 29bd 707f c7bb
00000170: 0a8e 06bd 84b1 40bd edab c63d e884 393e
00000180: f4ce 3c3e 3ae7 573e 0643 883d 85c1 dd3d
00000190: 03f9 883d eb08 833d cb60 f93c ac65 213d
000001a0: 1ffe e03c 18d4 0cbb 521c 93bb 377d d73c
000001b0: 2bf2 bf3c 2ce0 ad3d 87cf 1e3e c580 4c3e
000001c0: f35b 793e 61d4 013e 7180 db3d f368 ed3c
000001d0: 8bd4 d1bb da0a 953c 9aef e13b e888 dc3c
000001e0: 9f3c 773c 7696 d63c 7c2a cb3c 7683 cf3c
000001f0: d860 a73d 5900 fb3d 2e60 3c3e 3a4e 0d3e
00000200: 5b67 3f3d 5b8a 3a3c c5b3 07bd 5306 9fbd
00000210: 272f 44bc b8f7 1cbd 5f92 54bc 7450 a63d
00000220: e1c4 953d f1bb 613d 7782 4fbc 96e5 ed3c
00000230: c1ce d53d 2537 773d d7c1 c63d 48cb 4ebc
00000240: 990c acbd 0906 c6bd 4f00 afbd 66af 8fbd
00000250: 9d30 50bd 5c49 153c f42c 9c3d 9d89 493d
00000260: dea9 473d caef 83bd 34c5 d0bc 1c80 d23c
00000270: fa54 f13c 708a 0dbc aa3b 0cbd 2a11 75bd
00000280: e075 98bc 7b46 45bd 403f f63c 8269 9a3c
00000290: 4514 863c 9469 113e e3be 023e 728d 9f3d
000002a0: 9e23 efb9 6bb6 77bc ab0e 7139 c48d a33c
000002b0: 989a b23d 6a83 183d 4607 793d a2d3 4e3d
000002c0: 6244 c73d 17ff 953d 0b3e b53d 138a ae3c
000002d0: d2c5 5d3d 52e9 993d dcdf 683d 9b21 5abd
000002e0: 98c4 c9bc 4529 5f3c 2061 553d 7b0c 723d
000002f0: 4c8c 5a3d 17ca f53d a837 bc3d 6a4d f33d
00000300: a0c7 ad3d 58b4 1b3d 4076 193d 5a68 2c3d
00000310: 242f 9b3d 5ffa 713d 459f 08bd 0c95 babc
00000320: 61ab 8b3d a67f ba3c 4267 ac3d 004b 3c3d
00000330: 3c50 e23d c436 b53d f2c5 043c a40d f0bb
00000340: 4659 893c 7184 a4bc 7128 963c 6e73 5e3d
00000350: 943a fb3d 0824 14bc 4b2c 383d 5523 85bb
00000360: f454 7c3d 0895 0d3d 4a11 6fbc 5282 b0bc
00000370: 90e3 d03c b5e4 ed3b a78a 80bd 848e 7ebd
00000380: d8c0 6dbd 4458 91bd 7f81 53bd 1779 2abd
00000390: 08b1 c8bd 471e 27bd e3ce 173d 5f66 b73d
000003a0: 48bd 6d3d 525e 8d3b 93be bfbc f313 e9bc
000003b0: 387b 83bc b508 dbbb c063 dd3b 9aca 1d3e
000003c0: 6671 3bbd b227 b1bc 371b 92bd e808 0bbe
000003d0: 90c0 52bd 5bfb 9d3c 775c af3d d8a6 bc3d
000003e0: a760 063d 51c3 f23c 9b7b 01bc ea39 d63b
000003f0: 3f3a 93bd ced7 92bc 05c3 a53d 36e9 85bd
